{"format": "graph-model", "generatedBy": "2.18.0", "convertedBy": "TensorFlow.js Converter v4.22.0", "signature": {"inputs": {"x": {"name": "x:0", "dtype": "DT_FLOAT", "tensorShape": {"dim": [{"size": "1"}, {"size": "640"}, {"size": "640"}, {"size": "3"}]}}}, "outputs": {"output_0": {"name": "Identity:0", "dtype": "DT_FLOAT", "tensorShape": {"dim": [{"size": "1"}, {"size": "25200"}, {"size": "9"}]}}}}, "modelTopology": {"node": [{"name": "PartitionedCall/PartitionedCall/functional_15_1/tf_detect_1/strided_slice_3/stack", "op": "Const", "attr": {"value": {"tensor": {"dtype": "DT_INT32", "tensorShape": {"dim": [{"size": "2"}]}}}, "dtype": {"type": "DT_INT32"}}}, {"name": "PartitionedCall/PartitionedCall/functional_15_1/tf_detect_1/strided_slice_3/stack_1", "op": "Const", "attr": {"value": {"tensor": {"dtype": "DT_INT32", "tensorShape": {"dim": [{"size": "2"}]}}}, "dtype": {"type": "DT_INT32"}}}, {"name": "PartitionedCall/PartitionedCall/functional_15_1/tf_detect_1/strided_slice_3/stack_2", "op": "Const", "attr": {"value": {"tensor": {"dtype": "DT_INT32", "tensorShape": {"dim": [{"size": "2"}]}}}, "dtype": {"type": "DT_INT32"}}}, {"name": "PartitionedCall/PartitionedCall/functional_15_1/tf_detect_1/mul_2/y", "op": "Const", "attr": {"value": {"tensor": {"dtype": "DT_FLOAT", "tensorShape": {}}}, "dtype": {"type": "DT_FLOAT"}}}, {"name": "PartitionedCall/PartitionedCall/functional_15_1/tf_detect_1/sub", "op": "Const", "attr": {"value": {"tensor": {"dtype": "DT_FLOAT", "tensorShape": {"dim": [{"size": "1"}, {"size": "6400"}, {"size": "1"}, {"size": "2"}]}}}, "dtype": {"type": "DT_FLOAT"}}}, {"name": "PartitionedCall/PartitionedCall/functional_15_1/tf_detect_1/mul_3", "op": "Const", "attr": {"value": {"tensor": {"dtype": "DT_FLOAT", "tensorShape": {"dim": [{"size": "1"}, {"size": "2"}]}}}, "dtype": {"type": "DT_FLOAT"}}}, {"name": "PartitionedCall/PartitionedCall/functional_15_1/tf_detect_1/strided_slice_5/stack", "op": "Const", "attr": {"value": {"tensor": {"dtype": "DT_INT32", "tensorShape": {"dim": [{"size": "2"}]}}}, "dtype": {"type": "DT_INT32"}}}, {"name": "PartitionedCall/PartitionedCall/functional_15_1/tf_detect_1/strided_slice_5/stack_1", "op": "Const", "attr": {"value": {"tensor": {"dtype": "DT_INT32", "tensorShape": {"dim": [{"size": "2"}]}}}, "dtype": {"type": "DT_INT32"}}}, {"name": "PartitionedCall/PartitionedCall/functional_15_1/tf_detect_1/strided_slice_5/stack_2", "op": "Const", "attr": {"value": {"tensor": {"dtype": "DT_INT32", "tensorShape": {"dim": [{"size": "2"}]}}}, "dtype": {"type": "DT_INT32"}}}, {"name": "PartitionedCall/PartitionedCall/functional_15_1/tf_detect_1/mul_4", "op": "Const", "attr": {"value": {"tensor": {"dtype": "DT_FLOAT", "tensorShape": {"dim": [{"size": "1"}, {"size": "1"}, {"size": "3"}, {"size": "2"}]}}}, "dtype": {"type": "DT_FLOAT"}}}, {"name": "PartitionedCall/PartitionedCall/functional_15_1/tf_detect_1/strided_slice_6/stack", "op": "Const", "attr": {"value": {"tensor": {"dtype": "DT_INT32", "tensorShape": {"dim": [{"size": "2"}]}}}, "dtype": {"type": "DT_INT32"}}}, {"name": "PartitionedCall/PartitionedCall/functional_15_1/tf_detect_1/strided_slice_6/stack_1", "op": "Const", "attr": {"value": {"tensor": {"dtype": "DT_INT32", "tensorShape": {"dim": [{"size": "2"}]}}}, "dtype": {"type": "DT_INT32"}}}, {"name": "PartitionedCall/PartitionedCall/functional_15_1/tf_detect_1/strided_slice_6/stack_2", "op": "Const", "attr": {"value": {"tensor": {"dtype": "DT_INT32", "tensorShape": {"dim": [{"size": "2"}]}}}, "dtype": {"type": "DT_INT32"}}}, {"name": "PartitionedCall/PartitionedCall/functional_15_1/tf_detect_1/tf_conv2d_1/conv2d_79_1/convolution/ReadVariableOp", "op": "Const", "attr": {"value": {"tensor": {"dtype": "DT_FLOAT", "tensorShape": {"dim": [{"size": "1"}, {"size": "1"}, {"size": "192"}, {"size": "27"}]}}}, "dtype": {"type": "DT_FLOAT"}}}, {"name": "PartitionedCall/PartitionedCall/functional_15_1/tf_detect_1/tf_conv2d_1/conv2d_79_1/Reshape", "op": "Const", "attr": {"value": {"tensor": {"dtype": "DT_FLOAT", "tensorShape": {"dim": [{"size": "1"}, {"size": "1"}, {"size": "1"}, {"size": "27"}]}}}, "dtype": {"type": "DT_FLOAT"}}}, {"name": "PartitionedCall/PartitionedCall/functional_15_1/tf_detect_1/Reshape/shape_1", "op": "Const", "attr": {"value": {"tensor": {"dtype": "DT_INT32", "tensorShape": {"dim": [{"size": "4"}]}}}, "dtype": {"type": "DT_INT32"}}}, {"name": "PartitionedCall/PartitionedCall/functional_15_1/tf_detect_1/strided_slice_7/stack", "op": "Const", "attr": {"value": {"tensor": {"dtype": "DT_INT32", "tensorShape": {"dim": [{"size": "2"}]}}}, "dtype": {"type": "DT_INT32"}}}, {"name": "PartitionedCall/PartitionedCall/functional_15_1/tf_detect_1/strided_slice_7/stack_1", "op": "Const", "attr": {"value": {"tensor": {"dtype": "DT_INT32", "tensorShape": {"dim": [{"size": "2"}]}}}, "dtype": {"type": "DT_INT32"}}}, {"name": "PartitionedCall/PartitionedCall/functional_15_1/tf_detect_1/strided_slice_7/stack_2", "op": "Const", "attr": {"value": {"tensor": {"dtype": "DT_INT32", "tensorShape": {"dim": [{"size": "2"}]}}}, "dtype": {"type": "DT_INT32"}}}, {"name": "PartitionedCall/PartitionedCall/functional_15_1/tf_detect_1/concat/axis", "op": "Const", "attr": {"value": {"tensor": {"dtype": "DT_INT32", "tensorShape": {}}}, "dtype": {"type": "DT_INT32"}}}, {"name": "PartitionedCall/PartitionedCall/functional_15_1/tf_detect_1/Reshape_1/shape_1", "op": "Const", "attr": {"value": {"tensor": {"dtype": "DT_INT32", "tensorShape": {"dim": [{"size": "3"}]}}}, "dtype": {"type": "DT_INT32"}}}, {"name": "PartitionedCall/PartitionedCall/functional_15_1/tf_detect_1/strided_slice_11/stack", "op": "Const", "attr": {"value": {"tensor": {"dtype": "DT_INT32", "tensorShape": {"dim": [{"size": "2"}]}}}, "dtype": {"type": "DT_INT32"}}}, {"name": "PartitionedCall/PartitionedCall/functional_15_1/tf_detect_1/strided_slice_11/stack_1", "op": "Const", "attr": {"value": {"tensor": {"dtype": "DT_INT32", "tensorShape": {"dim": [{"size": "2"}]}}}, "dtype": {"type": "DT_INT32"}}}, {"name": "PartitionedCall/PartitionedCall/functional_15_1/tf_detect_1/strided_slice_11/stack_2", "op": "Const", "attr": {"value": {"tensor": {"dtype": "DT_INT32", "tensorShape": {"dim": [{"size": "2"}]}}}, "dtype": {"type": "DT_INT32"}}}, {"name": "PartitionedCall/PartitionedCall/functional_15_1/tf_detect_1/mul_9/y", "op": "Const", "attr": {"value": {"tensor": {"dtype": "DT_FLOAT", "tensorShape": {}}}, "dtype": {"type": "DT_FLOAT"}}}, {"name": "PartitionedCall/PartitionedCall/functional_15_1/tf_detect_1/sub_1", "op": "Const", "attr": {"value": {"tensor": {"dtype": "DT_FLOAT", "tensorShape": {"dim": [{"size": "1"}, {"size": "1600"}, {"size": "1"}, {"size": "2"}]}}}, "dtype": {"type": "DT_FLOAT"}}}, {"name": "PartitionedCall/PartitionedCall/functional_15_1/tf_detect_1/mul_10", "op": "Const", "attr": {"value": {"tensor": {"dtype": "DT_FLOAT", "tensorShape": {"dim": [{"size": "1"}, {"size": "2"}]}}}, "dtype": {"type": "DT_FLOAT"}}}, {"name": "PartitionedCall/PartitionedCall/functional_15_1/tf_detect_1/strided_slice_13/stack", "op": "Const", "attr": {"value": {"tensor": {"dtype": "DT_INT32", "tensorShape": {"dim": [{"size": "2"}]}}}, "dtype": {"type": "DT_INT32"}}}, {"name": "PartitionedCall/PartitionedCall/functional_15_1/tf_detect_1/strided_slice_13/stack_1", "op": "Const", "attr": {"value": {"tensor": {"dtype": "DT_INT32", "tensorShape": {"dim": [{"size": "2"}]}}}, "dtype": {"type": "DT_INT32"}}}, {"name": "PartitionedCall/PartitionedCall/functional_15_1/tf_detect_1/strided_slice_13/stack_2", "op": "Const", "attr": {"value": {"tensor": {"dtype": "DT_INT32", "tensorShape": {"dim": [{"size": "2"}]}}}, "dtype": {"type": "DT_INT32"}}}, {"name": "PartitionedCall/PartitionedCall/functional_15_1/tf_detect_1/mul_11", "op": "Const", "attr": {"value": {"tensor": {"dtype": "DT_FLOAT", "tensorShape": {"dim": [{"size": "1"}, {"size": "1"}, {"size": "3"}, {"size": "2"}]}}}, "dtype": {"type": "DT_FLOAT"}}}, {"name": "PartitionedCall/PartitionedCall/functional_15_1/tf_detect_1/strided_slice_14/stack", "op": "Const", "attr": {"value": {"tensor": {"dtype": "DT_INT32", "tensorShape": {"dim": [{"size": "2"}]}}}, "dtype": {"type": "DT_INT32"}}}, {"name": "PartitionedCall/PartitionedCall/functional_15_1/tf_detect_1/strided_slice_14/stack_1", "op": "Const", "attr": {"value": {"tensor": {"dtype": "DT_INT32", "tensorShape": {"dim": [{"size": "2"}]}}}, "dtype": {"type": "DT_INT32"}}}, {"name": "PartitionedCall/PartitionedCall/functional_15_1/tf_detect_1/strided_slice_14/stack_2", "op": "Const", "attr": {"value": {"tensor": {"dtype": "DT_INT32", "tensorShape": {"dim": [{"size": "2"}]}}}, "dtype": {"type": "DT_INT32"}}}, {"name": "PartitionedCall/PartitionedCall/functional_15_1/tf_detect_1/tf_conv2d_1_2/conv2d_80_1/convolution/ReadVariableOp", "op": "Const", "attr": {"value": {"tensor": {"dtype": "DT_FLOAT", "tensorShape": {"dim": [{"size": "1"}, {"size": "1"}, {"size": "384"}, {"size": "27"}]}}}, "dtype": {"type": "DT_FLOAT"}}}, {"name": "PartitionedCall/PartitionedCall/functional_15_1/tf_detect_1/tf_conv2d_1_2/conv2d_80_1/Reshape", "op": "Const", "attr": {"value": {"tensor": {"dtype": "DT_FLOAT", "tensorShape": {"dim": [{"size": "1"}, {"size": "1"}, {"size": "1"}, {"size": "27"}]}}}, "dtype": {"type": "DT_FLOAT"}}}, {"name": "PartitionedCall/PartitionedCall/functional_15_1/tf_detect_1/Reshape_2/shape_1", "op": "Const", "attr": {"value": {"tensor": {"dtype": "DT_INT32", "tensorShape": {"dim": [{"size": "4"}]}}}, "dtype": {"type": "DT_INT32"}}}, {"name": "PartitionedCall/PartitionedCall/functional_15_1/tf_detect_1/strided_slice_15/stack", "op": "Const", "attr": {"value": {"tensor": {"dtype": "DT_INT32", "tensorShape": {"dim": [{"size": "2"}]}}}, "dtype": {"type": "DT_INT32"}}}, {"name": "PartitionedCall/PartitionedCall/functional_15_1/tf_detect_1/strided_slice_15/stack_1", "op": "Const", "attr": {"value": {"tensor": {"dtype": "DT_INT32", "tensorShape": {"dim": [{"size": "2"}]}}}, "dtype": {"type": "DT_INT32"}}}, {"name": "PartitionedCall/PartitionedCall/functional_15_1/tf_detect_1/strided_slice_15/stack_2", "op": "Const", "attr": {"value": {"tensor": {"dtype": "DT_INT32", "tensorShape": {"dim": [{"size": "2"}]}}}, "dtype": {"type": "DT_INT32"}}}, {"name": "PartitionedCall/PartitionedCall/functional_15_1/tf_detect_1/concat_1/axis", "op": "Const", "attr": {"value": {"tensor": {"dtype": "DT_INT32", "tensorShape": {}}}, "dtype": {"type": "DT_INT32"}}}, {"name": "PartitionedCall/PartitionedCall/functional_15_1/tf_detect_1/Reshape_3/shape_1", "op": "Const", "attr": {"value": {"tensor": {"dtype": "DT_INT32", "tensorShape": {"dim": [{"size": "3"}]}}}, "dtype": {"type": "DT_INT32"}}}, {"name": "PartitionedCall/PartitionedCall/functional_15_1/tf_detect_1/strided_slice_19/stack", "op": "Const", "attr": {"value": {"tensor": {"dtype": "DT_INT32", "tensorShape": {"dim": [{"size": "2"}]}}}, "dtype": {"type": "DT_INT32"}}}, {"name": "PartitionedCall/PartitionedCall/functional_15_1/tf_detect_1/strided_slice_19/stack_1", "op": "Const", "attr": {"value": {"tensor": {"dtype": "DT_INT32", "tensorShape": {"dim": [{"size": "2"}]}}}, "dtype": {"type": "DT_INT32"}}}, {"name": "PartitionedCall/PartitionedCall/functional_15_1/tf_detect_1/strided_slice_19/stack_2", "op": "Const", "attr": {"value": {"tensor": {"dtype": "DT_INT32", "tensorShape": {"dim": [{"size": "2"}]}}}, "dtype": {"type": "DT_INT32"}}}, {"name": "PartitionedCall/PartitionedCall/functional_15_1/tf_detect_1/mul_16/y", "op": "Const", "attr": {"value": {"tensor": {"dtype": "DT_FLOAT", "tensorShape": {}}}, "dtype": {"type": "DT_FLOAT"}}}, {"name": "PartitionedCall/PartitionedCall/functional_15_1/tf_detect_1/sub_2", "op": "Const", "attr": {"value": {"tensor": {"dtype": "DT_FLOAT", "tensorShape": {"dim": [{"size": "1"}, {"size": "400"}, {"size": "1"}, {"size": "2"}]}}}, "dtype": {"type": "DT_FLOAT"}}}, {"name": "PartitionedCall/PartitionedCall/functional_15_1/tf_detect_1/mul_17", "op": "Const", "attr": {"value": {"tensor": {"dtype": "DT_FLOAT", "tensorShape": {"dim": [{"size": "1"}, {"size": "2"}]}}}, "dtype": {"type": "DT_FLOAT"}}}, {"name": "PartitionedCall/PartitionedCall/functional_15_1/tf_detect_1/strided_slice_21/stack", "op": "Const", "attr": {"value": {"tensor": {"dtype": "DT_INT32", "tensorShape": {"dim": [{"size": "2"}]}}}, "dtype": {"type": "DT_INT32"}}}, {"name": "PartitionedCall/PartitionedCall/functional_15_1/tf_detect_1/strided_slice_21/stack_1", "op": "Const", "attr": {"value": {"tensor": {"dtype": "DT_INT32", "tensorShape": {"dim": [{"size": "2"}]}}}, "dtype": {"type": "DT_INT32"}}}, {"name": "PartitionedCall/PartitionedCall/functional_15_1/tf_detect_1/strided_slice_21/stack_2", "op": "Const", "attr": {"value": {"tensor": {"dtype": "DT_INT32", "tensorShape": {"dim": [{"size": "2"}]}}}, "dtype": {"type": "DT_INT32"}}}, {"name": "PartitionedCall/PartitionedCall/functional_15_1/tf_detect_1/mul_18", "op": "Const", "attr": {"value": {"tensor": {"dtype": "DT_FLOAT", "tensorShape": {"dim": [{"size": "1"}, {"size": "1"}, {"size": "3"}, {"size": "2"}]}}}, "dtype": {"type": "DT_FLOAT"}}}, {"name": "PartitionedCall/PartitionedCall/functional_15_1/tf_detect_1/strided_slice_22/stack", "op": "Const", "attr": {"value": {"tensor": {"dtype": "DT_INT32", "tensorShape": {"dim": [{"size": "2"}]}}}, "dtype": {"type": "DT_INT32"}}}, {"name": "PartitionedCall/PartitionedCall/functional_15_1/tf_detect_1/strided_slice_22/stack_1", "op": "Const", "attr": {"value": {"tensor": {"dtype": "DT_INT32", "tensorShape": {"dim": [{"size": "2"}]}}}, "dtype": {"type": "DT_INT32"}}}, {"name": "PartitionedCall/PartitionedCall/functional_15_1/tf_detect_1/strided_slice_22/stack_2", "op": "Const", "attr": {"value": {"tensor": {"dtype": "DT_INT32", "tensorShape": {"dim": [{"size": "2"}]}}}, "dtype": {"type": "DT_INT32"}}}, {"name": "PartitionedCall/PartitionedCall/functional_15_1/tfc3_7_1/tf_conv_72_1/conv2d_72_1/convolution/ReadVariableOp", "op": "Const", "attr": {"value": {"tensor": {"dtype": "DT_FLOAT", "tensorShape": {"dim": [{"size": "1"}, {"size": "1"}, {"size": "768"}, {"size": "384"}]}}}, "dtype": {"type": "DT_FLOAT"}}}, {"name": "PartitionedCall/PartitionedCall/functional_15_1/tfc3_7_1/tf_conv_72_1/conv2d_72_1/Reshape", "op": "Const", "attr": {"value": {"tensor": {"dtype": "DT_FLOAT", "tensorShape": {"dim": [{"size": "1"}, {"size": "1"}, {"size": "1"}, {"size": "384"}]}}}, "dtype": {"type": "DT_FLOAT"}}}, {"name": "PartitionedCall/PartitionedCall/functional_15_1/tfc3_7_1/sequential_14_1/tf_bottleneck_20_1/tf_conv_75_1/conv2d_75_1/convolution/ReadVariableOp", "op": "Const", "attr": {"value": {"tensor": {"dtype": "DT_FLOAT", "tensorShape": {"dim": [{"size": "1"}, {"size": "1"}, {"size": "384"}, {"size": "384"}]}}}, "dtype": {"type": "DT_FLOAT"}}}, {"name": "PartitionedCall/PartitionedCall/functional_15_1/tfc3_7_1/sequential_14_1/tf_bottleneck_20_1/tf_conv_75_1/conv2d_75_1/Reshape", "op": "Const", "attr": {"value": {"tensor": {"dtype": "DT_FLOAT", "tensorShape": {"dim": [{"size": "1"}, {"size": "1"}, {"size": "1"}, {"size": "384"}]}}}, "dtype": {"type": "DT_FLOAT"}}}, {"name": "PartitionedCall/PartitionedCall/functional_15_1/tfc3_7_1/sequential_14_1/tf_bottleneck_20_1/tf_conv_76_1/conv2d_76_1/convolution/ReadVariableOp", "op": "Const", "attr": {"value": {"tensor": {"dtype": "DT_FLOAT", "tensorShape": {"dim": [{"size": "3"}, {"size": "3"}, {"size": "384"}, {"size": "384"}]}}}, "dtype": {"type": "DT_FLOAT"}}}, {"name": "PartitionedCall/PartitionedCall/functional_15_1/tfc3_7_1/sequential_14_1/tf_bottleneck_20_1/tf_conv_76_1/conv2d_76_1/Reshape", "op": "Const", "attr": {"value": {"tensor": {"dtype": "DT_FLOAT", "tensorShape": {"dim": [{"size": "1"}, {"size": "1"}, {"size": "1"}, {"size": "384"}]}}}, "dtype": {"type": "DT_FLOAT"}}}, {"name": "PartitionedCall/PartitionedCall/functional_15_1/tfc3_7_1/sequential_14_1/tf_bottleneck_21_1/tf_conv_77_1/conv2d_77_1/convolution/ReadVariableOp", "op": "Const", "attr": {"value": {"tensor": {"dtype": "DT_FLOAT", "tensorShape": {"dim": [{"size": "1"}, {"size": "1"}, {"size": "384"}, {"size": "384"}]}}}, "dtype": {"type": "DT_FLOAT"}}}, {"name": "PartitionedCall/PartitionedCall/functional_15_1/tfc3_7_1/sequential_14_1/tf_bottleneck_21_1/tf_conv_77_1/conv2d_77_1/Reshape", "op": "Const", "attr": {"value": {"tensor": {"dtype": "DT_FLOAT", "tensorShape": {"dim": [{"size": "1"}, {"size": "1"}, {"size": "1"}, {"size": "384"}]}}}, "dtype": {"type": "DT_FLOAT"}}}, {"name": "PartitionedCall/PartitionedCall/functional_15_1/tfc3_7_1/sequential_14_1/tf_bottleneck_21_1/tf_conv_78_1/conv2d_78_1/convolution/ReadVariableOp", "op": "Const", "attr": {"value": {"tensor": {"dtype": "DT_FLOAT", "tensorShape": {"dim": [{"size": "3"}, {"size": "3"}, {"size": "384"}, {"size": "384"}]}}}, "dtype": {"type": "DT_FLOAT"}}}, {"name": "PartitionedCall/PartitionedCall/functional_15_1/tfc3_7_1/sequential_14_1/tf_bottleneck_21_1/tf_conv_78_1/conv2d_78_1/Reshape", "op": "Const", "attr": {"value": {"tensor": {"dtype": "DT_FLOAT", "tensorShape": {"dim": [{"size": "1"}, {"size": "1"}, {"size": "1"}, {"size": "384"}]}}}, "dtype": {"type": "DT_FLOAT"}}}, {"name": "PartitionedCall/PartitionedCall/functional_15_1/tfc3_6_1/tf_conv_64_1/conv2d_64_1/convolution/ReadVariableOp", "op": "Const", "attr": {"value": {"tensor": {"dtype": "DT_FLOAT", "tensorShape": {"dim": [{"size": "1"}, {"size": "1"}, {"size": "384"}, {"size": "192"}]}}}, "dtype": {"type": "DT_FLOAT"}}}, {"name": "PartitionedCall/PartitionedCall/functional_15_1/tfc3_6_1/tf_conv_64_1/conv2d_64_1/Reshape", "op": "Const", "attr": {"value": {"tensor": {"dtype": "DT_FLOAT", "tensorShape": {"dim": [{"size": "1"}, {"size": "1"}, {"size": "1"}, {"size": "192"}]}}}, "dtype": {"type": "DT_FLOAT"}}}, {"name": "PartitionedCall/PartitionedCall/functional_15_1/tfc3_6_1/sequential_12_1/tf_bottleneck_18_1/tf_conv_67_1/conv2d_67_1/convolution/ReadVariableOp", "op": "Const", "attr": {"value": {"tensor": {"dtype": "DT_FLOAT", "tensorShape": {"dim": [{"size": "1"}, {"size": "1"}, {"size": "192"}, {"size": "192"}]}}}, "dtype": {"type": "DT_FLOAT"}}}, {"name": "PartitionedCall/PartitionedCall/functional_15_1/tfc3_6_1/sequential_12_1/tf_bottleneck_18_1/tf_conv_67_1/conv2d_67_1/Reshape", "op": "Const", "attr": {"value": {"tensor": {"dtype": "DT_FLOAT", "tensorShape": {"dim": [{"size": "1"}, {"size": "1"}, {"size": "1"}, {"size": "192"}]}}}, "dtype": {"type": "DT_FLOAT"}}}, {"name": "PartitionedCall/PartitionedCall/functional_15_1/tfc3_6_1/sequential_12_1/tf_bottleneck_18_1/tf_conv_68_1/conv2d_68_1/convolution/ReadVariableOp", "op": "Const", "attr": {"value": {"tensor": {"dtype": "DT_FLOAT", "tensorShape": {"dim": [{"size": "3"}, {"size": "3"}, {"size": "192"}, {"size": "192"}]}}}, "dtype": {"type": "DT_FLOAT"}}}, {"name": "PartitionedCall/PartitionedCall/functional_15_1/tfc3_6_1/sequential_12_1/tf_bottleneck_18_1/tf_conv_68_1/conv2d_68_1/Reshape", "op": "Const", "attr": {"value": {"tensor": {"dtype": "DT_FLOAT", "tensorShape": {"dim": [{"size": "1"}, {"size": "1"}, {"size": "1"}, {"size": "192"}]}}}, "dtype": {"type": "DT_FLOAT"}}}, {"name": "PartitionedCall/PartitionedCall/functional_15_1/tfc3_6_1/sequential_12_1/tf_bottleneck_19_1/tf_conv_69_1/conv2d_69_1/convolution/ReadVariableOp", "op": "Const", "attr": {"value": {"tensor": {"dtype": "DT_FLOAT", "tensorShape": {"dim": [{"size": "1"}, {"size": "1"}, {"size": "192"}, {"size": "192"}]}}}, "dtype": {"type": "DT_FLOAT"}}}, {"name": "PartitionedCall/PartitionedCall/functional_15_1/tfc3_6_1/sequential_12_1/tf_bottleneck_19_1/tf_conv_69_1/conv2d_69_1/Reshape", "op": "Const", "attr": {"value": {"tensor": {"dtype": "DT_FLOAT", "tensorShape": {"dim": [{"size": "1"}, {"size": "1"}, {"size": "1"}, {"size": "192"}]}}}, "dtype": {"type": "DT_FLOAT"}}}, {"name": "PartitionedCall/PartitionedCall/functional_15_1/tfc3_6_1/sequential_12_1/tf_bottleneck_19_1/tf_conv_70_1/conv2d_70_1/convolution/ReadVariableOp", "op": "Const", "attr": {"value": {"tensor": {"dtype": "DT_FLOAT", "tensorShape": {"dim": [{"size": "3"}, {"size": "3"}, {"size": "192"}, {"size": "192"}]}}}, "dtype": {"type": "DT_FLOAT"}}}, {"name": "PartitionedCall/PartitionedCall/functional_15_1/tfc3_6_1/sequential_12_1/tf_bottleneck_19_1/tf_conv_70_1/conv2d_70_1/Reshape", "op": "Const", "attr": {"value": {"tensor": {"dtype": "DT_FLOAT", "tensorShape": {"dim": [{"size": "1"}, {"size": "1"}, {"size": "1"}, {"size": "192"}]}}}, "dtype": {"type": "DT_FLOAT"}}}, {"name": "PartitionedCall/PartitionedCall/functional_15_1/tfc3_5_1/tf_conv_56_1/conv2d_56_1/convolution/ReadVariableOp", "op": "Const", "attr": {"value": {"tensor": {"dtype": "DT_FLOAT", "tensorShape": {"dim": [{"size": "1"}, {"size": "1"}, {"size": "384"}, {"size": "96"}]}}}, "dtype": {"type": "DT_FLOAT"}}}, {"name": "PartitionedCall/PartitionedCall/functional_15_1/tfc3_5_1/tf_conv_56_1/conv2d_56_1/Reshape", "op": "Const", "attr": {"value": {"tensor": {"dtype": "DT_FLOAT", "tensorShape": {"dim": [{"size": "1"}, {"size": "1"}, {"size": "1"}, {"size": "96"}]}}}, "dtype": {"type": "DT_FLOAT"}}}, {"name": "PartitionedCall/PartitionedCall/functional_15_1/tfc3_5_1/sequential_10_1/tf_bottleneck_16_1/tf_conv_59_1/conv2d_59_1/convolution/ReadVariableOp", "op": "Const", "attr": {"value": {"tensor": {"dtype": "DT_FLOAT", "tensorShape": {"dim": [{"size": "1"}, {"size": "1"}, {"size": "96"}, {"size": "96"}]}}}, "dtype": {"type": "DT_FLOAT"}}}, {"name": "PartitionedCall/PartitionedCall/functional_15_1/tfc3_5_1/sequential_10_1/tf_bottleneck_16_1/tf_conv_59_1/conv2d_59_1/Reshape", "op": "Const", "attr": {"value": {"tensor": {"dtype": "DT_FLOAT", "tensorShape": {"dim": [{"size": "1"}, {"size": "1"}, {"size": "1"}, {"size": "96"}]}}}, "dtype": {"type": "DT_FLOAT"}}}, {"name": "PartitionedCall/PartitionedCall/functional_15_1/tfc3_5_1/sequential_10_1/tf_bottleneck_16_1/tf_conv_60_1/conv2d_60_1/convolution/ReadVariableOp", "op": "Const", "attr": {"value": {"tensor": {"dtype": "DT_FLOAT", "tensorShape": {"dim": [{"size": "3"}, {"size": "3"}, {"size": "96"}, {"size": "96"}]}}}, "dtype": {"type": "DT_FLOAT"}}}, {"name": "PartitionedCall/PartitionedCall/functional_15_1/tfc3_5_1/sequential_10_1/tf_bottleneck_16_1/tf_conv_60_1/conv2d_60_1/Reshape", "op": "Const", "attr": {"value": {"tensor": {"dtype": "DT_FLOAT", "tensorShape": {"dim": [{"size": "1"}, {"size": "1"}, {"size": "1"}, {"size": "96"}]}}}, "dtype": {"type": "DT_FLOAT"}}}, {"name": "PartitionedCall/PartitionedCall/functional_15_1/tfc3_5_1/sequential_10_1/tf_bottleneck_17_1/tf_conv_61_1/conv2d_61_1/convolution/ReadVariableOp", "op": "Const", "attr": {"value": {"tensor": {"dtype": "DT_FLOAT", "tensorShape": {"dim": [{"size": "1"}, {"size": "1"}, {"size": "96"}, {"size": "96"}]}}}, "dtype": {"type": "DT_FLOAT"}}}, {"name": "PartitionedCall/PartitionedCall/functional_15_1/tfc3_5_1/sequential_10_1/tf_bottleneck_17_1/tf_conv_61_1/conv2d_61_1/Reshape", "op": "Const", "attr": {"value": {"tensor": {"dtype": "DT_FLOAT", "tensorShape": {"dim": [{"size": "1"}, {"size": "1"}, {"size": "1"}, {"size": "96"}]}}}, "dtype": {"type": "DT_FLOAT"}}}, {"name": "PartitionedCall/PartitionedCall/functional_15_1/tfc3_5_1/sequential_10_1/tf_bottleneck_17_1/tf_conv_62_1/conv2d_62_1/convolution/ReadVariableOp", "op": "Const", "attr": {"value": {"tensor": {"dtype": "DT_FLOAT", "tensorShape": {"dim": [{"size": "3"}, {"size": "3"}, {"size": "96"}, {"size": "96"}]}}}, "dtype": {"type": "DT_FLOAT"}}}, {"name": "PartitionedCall/PartitionedCall/functional_15_1/tfc3_5_1/sequential_10_1/tf_bottleneck_17_1/tf_conv_62_1/conv2d_62_1/Reshape", "op": "Const", "attr": {"value": {"tensor": {"dtype": "DT_FLOAT", "tensorShape": {"dim": [{"size": "1"}, {"size": "1"}, {"size": "1"}, {"size": "96"}]}}}, "dtype": {"type": "DT_FLOAT"}}}, {"name": "PartitionedCall/PartitionedCall/functional_15_1/tf_upsample_1_2/resize/size", "op": "Const", "attr": {"value": {"tensor": {"dtype": "DT_INT32", "tensorShape": {"dim": [{"size": "2"}]}}}, "dtype": {"type": "DT_INT32"}}}, {"name": "PartitionedCall/PartitionedCall/functional_15_1/tf_concat_1_2/concat/axis", "op": "Const", "attr": {"value": {"tensor": {"dtype": "DT_INT32", "tensorShape": {}}}, "dtype": {"type": "DT_INT32"}}}, {"name": "PartitionedCall/PartitionedCall/functional_15_1/tfc3_5_1/tf_conv_57_1/conv2d_57_1/convolution/ReadVariableOp", "op": "Const", "attr": {"value": {"tensor": {"dtype": "DT_FLOAT", "tensorShape": {"dim": [{"size": "1"}, {"size": "1"}, {"size": "384"}, {"size": "96"}]}}}, "dtype": {"type": "DT_FLOAT"}}}, {"name": "PartitionedCall/PartitionedCall/functional_15_1/tfc3_5_1/tf_conv_57_1/conv2d_57_1/Reshape", "op": "Const", "attr": {"value": {"tensor": {"dtype": "DT_FLOAT", "tensorShape": {"dim": [{"size": "1"}, {"size": "1"}, {"size": "1"}, {"size": "96"}]}}}, "dtype": {"type": "DT_FLOAT"}}}, {"name": "PartitionedCall/PartitionedCall/functional_15_1/tfc3_5_1/concat/axis", "op": "Const", "attr": {"value": {"tensor": {"dtype": "DT_INT32", "tensorShape": {}}}, "dtype": {"type": "DT_INT32"}}}, {"name": "PartitionedCall/PartitionedCall/functional_15_1/tfc3_5_1/tf_conv_58_1/conv2d_58_1/convolution/ReadVariableOp", "op": "Const", "attr": {"value": {"tensor": {"dtype": "DT_FLOAT", "tensorShape": {"dim": [{"size": "1"}, {"size": "1"}, {"size": "192"}, {"size": "192"}]}}}, "dtype": {"type": "DT_FLOAT"}}}, {"name": "PartitionedCall/PartitionedCall/functional_15_1/tfc3_5_1/tf_conv_58_1/conv2d_58_1/Reshape", "op": "Const", "attr": {"value": {"tensor": {"dtype": "DT_FLOAT", "tensorShape": {"dim": [{"size": "1"}, {"size": "1"}, {"size": "1"}, {"size": "192"}]}}}, "dtype": {"type": "DT_FLOAT"}}}, {"name": "PartitionedCall/PartitionedCall/functional_15_1/tf_conv_63_1/sequential_11_1/tf_pad_5_1/Pad/paddings", "op": "Const", "attr": {"value": {"tensor": {"dtype": "DT_INT32", "tensorShape": {"dim": [{"size": "4"}, {"size": "2"}]}}}, "dtype": {"type": "DT_INT32"}}}, {"name": "PartitionedCall/PartitionedCall/functional_15_1/tf_conv_63_1/sequential_11_1/conv2d_63_1/convolution/ReadVariableOp", "op": "Const", "attr": {"value": {"tensor": {"dtype": "DT_FLOAT", "tensorShape": {"dim": [{"size": "3"}, {"size": "3"}, {"size": "192"}, {"size": "192"}]}}}, "dtype": {"type": "DT_FLOAT"}}}, {"name": "PartitionedCall/PartitionedCall/functional_15_1/tf_conv_63_1/sequential_11_1/conv2d_63_1/Reshape", "op": "Const", "attr": {"value": {"tensor": {"dtype": "DT_FLOAT", "tensorShape": {"dim": [{"size": "1"}, {"size": "1"}, {"size": "1"}, {"size": "192"}]}}}, "dtype": {"type": "DT_FLOAT"}}}, {"name": "PartitionedCall/PartitionedCall/functional_15_1/tfc3_4_1/tf_conv_48_1/conv2d_48_1/convolution/ReadVariableOp", "op": "Const", "attr": {"value": {"tensor": {"dtype": "DT_FLOAT", "tensorShape": {"dim": [{"size": "1"}, {"size": "1"}, {"size": "768"}, {"size": "192"}]}}}, "dtype": {"type": "DT_FLOAT"}}}, {"name": "PartitionedCall/PartitionedCall/functional_15_1/tfc3_4_1/tf_conv_48_1/conv2d_48_1/Reshape", "op": "Const", "attr": {"value": {"tensor": {"dtype": "DT_FLOAT", "tensorShape": {"dim": [{"size": "1"}, {"size": "1"}, {"size": "1"}, {"size": "192"}]}}}, "dtype": {"type": "DT_FLOAT"}}}, {"name": "PartitionedCall/PartitionedCall/functional_15_1/tfc3_4_1/sequential_9_1/tf_bottleneck_14_1/tf_conv_51_1/conv2d_51_1/convolution/ReadVariableOp", "op": "Const", "attr": {"value": {"tensor": {"dtype": "DT_FLOAT", "tensorShape": {"dim": [{"size": "1"}, {"size": "1"}, {"size": "192"}, {"size": "192"}]}}}, "dtype": {"type": "DT_FLOAT"}}}, {"name": "PartitionedCall/PartitionedCall/functional_15_1/tfc3_4_1/sequential_9_1/tf_bottleneck_14_1/tf_conv_51_1/conv2d_51_1/Reshape", "op": "Const", "attr": {"value": {"tensor": {"dtype": "DT_FLOAT", "tensorShape": {"dim": [{"size": "1"}, {"size": "1"}, {"size": "1"}, {"size": "192"}]}}}, "dtype": {"type": "DT_FLOAT"}}}, {"name": "PartitionedCall/PartitionedCall/functional_15_1/tfc3_4_1/sequential_9_1/tf_bottleneck_14_1/tf_conv_52_1/conv2d_52_1/convolution/ReadVariableOp", "op": "Const", "attr": {"value": {"tensor": {"dtype": "DT_FLOAT", "tensorShape": {"dim": [{"size": "3"}, {"size": "3"}, {"size": "192"}, {"size": "192"}]}}}, "dtype": {"type": "DT_FLOAT"}}}, {"name": "PartitionedCall/PartitionedCall/functional_15_1/tfc3_4_1/sequential_9_1/tf_bottleneck_14_1/tf_conv_52_1/conv2d_52_1/Reshape", "op": "Const", "attr": {"value": {"tensor": {"dtype": "DT_FLOAT", "tensorShape": {"dim": [{"size": "1"}, {"size": "1"}, {"size": "1"}, {"size": "192"}]}}}, "dtype": {"type": "DT_FLOAT"}}}, {"name": "PartitionedCall/PartitionedCall/functional_15_1/tfc3_4_1/sequential_9_1/tf_bottleneck_15_1/tf_conv_53_1/conv2d_53_1/convolution/ReadVariableOp", "op": "Const", "attr": {"value": {"tensor": {"dtype": "DT_FLOAT", "tensorShape": {"dim": [{"size": "1"}, {"size": "1"}, {"size": "192"}, {"size": "192"}]}}}, "dtype": {"type": "DT_FLOAT"}}}, {"name": "PartitionedCall/PartitionedCall/functional_15_1/tfc3_4_1/sequential_9_1/tf_bottleneck_15_1/tf_conv_53_1/conv2d_53_1/Reshape", "op": "Const", "attr": {"value": {"tensor": {"dtype": "DT_FLOAT", "tensorShape": {"dim": [{"size": "1"}, {"size": "1"}, {"size": "1"}, {"size": "192"}]}}}, "dtype": {"type": "DT_FLOAT"}}}, {"name": "PartitionedCall/PartitionedCall/functional_15_1/tfc3_4_1/sequential_9_1/tf_bottleneck_15_1/tf_conv_54_1/conv2d_54_1/convolution/ReadVariableOp", "op": "Const", "attr": {"value": {"tensor": {"dtype": "DT_FLOAT", "tensorShape": {"dim": [{"size": "3"}, {"size": "3"}, {"size": "192"}, {"size": "192"}]}}}, "dtype": {"type": "DT_FLOAT"}}}, {"name": "PartitionedCall/PartitionedCall/functional_15_1/tfc3_4_1/sequential_9_1/tf_bottleneck_15_1/tf_conv_54_1/conv2d_54_1/Reshape", "op": "Const", "attr": {"value": {"tensor": {"dtype": "DT_FLOAT", "tensorShape": {"dim": [{"size": "1"}, {"size": "1"}, {"size": "1"}, {"size": "192"}]}}}, "dtype": {"type": "DT_FLOAT"}}}, {"name": "PartitionedCall/PartitionedCall/functional_15_1/tf_upsample_1/resize/size", "op": "Const", "attr": {"value": {"tensor": {"dtype": "DT_INT32", "tensorShape": {"dim": [{"size": "2"}]}}}, "dtype": {"type": "DT_INT32"}}}, {"name": "PartitionedCall/PartitionedCall/functional_15_1/tf_concat_1/concat/axis", "op": "Const", "attr": {"value": {"tensor": {"dtype": "DT_INT32", "tensorShape": {}}}, "dtype": {"type": "DT_INT32"}}}, {"name": "PartitionedCall/PartitionedCall/functional_15_1/tfc3_4_1/tf_conv_49_1/conv2d_49_1/convolution/ReadVariableOp", "op": "Const", "attr": {"value": {"tensor": {"dtype": "DT_FLOAT", "tensorShape": {"dim": [{"size": "1"}, {"size": "1"}, {"size": "768"}, {"size": "192"}]}}}, "dtype": {"type": "DT_FLOAT"}}}, {"name": "PartitionedCall/PartitionedCall/functional_15_1/tfc3_4_1/tf_conv_49_1/conv2d_49_1/Reshape", "op": "Const", "attr": {"value": {"tensor": {"dtype": "DT_FLOAT", "tensorShape": {"dim": [{"size": "1"}, {"size": "1"}, {"size": "1"}, {"size": "192"}]}}}, "dtype": {"type": "DT_FLOAT"}}}, {"name": "PartitionedCall/PartitionedCall/functional_15_1/tfc3_4_1/concat/axis", "op": "Const", "attr": {"value": {"tensor": {"dtype": "DT_INT32", "tensorShape": {}}}, "dtype": {"type": "DT_INT32"}}}, {"name": "PartitionedCall/PartitionedCall/functional_15_1/tfc3_4_1/tf_conv_50_1/conv2d_50_1/convolution/ReadVariableOp", "op": "Const", "attr": {"value": {"tensor": {"dtype": "DT_FLOAT", "tensorShape": {"dim": [{"size": "1"}, {"size": "1"}, {"size": "384"}, {"size": "384"}]}}}, "dtype": {"type": "DT_FLOAT"}}}, {"name": "PartitionedCall/PartitionedCall/functional_15_1/tfc3_4_1/tf_conv_50_1/conv2d_50_1/Reshape", "op": "Const", "attr": {"value": {"tensor": {"dtype": "DT_FLOAT", "tensorShape": {"dim": [{"size": "1"}, {"size": "1"}, {"size": "1"}, {"size": "384"}]}}}, "dtype": {"type": "DT_FLOAT"}}}, {"name": "PartitionedCall/PartitionedCall/functional_15_1/tf_conv_55_1/conv2d_55_1/convolution/ReadVariableOp", "op": "Const", "attr": {"value": {"tensor": {"dtype": "DT_FLOAT", "tensorShape": {"dim": [{"size": "1"}, {"size": "1"}, {"size": "384"}, {"size": "192"}]}}}, "dtype": {"type": "DT_FLOAT"}}}, {"name": "PartitionedCall/PartitionedCall/functional_15_1/tf_conv_55_1/conv2d_55_1/Reshape", "op": "Const", "attr": {"value": {"tensor": {"dtype": "DT_FLOAT", "tensorShape": {"dim": [{"size": "1"}, {"size": "1"}, {"size": "1"}, {"size": "192"}]}}}, "dtype": {"type": "DT_FLOAT"}}}, {"name": "PartitionedCall/PartitionedCall/functional_15_1/tf_concat_2_1/concat/axis", "op": "Const", "attr": {"value": {"tensor": {"dtype": "DT_INT32", "tensorShape": {}}}, "dtype": {"type": "DT_INT32"}}}, {"name": "PartitionedCall/PartitionedCall/functional_15_1/tfc3_6_1/tf_conv_65_1/conv2d_65_1/convolution/ReadVariableOp", "op": "Const", "attr": {"value": {"tensor": {"dtype": "DT_FLOAT", "tensorShape": {"dim": [{"size": "1"}, {"size": "1"}, {"size": "384"}, {"size": "192"}]}}}, "dtype": {"type": "DT_FLOAT"}}}, {"name": "PartitionedCall/PartitionedCall/functional_15_1/tfc3_6_1/tf_conv_65_1/conv2d_65_1/Reshape", "op": "Const", "attr": {"value": {"tensor": {"dtype": "DT_FLOAT", "tensorShape": {"dim": [{"size": "1"}, {"size": "1"}, {"size": "1"}, {"size": "192"}]}}}, "dtype": {"type": "DT_FLOAT"}}}, {"name": "PartitionedCall/PartitionedCall/functional_15_1/tfc3_6_1/concat/axis", "op": "Const", "attr": {"value": {"tensor": {"dtype": "DT_INT32", "tensorShape": {}}}, "dtype": {"type": "DT_INT32"}}}, {"name": "PartitionedCall/PartitionedCall/functional_15_1/tfc3_6_1/tf_conv_66_1/conv2d_66_1/convolution/ReadVariableOp", "op": "Const", "attr": {"value": {"tensor": {"dtype": "DT_FLOAT", "tensorShape": {"dim": [{"size": "1"}, {"size": "1"}, {"size": "384"}, {"size": "384"}]}}}, "dtype": {"type": "DT_FLOAT"}}}, {"name": "PartitionedCall/PartitionedCall/functional_15_1/tfc3_6_1/tf_conv_66_1/conv2d_66_1/Reshape", "op": "Const", "attr": {"value": {"tensor": {"dtype": "DT_FLOAT", "tensorShape": {"dim": [{"size": "1"}, {"size": "1"}, {"size": "1"}, {"size": "384"}]}}}, "dtype": {"type": "DT_FLOAT"}}}, {"name": "PartitionedCall/PartitionedCall/functional_15_1/tf_conv_71_1/sequential_13_1/tf_pad_6_1/Pad/paddings", "op": "Const", "attr": {"value": {"tensor": {"dtype": "DT_INT32", "tensorShape": {"dim": [{"size": "4"}, {"size": "2"}]}}}, "dtype": {"type": "DT_INT32"}}}, {"name": "PartitionedCall/PartitionedCall/functional_15_1/tf_conv_71_1/sequential_13_1/conv2d_71_1/convolution/ReadVariableOp", "op": "Const", "attr": {"value": {"tensor": {"dtype": "DT_FLOAT", "tensorShape": {"dim": [{"size": "3"}, {"size": "3"}, {"size": "384"}, {"size": "384"}]}}}, "dtype": {"type": "DT_FLOAT"}}}, {"name": "PartitionedCall/PartitionedCall/functional_15_1/tf_conv_71_1/sequential_13_1/conv2d_71_1/Reshape", "op": "Const", "attr": {"value": {"tensor": {"dtype": "DT_FLOAT", "tensorShape": {"dim": [{"size": "1"}, {"size": "1"}, {"size": "1"}, {"size": "384"}]}}}, "dtype": {"type": "DT_FLOAT"}}}, {"name": "PartitionedCall/PartitionedCall/functional_15_1/tfc3_3_1/tf_conv_38_1/conv2d_38_1/convolution/ReadVariableOp", "op": "Const", "attr": {"value": {"tensor": {"dtype": "DT_FLOAT", "tensorShape": {"dim": [{"size": "1"}, {"size": "1"}, {"size": "768"}, {"size": "384"}]}}}, "dtype": {"type": "DT_FLOAT"}}}, {"name": "PartitionedCall/PartitionedCall/functional_15_1/tfc3_3_1/tf_conv_38_1/conv2d_38_1/Reshape", "op": "Const", "attr": {"value": {"tensor": {"dtype": "DT_FLOAT", "tensorShape": {"dim": [{"size": "1"}, {"size": "1"}, {"size": "1"}, {"size": "384"}]}}}, "dtype": {"type": "DT_FLOAT"}}}, {"name": "PartitionedCall/PartitionedCall/functional_15_1/tfc3_3_1/sequential_8_1/tf_bottleneck_12_1/tf_conv_41_1/conv2d_41_1/convolution/ReadVariableOp", "op": "Const", "attr": {"value": {"tensor": {"dtype": "DT_FLOAT", "tensorShape": {"dim": [{"size": "1"}, {"size": "1"}, {"size": "384"}, {"size": "384"}]}}}, "dtype": {"type": "DT_FLOAT"}}}, {"name": "PartitionedCall/PartitionedCall/functional_15_1/tfc3_3_1/sequential_8_1/tf_bottleneck_12_1/tf_conv_41_1/conv2d_41_1/Reshape", "op": "Const", "attr": {"value": {"tensor": {"dtype": "DT_FLOAT", "tensorShape": {"dim": [{"size": "1"}, {"size": "1"}, {"size": "1"}, {"size": "384"}]}}}, "dtype": {"type": "DT_FLOAT"}}}, {"name": "PartitionedCall/PartitionedCall/functional_15_1/tfc3_3_1/sequential_8_1/tf_bottleneck_12_1/tf_conv_42_1/conv2d_42_1/convolution/ReadVariableOp", "op": "Const", "attr": {"value": {"tensor": {"dtype": "DT_FLOAT", "tensorShape": {"dim": [{"size": "3"}, {"size": "3"}, {"size": "384"}, {"size": "384"}]}}}, "dtype": {"type": "DT_FLOAT"}}}, {"name": "PartitionedCall/PartitionedCall/functional_15_1/tfc3_3_1/sequential_8_1/tf_bottleneck_12_1/tf_conv_42_1/conv2d_42_1/Reshape", "op": "Const", "attr": {"value": {"tensor": {"dtype": "DT_FLOAT", "tensorShape": {"dim": [{"size": "1"}, {"size": "1"}, {"size": "1"}, {"size": "384"}]}}}, "dtype": {"type": "DT_FLOAT"}}}, {"name": "PartitionedCall/PartitionedCall/functional_15_1/tfc3_3_1/sequential_8_1/tf_bottleneck_13_1/tf_conv_43_1/conv2d_43_1/convolution/ReadVariableOp", "op": "Const", "attr": {"value": {"tensor": {"dtype": "DT_FLOAT", "tensorShape": {"dim": [{"size": "1"}, {"size": "1"}, {"size": "384"}, {"size": "384"}]}}}, "dtype": {"type": "DT_FLOAT"}}}, {"name": "PartitionedCall/PartitionedCall/functional_15_1/tfc3_3_1/sequential_8_1/tf_bottleneck_13_1/tf_conv_43_1/conv2d_43_1/Reshape", "op": "Const", "attr": {"value": {"tensor": {"dtype": "DT_FLOAT", "tensorShape": {"dim": [{"size": "1"}, {"size": "1"}, {"size": "1"}, {"size": "384"}]}}}, "dtype": {"type": "DT_FLOAT"}}}, {"name": "PartitionedCall/PartitionedCall/functional_15_1/tfc3_3_1/sequential_8_1/tf_bottleneck_13_1/tf_conv_44_1/conv2d_44_1/convolution/ReadVariableOp", "op": "Const", "attr": {"value": {"tensor": {"dtype": "DT_FLOAT", "tensorShape": {"dim": [{"size": "3"}, {"size": "3"}, {"size": "384"}, {"size": "384"}]}}}, "dtype": {"type": "DT_FLOAT"}}}, {"name": "PartitionedCall/PartitionedCall/functional_15_1/tfc3_3_1/sequential_8_1/tf_bottleneck_13_1/tf_conv_44_1/conv2d_44_1/Reshape", "op": "Const", "attr": {"value": {"tensor": {"dtype": "DT_FLOAT", "tensorShape": {"dim": [{"size": "1"}, {"size": "1"}, {"size": "1"}, {"size": "384"}]}}}, "dtype": {"type": "DT_FLOAT"}}}, {"name": "PartitionedCall/PartitionedCall/functional_15_1/tfc3_2_1/tf_conv_22_1/conv2d_22_1/convolution/ReadVariableOp", "op": "Const", "attr": {"value": {"tensor": {"dtype": "DT_FLOAT", "tensorShape": {"dim": [{"size": "1"}, {"size": "1"}, {"size": "384"}, {"size": "192"}]}}}, "dtype": {"type": "DT_FLOAT"}}}, {"name": "PartitionedCall/PartitionedCall/functional_15_1/tfc3_2_1/tf_conv_22_1/conv2d_22_1/Reshape", "op": "Const", "attr": {"value": {"tensor": {"dtype": "DT_FLOAT", "tensorShape": {"dim": [{"size": "1"}, {"size": "1"}, {"size": "1"}, {"size": "192"}]}}}, "dtype": {"type": "DT_FLOAT"}}}, {"name": "PartitionedCall/PartitionedCall/functional_15_1/tfc3_2_1/sequential_6_1/tf_bottleneck_6_1/tf_conv_25_1/conv2d_25_1/convolution/ReadVariableOp", "op": "Const", "attr": {"value": {"tensor": {"dtype": "DT_FLOAT", "tensorShape": {"dim": [{"size": "1"}, {"size": "1"}, {"size": "192"}, {"size": "192"}]}}}, "dtype": {"type": "DT_FLOAT"}}}, {"name": "PartitionedCall/PartitionedCall/functional_15_1/tfc3_2_1/sequential_6_1/tf_bottleneck_6_1/tf_conv_25_1/conv2d_25_1/Reshape", "op": "Const", "attr": {"value": {"tensor": {"dtype": "DT_FLOAT", "tensorShape": {"dim": [{"size": "1"}, {"size": "1"}, {"size": "1"}, {"size": "192"}]}}}, "dtype": {"type": "DT_FLOAT"}}}, {"name": "PartitionedCall/PartitionedCall/functional_15_1/tfc3_2_1/sequential_6_1/tf_bottleneck_6_1/tf_conv_26_1/conv2d_26_1/convolution/ReadVariableOp", "op": "Const", "attr": {"value": {"tensor": {"dtype": "DT_FLOAT", "tensorShape": {"dim": [{"size": "3"}, {"size": "3"}, {"size": "192"}, {"size": "192"}]}}}, "dtype": {"type": "DT_FLOAT"}}}, {"name": "PartitionedCall/PartitionedCall/functional_15_1/tfc3_2_1/sequential_6_1/tf_bottleneck_6_1/tf_conv_26_1/conv2d_26_1/Reshape", "op": "Const", "attr": {"value": {"tensor": {"dtype": "DT_FLOAT", "tensorShape": {"dim": [{"size": "1"}, {"size": "1"}, {"size": "1"}, {"size": "192"}]}}}, "dtype": {"type": "DT_FLOAT"}}}, {"name": "PartitionedCall/PartitionedCall/functional_15_1/tfc3_2_1/sequential_6_1/tf_bottleneck_7_1/tf_conv_27_1/conv2d_27_1/convolution/ReadVariableOp", "op": "Const", "attr": {"value": {"tensor": {"dtype": "DT_FLOAT", "tensorShape": {"dim": [{"size": "1"}, {"size": "1"}, {"size": "192"}, {"size": "192"}]}}}, "dtype": {"type": "DT_FLOAT"}}}, {"name": "PartitionedCall/PartitionedCall/functional_15_1/tfc3_2_1/sequential_6_1/tf_bottleneck_7_1/tf_conv_27_1/conv2d_27_1/Reshape", "op": "Const", "attr": {"value": {"tensor": {"dtype": "DT_FLOAT", "tensorShape": {"dim": [{"size": "1"}, {"size": "1"}, {"size": "1"}, {"size": "192"}]}}}, "dtype": {"type": "DT_FLOAT"}}}, {"name": "PartitionedCall/PartitionedCall/functional_15_1/tfc3_2_1/sequential_6_1/tf_bottleneck_7_1/tf_conv_28_1/conv2d_28_1/convolution/ReadVariableOp", "op": "Const", "attr": {"value": {"tensor": {"dtype": "DT_FLOAT", "tensorShape": {"dim": [{"size": "3"}, {"size": "3"}, {"size": "192"}, {"size": "192"}]}}}, "dtype": {"type": "DT_FLOAT"}}}, {"name": "PartitionedCall/PartitionedCall/functional_15_1/tfc3_2_1/sequential_6_1/tf_bottleneck_7_1/tf_conv_28_1/conv2d_28_1/Reshape", "op": "Const", "attr": {"value": {"tensor": {"dtype": "DT_FLOAT", "tensorShape": {"dim": [{"size": "1"}, {"size": "1"}, {"size": "1"}, {"size": "192"}]}}}, "dtype": {"type": "DT_FLOAT"}}}, {"name": "PartitionedCall/PartitionedCall/functional_15_1/tfc3_2_1/sequential_6_1/tf_bottleneck_8_1/tf_conv_29_1/conv2d_29_1/convolution/ReadVariableOp", "op": "Const", "attr": {"value": {"tensor": {"dtype": "DT_FLOAT", "tensorShape": {"dim": [{"size": "1"}, {"size": "1"}, {"size": "192"}, {"size": "192"}]}}}, "dtype": {"type": "DT_FLOAT"}}}, {"name": "PartitionedCall/PartitionedCall/functional_15_1/tfc3_2_1/sequential_6_1/tf_bottleneck_8_1/tf_conv_29_1/conv2d_29_1/Reshape", "op": "Const", "attr": {"value": {"tensor": {"dtype": "DT_FLOAT", "tensorShape": {"dim": [{"size": "1"}, {"size": "1"}, {"size": "1"}, {"size": "192"}]}}}, "dtype": {"type": "DT_FLOAT"}}}, {"name": "PartitionedCall/PartitionedCall/functional_15_1/tfc3_2_1/sequential_6_1/tf_bottleneck_8_1/tf_conv_30_1/conv2d_30_1/convolution/ReadVariableOp", "op": "Const", "attr": {"value": {"tensor": {"dtype": "DT_FLOAT", "tensorShape": {"dim": [{"size": "3"}, {"size": "3"}, {"size": "192"}, {"size": "192"}]}}}, "dtype": {"type": "DT_FLOAT"}}}, {"name": "PartitionedCall/PartitionedCall/functional_15_1/tfc3_2_1/sequential_6_1/tf_bottleneck_8_1/tf_conv_30_1/conv2d_30_1/Reshape", "op": "Const", "attr": {"value": {"tensor": {"dtype": "DT_FLOAT", "tensorShape": {"dim": [{"size": "1"}, {"size": "1"}, {"size": "1"}, {"size": "192"}]}}}, "dtype": {"type": "DT_FLOAT"}}}, {"name": "PartitionedCall/PartitionedCall/functional_15_1/tfc3_2_1/sequential_6_1/tf_bottleneck_9_1/tf_conv_31_1/conv2d_31_1/convolution/ReadVariableOp", "op": "Const", "attr": {"value": {"tensor": {"dtype": "DT_FLOAT", "tensorShape": {"dim": [{"size": "1"}, {"size": "1"}, {"size": "192"}, {"size": "192"}]}}}, "dtype": {"type": "DT_FLOAT"}}}, {"name": "PartitionedCall/PartitionedCall/functional_15_1/tfc3_2_1/sequential_6_1/tf_bottleneck_9_1/tf_conv_31_1/conv2d_31_1/Reshape", "op": "Const", "attr": {"value": {"tensor": {"dtype": "DT_FLOAT", "tensorShape": {"dim": [{"size": "1"}, {"size": "1"}, {"size": "1"}, {"size": "192"}]}}}, "dtype": {"type": "DT_FLOAT"}}}, {"name": "PartitionedCall/PartitionedCall/functional_15_1/tfc3_2_1/sequential_6_1/tf_bottleneck_9_1/tf_conv_32_1/conv2d_32_1/convolution/ReadVariableOp", "op": "Const", "attr": {"value": {"tensor": {"dtype": "DT_FLOAT", "tensorShape": {"dim": [{"size": "3"}, {"size": "3"}, {"size": "192"}, {"size": "192"}]}}}, "dtype": {"type": "DT_FLOAT"}}}, {"name": "PartitionedCall/PartitionedCall/functional_15_1/tfc3_2_1/sequential_6_1/tf_bottleneck_9_1/tf_conv_32_1/conv2d_32_1/Reshape", "op": "Const", "attr": {"value": {"tensor": {"dtype": "DT_FLOAT", "tensorShape": {"dim": [{"size": "1"}, {"size": "1"}, {"size": "1"}, {"size": "192"}]}}}, "dtype": {"type": "DT_FLOAT"}}}, {"name": "PartitionedCall/PartitionedCall/functional_15_1/tfc3_2_1/sequential_6_1/tf_bottleneck_10_1/tf_conv_33_1/conv2d_33_1/convolution/ReadVariableOp", "op": "Const", "attr": {"value": {"tensor": {"dtype": "DT_FLOAT", "tensorShape": {"dim": [{"size": "1"}, {"size": "1"}, {"size": "192"}, {"size": "192"}]}}}, "dtype": {"type": "DT_FLOAT"}}}, {"name": "PartitionedCall/PartitionedCall/functional_15_1/tfc3_2_1/sequential_6_1/tf_bottleneck_10_1/tf_conv_33_1/conv2d_33_1/Reshape", "op": "Const", "attr": {"value": {"tensor": {"dtype": "DT_FLOAT", "tensorShape": {"dim": [{"size": "1"}, {"size": "1"}, {"size": "1"}, {"size": "192"}]}}}, "dtype": {"type": "DT_FLOAT"}}}, {"name": "PartitionedCall/PartitionedCall/functional_15_1/tfc3_2_1/sequential_6_1/tf_bottleneck_10_1/tf_conv_34_1/conv2d_34_1/convolution/ReadVariableOp", "op": "Const", "attr": {"value": {"tensor": {"dtype": "DT_FLOAT", "tensorShape": {"dim": [{"size": "3"}, {"size": "3"}, {"size": "192"}, {"size": "192"}]}}}, "dtype": {"type": "DT_FLOAT"}}}, {"name": "PartitionedCall/PartitionedCall/functional_15_1/tfc3_2_1/sequential_6_1/tf_bottleneck_10_1/tf_conv_34_1/conv2d_34_1/Reshape", "op": "Const", "attr": {"value": {"tensor": {"dtype": "DT_FLOAT", "tensorShape": {"dim": [{"size": "1"}, {"size": "1"}, {"size": "1"}, {"size": "192"}]}}}, "dtype": {"type": "DT_FLOAT"}}}, {"name": "PartitionedCall/PartitionedCall/functional_15_1/tfc3_2_1/sequential_6_1/tf_bottleneck_11_1/tf_conv_35_1/conv2d_35_1/convolution/ReadVariableOp", "op": "Const", "attr": {"value": {"tensor": {"dtype": "DT_FLOAT", "tensorShape": {"dim": [{"size": "1"}, {"size": "1"}, {"size": "192"}, {"size": "192"}]}}}, "dtype": {"type": "DT_FLOAT"}}}, {"name": "PartitionedCall/PartitionedCall/functional_15_1/tfc3_2_1/sequential_6_1/tf_bottleneck_11_1/tf_conv_35_1/conv2d_35_1/Reshape", "op": "Const", "attr": {"value": {"tensor": {"dtype": "DT_FLOAT", "tensorShape": {"dim": [{"size": "1"}, {"size": "1"}, {"size": "1"}, {"size": "192"}]}}}, "dtype": {"type": "DT_FLOAT"}}}, {"name": "PartitionedCall/PartitionedCall/functional_15_1/tfc3_2_1/sequential_6_1/tf_bottleneck_11_1/tf_conv_36_1/conv2d_36_1/convolution/ReadVariableOp", "op": "Const", "attr": {"value": {"tensor": {"dtype": "DT_FLOAT", "tensorShape": {"dim": [{"size": "3"}, {"size": "3"}, {"size": "192"}, {"size": "192"}]}}}, "dtype": {"type": "DT_FLOAT"}}}, {"name": "PartitionedCall/PartitionedCall/functional_15_1/tfc3_2_1/sequential_6_1/tf_bottleneck_11_1/tf_conv_36_1/conv2d_36_1/Reshape", "op": "Const", "attr": {"value": {"tensor": {"dtype": "DT_FLOAT", "tensorShape": {"dim": [{"size": "1"}, {"size": "1"}, {"size": "1"}, {"size": "192"}]}}}, "dtype": {"type": "DT_FLOAT"}}}, {"name": "PartitionedCall/PartitionedCall/functional_15_1/tfc3_1_2/tf_conv_10_1/conv2d_10_1/convolution/ReadVariableOp", "op": "Const", "attr": {"value": {"tensor": {"dtype": "DT_FLOAT", "tensorShape": {"dim": [{"size": "1"}, {"size": "1"}, {"size": "192"}, {"size": "96"}]}}}, "dtype": {"type": "DT_FLOAT"}}}, {"name": "PartitionedCall/PartitionedCall/functional_15_1/tfc3_1_2/tf_conv_10_1/conv2d_10_1/Reshape", "op": "Const", "attr": {"value": {"tensor": {"dtype": "DT_FLOAT", "tensorShape": {"dim": [{"size": "1"}, {"size": "1"}, {"size": "1"}, {"size": "96"}]}}}, "dtype": {"type": "DT_FLOAT"}}}, {"name": "PartitionedCall/PartitionedCall/functional_15_1/tfc3_1_2/sequential_4_1/tf_bottleneck_2_1/tf_conv_13_1/conv2d_13_1/convolution/ReadVariableOp", "op": "Const", "attr": {"value": {"tensor": {"dtype": "DT_FLOAT", "tensorShape": {"dim": [{"size": "1"}, {"size": "1"}, {"size": "96"}, {"size": "96"}]}}}, "dtype": {"type": "DT_FLOAT"}}}, {"name": "PartitionedCall/PartitionedCall/functional_15_1/tfc3_1_2/sequential_4_1/tf_bottleneck_2_1/tf_conv_13_1/conv2d_13_1/Reshape", "op": "Const", "attr": {"value": {"tensor": {"dtype": "DT_FLOAT", "tensorShape": {"dim": [{"size": "1"}, {"size": "1"}, {"size": "1"}, {"size": "96"}]}}}, "dtype": {"type": "DT_FLOAT"}}}, {"name": "PartitionedCall/PartitionedCall/functional_15_1/tfc3_1_2/sequential_4_1/tf_bottleneck_2_1/tf_conv_14_1/conv2d_14_1/convolution/ReadVariableOp", "op": "Const", "attr": {"value": {"tensor": {"dtype": "DT_FLOAT", "tensorShape": {"dim": [{"size": "3"}, {"size": "3"}, {"size": "96"}, {"size": "96"}]}}}, "dtype": {"type": "DT_FLOAT"}}}, {"name": "PartitionedCall/PartitionedCall/functional_15_1/tfc3_1_2/sequential_4_1/tf_bottleneck_2_1/tf_conv_14_1/conv2d_14_1/Reshape", "op": "Const", "attr": {"value": {"tensor": {"dtype": "DT_FLOAT", "tensorShape": {"dim": [{"size": "1"}, {"size": "1"}, {"size": "1"}, {"size": "96"}]}}}, "dtype": {"type": "DT_FLOAT"}}}, {"name": "PartitionedCall/PartitionedCall/functional_15_1/tfc3_1_2/sequential_4_1/tf_bottleneck_3_1/tf_conv_15_1/conv2d_15_1/convolution/ReadVariableOp", "op": "Const", "attr": {"value": {"tensor": {"dtype": "DT_FLOAT", "tensorShape": {"dim": [{"size": "1"}, {"size": "1"}, {"size": "96"}, {"size": "96"}]}}}, "dtype": {"type": "DT_FLOAT"}}}, {"name": "PartitionedCall/PartitionedCall/functional_15_1/tfc3_1_2/sequential_4_1/tf_bottleneck_3_1/tf_conv_15_1/conv2d_15_1/Reshape", "op": "Const", "attr": {"value": {"tensor": {"dtype": "DT_FLOAT", "tensorShape": {"dim": [{"size": "1"}, {"size": "1"}, {"size": "1"}, {"size": "96"}]}}}, "dtype": {"type": "DT_FLOAT"}}}, {"name": "PartitionedCall/PartitionedCall/functional_15_1/tfc3_1_2/sequential_4_1/tf_bottleneck_3_1/tf_conv_16_1/conv2d_16_1/convolution/ReadVariableOp", "op": "Const", "attr": {"value": {"tensor": {"dtype": "DT_FLOAT", "tensorShape": {"dim": [{"size": "3"}, {"size": "3"}, {"size": "96"}, {"size": "96"}]}}}, "dtype": {"type": "DT_FLOAT"}}}, {"name": "PartitionedCall/PartitionedCall/functional_15_1/tfc3_1_2/sequential_4_1/tf_bottleneck_3_1/tf_conv_16_1/conv2d_16_1/Reshape", "op": "Const", "attr": {"value": {"tensor": {"dtype": "DT_FLOAT", "tensorShape": {"dim": [{"size": "1"}, {"size": "1"}, {"size": "1"}, {"size": "96"}]}}}, "dtype": {"type": "DT_FLOAT"}}}, {"name": "PartitionedCall/PartitionedCall/functional_15_1/tfc3_1_2/sequential_4_1/tf_bottleneck_4_1/tf_conv_17_1/conv2d_17_1/convolution/ReadVariableOp", "op": "Const", "attr": {"value": {"tensor": {"dtype": "DT_FLOAT", "tensorShape": {"dim": [{"size": "1"}, {"size": "1"}, {"size": "96"}, {"size": "96"}]}}}, "dtype": {"type": "DT_FLOAT"}}}, {"name": "PartitionedCall/PartitionedCall/functional_15_1/tfc3_1_2/sequential_4_1/tf_bottleneck_4_1/tf_conv_17_1/conv2d_17_1/Reshape", "op": "Const", "attr": {"value": {"tensor": {"dtype": "DT_FLOAT", "tensorShape": {"dim": [{"size": "1"}, {"size": "1"}, {"size": "1"}, {"size": "96"}]}}}, "dtype": {"type": "DT_FLOAT"}}}, {"name": "PartitionedCall/PartitionedCall/functional_15_1/tfc3_1_2/sequential_4_1/tf_bottleneck_4_1/tf_conv_18_1/conv2d_18_1/convolution/ReadVariableOp", "op": "Const", "attr": {"value": {"tensor": {"dtype": "DT_FLOAT", "tensorShape": {"dim": [{"size": "3"}, {"size": "3"}, {"size": "96"}, {"size": "96"}]}}}, "dtype": {"type": "DT_FLOAT"}}}, {"name": "PartitionedCall/PartitionedCall/functional_15_1/tfc3_1_2/sequential_4_1/tf_bottleneck_4_1/tf_conv_18_1/conv2d_18_1/Reshape", "op": "Const", "attr": {"value": {"tensor": {"dtype": "DT_FLOAT", "tensorShape": {"dim": [{"size": "1"}, {"size": "1"}, {"size": "1"}, {"size": "96"}]}}}, "dtype": {"type": "DT_FLOAT"}}}, {"name": "PartitionedCall/PartitionedCall/functional_15_1/tfc3_1_2/sequential_4_1/tf_bottleneck_5_1/tf_conv_19_1/conv2d_19_1/convolution/ReadVariableOp", "op": "Const", "attr": {"value": {"tensor": {"dtype": "DT_FLOAT", "tensorShape": {"dim": [{"size": "1"}, {"size": "1"}, {"size": "96"}, {"size": "96"}]}}}, "dtype": {"type": "DT_FLOAT"}}}, {"name": "PartitionedCall/PartitionedCall/functional_15_1/tfc3_1_2/sequential_4_1/tf_bottleneck_5_1/tf_conv_19_1/conv2d_19_1/Reshape", "op": "Const", "attr": {"value": {"tensor": {"dtype": "DT_FLOAT", "tensorShape": {"dim": [{"size": "1"}, {"size": "1"}, {"size": "1"}, {"size": "96"}]}}}, "dtype": {"type": "DT_FLOAT"}}}, {"name": "PartitionedCall/PartitionedCall/functional_15_1/tfc3_1_2/sequential_4_1/tf_bottleneck_5_1/tf_conv_20_1/conv2d_20_1/convolution/ReadVariableOp", "op": "Const", "attr": {"value": {"tensor": {"dtype": "DT_FLOAT", "tensorShape": {"dim": [{"size": "3"}, {"size": "3"}, {"size": "96"}, {"size": "96"}]}}}, "dtype": {"type": "DT_FLOAT"}}}, {"name": "PartitionedCall/PartitionedCall/functional_15_1/tfc3_1_2/sequential_4_1/tf_bottleneck_5_1/tf_conv_20_1/conv2d_20_1/Reshape", "op": "Const", "attr": {"value": {"tensor": {"dtype": "DT_FLOAT", "tensorShape": {"dim": [{"size": "1"}, {"size": "1"}, {"size": "1"}, {"size": "96"}]}}}, "dtype": {"type": "DT_FLOAT"}}}, {"name": "PartitionedCall/PartitionedCall/functional_15_1/tfc3_1/tf_conv_2_1/conv2d_2_1/convolution/ReadVariableOp", "op": "Const", "attr": {"value": {"tensor": {"dtype": "DT_FLOAT", "tensorShape": {"dim": [{"size": "1"}, {"size": "1"}, {"size": "96"}, {"size": "48"}]}}}, "dtype": {"type": "DT_FLOAT"}}}, {"name": "PartitionedCall/PartitionedCall/functional_15_1/tfc3_1/tf_conv_2_1/conv2d_2_1/Reshape", "op": "Const", "attr": {"value": {"tensor": {"dtype": "DT_FLOAT", "tensorShape": {"dim": [{"size": "1"}, {"size": "1"}, {"size": "1"}, {"size": "48"}]}}}, "dtype": {"type": "DT_FLOAT"}}}, {"name": "PartitionedCall/PartitionedCall/functional_15_1/tfc3_1/sequential_2_1/tf_bottleneck_1/tf_conv_5_1/conv2d_5_1/convolution/ReadVariableOp", "op": "Const", "attr": {"value": {"tensor": {"dtype": "DT_FLOAT", "tensorShape": {"dim": [{"size": "1"}, {"size": "1"}, {"size": "48"}, {"size": "48"}]}}}, "dtype": {"type": "DT_FLOAT"}}}, {"name": "PartitionedCall/PartitionedCall/functional_15_1/tfc3_1/sequential_2_1/tf_bottleneck_1/tf_conv_5_1/conv2d_5_1/Reshape", "op": "Const", "attr": {"value": {"tensor": {"dtype": "DT_FLOAT", "tensorShape": {"dim": [{"size": "1"}, {"size": "1"}, {"size": "1"}, {"size": "48"}]}}}, "dtype": {"type": "DT_FLOAT"}}}, {"name": "PartitionedCall/PartitionedCall/functional_15_1/tfc3_1/sequential_2_1/tf_bottleneck_1/tf_conv_6_1/conv2d_6_1/convolution/ReadVariableOp", "op": "Const", "attr": {"value": {"tensor": {"dtype": "DT_FLOAT", "tensorShape": {"dim": [{"size": "3"}, {"size": "3"}, {"size": "48"}, {"size": "48"}]}}}, "dtype": {"type": "DT_FLOAT"}}}, {"name": "PartitionedCall/PartitionedCall/functional_15_1/tfc3_1/sequential_2_1/tf_bottleneck_1/tf_conv_6_1/conv2d_6_1/Reshape", "op": "Const", "attr": {"value": {"tensor": {"dtype": "DT_FLOAT", "tensorShape": {"dim": [{"size": "1"}, {"size": "1"}, {"size": "1"}, {"size": "48"}]}}}, "dtype": {"type": "DT_FLOAT"}}}, {"name": "PartitionedCall/PartitionedCall/functional_15_1/tfc3_1/sequential_2_1/tf_bottleneck_1_2/tf_conv_7_1/conv2d_7_1/convolution/ReadVariableOp", "op": "Const", "attr": {"value": {"tensor": {"dtype": "DT_FLOAT", "tensorShape": {"dim": [{"size": "1"}, {"size": "1"}, {"size": "48"}, {"size": "48"}]}}}, "dtype": {"type": "DT_FLOAT"}}}, {"name": "PartitionedCall/PartitionedCall/functional_15_1/tfc3_1/sequential_2_1/tf_bottleneck_1_2/tf_conv_7_1/conv2d_7_1/Reshape", "op": "Const", "attr": {"value": {"tensor": {"dtype": "DT_FLOAT", "tensorShape": {"dim": [{"size": "1"}, {"size": "1"}, {"size": "1"}, {"size": "48"}]}}}, "dtype": {"type": "DT_FLOAT"}}}, {"name": "PartitionedCall/PartitionedCall/functional_15_1/tfc3_1/sequential_2_1/tf_bottleneck_1_2/tf_conv_8_1/conv2d_8_1/convolution/ReadVariableOp", "op": "Const", "attr": {"value": {"tensor": {"dtype": "DT_FLOAT", "tensorShape": {"dim": [{"size": "3"}, {"size": "3"}, {"size": "48"}, {"size": "48"}]}}}, "dtype": {"type": "DT_FLOAT"}}}, {"name": "PartitionedCall/PartitionedCall/functional_15_1/tfc3_1/sequential_2_1/tf_bottleneck_1_2/tf_conv_8_1/conv2d_8_1/Reshape", "op": "Const", "attr": {"value": {"tensor": {"dtype": "DT_FLOAT", "tensorShape": {"dim": [{"size": "1"}, {"size": "1"}, {"size": "1"}, {"size": "48"}]}}}, "dtype": {"type": "DT_FLOAT"}}}, {"name": "PartitionedCall/PartitionedCall/functional_15_1/tf_conv_1/sequential_1/tf_pad_1/Pad/paddings", "op": "Const", "attr": {"value": {"tensor": {"dtype": "DT_INT32", "tensorShape": {"dim": [{"size": "4"}, {"size": "2"}]}}}, "dtype": {"type": "DT_INT32"}}}, {"name": "PartitionedCall/PartitionedCall/functional_15_1/tf_conv_1/sequential_1/conv2d_1/convolution/ReadVariableOp", "op": "Const", "attr": {"value": {"tensor": {"dtype": "DT_FLOAT", "tensorShape": {"dim": [{"size": "6"}, {"size": "6"}, {"size": "3"}, {"size": "48"}]}}}, "dtype": {"type": "DT_FLOAT"}}}, {"name": "PartitionedCall/PartitionedCall/functional_15_1/tf_conv_1/sequential_1/conv2d_1/Reshape", "op": "Const", "attr": {"value": {"tensor": {"dtype": "DT_FLOAT", "tensorShape": {"dim": [{"size": "1"}, {"size": "1"}, {"size": "1"}, {"size": "48"}]}}}, "dtype": {"type": "DT_FLOAT"}}}, {"name": "PartitionedCall/PartitionedCall/functional_15_1/tf_conv_1_2/sequential_1_1/tf_pad_1_1/Pad/paddings", "op": "Const", "attr": {"value": {"tensor": {"dtype": "DT_INT32", "tensorShape": {"dim": [{"size": "4"}, {"size": "2"}]}}}, "dtype": {"type": "DT_INT32"}}}, {"name": "PartitionedCall/PartitionedCall/functional_15_1/tf_conv_1_2/sequential_1_1/conv2d_1_1/convolution/ReadVariableOp", "op": "Const", "attr": {"value": {"tensor": {"dtype": "DT_FLOAT", "tensorShape": {"dim": [{"size": "3"}, {"size": "3"}, {"size": "48"}, {"size": "96"}]}}}, "dtype": {"type": "DT_FLOAT"}}}, {"name": "PartitionedCall/PartitionedCall/functional_15_1/tf_conv_1_2/sequential_1_1/conv2d_1_1/Reshape", "op": "Const", "attr": {"value": {"tensor": {"dtype": "DT_FLOAT", "tensorShape": {"dim": [{"size": "1"}, {"size": "1"}, {"size": "1"}, {"size": "96"}]}}}, "dtype": {"type": "DT_FLOAT"}}}, {"name": "PartitionedCall/PartitionedCall/functional_15_1/tfc3_1/tf_conv_3_1/conv2d_3_1/convolution/ReadVariableOp", "op": "Const", "attr": {"value": {"tensor": {"dtype": "DT_FLOAT", "tensorShape": {"dim": [{"size": "1"}, {"size": "1"}, {"size": "96"}, {"size": "48"}]}}}, "dtype": {"type": "DT_FLOAT"}}}, {"name": "PartitionedCall/PartitionedCall/functional_15_1/tfc3_1/tf_conv_3_1/conv2d_3_1/Reshape", "op": "Const", "attr": {"value": {"tensor": {"dtype": "DT_FLOAT", "tensorShape": {"dim": [{"size": "1"}, {"size": "1"}, {"size": "1"}, {"size": "48"}]}}}, "dtype": {"type": "DT_FLOAT"}}}, {"name": "PartitionedCall/PartitionedCall/functional_15_1/tfc3_1/concat/axis", "op": "Const", "attr": {"value": {"tensor": {"dtype": "DT_INT32", "tensorShape": {}}}, "dtype": {"type": "DT_INT32"}}}, {"name": "PartitionedCall/PartitionedCall/functional_15_1/tfc3_1/tf_conv_4_1/conv2d_4_1/convolution/ReadVariableOp", "op": "Const", "attr": {"value": {"tensor": {"dtype": "DT_FLOAT", "tensorShape": {"dim": [{"size": "1"}, {"size": "1"}, {"size": "96"}, {"size": "96"}]}}}, "dtype": {"type": "DT_FLOAT"}}}, {"name": "PartitionedCall/PartitionedCall/functional_15_1/tfc3_1/tf_conv_4_1/conv2d_4_1/Reshape", "op": "Const", "attr": {"value": {"tensor": {"dtype": "DT_FLOAT", "tensorShape": {"dim": [{"size": "1"}, {"size": "1"}, {"size": "1"}, {"size": "96"}]}}}, "dtype": {"type": "DT_FLOAT"}}}, {"name": "PartitionedCall/PartitionedCall/functional_15_1/tf_conv_9_1/sequential_3_1/tf_pad_2_1/Pad/paddings", "op": "Const", "attr": {"value": {"tensor": {"dtype": "DT_INT32", "tensorShape": {"dim": [{"size": "4"}, {"size": "2"}]}}}, "dtype": {"type": "DT_INT32"}}}, {"name": "PartitionedCall/PartitionedCall/functional_15_1/tf_conv_9_1/sequential_3_1/conv2d_9_1/convolution/ReadVariableOp", "op": "Const", "attr": {"value": {"tensor": {"dtype": "DT_FLOAT", "tensorShape": {"dim": [{"size": "3"}, {"size": "3"}, {"size": "96"}, {"size": "192"}]}}}, "dtype": {"type": "DT_FLOAT"}}}, {"name": "PartitionedCall/PartitionedCall/functional_15_1/tf_conv_9_1/sequential_3_1/conv2d_9_1/Reshape", "op": "Const", "attr": {"value": {"tensor": {"dtype": "DT_FLOAT", "tensorShape": {"dim": [{"size": "1"}, {"size": "1"}, {"size": "1"}, {"size": "192"}]}}}, "dtype": {"type": "DT_FLOAT"}}}, {"name": "PartitionedCall/PartitionedCall/functional_15_1/tfc3_1_2/tf_conv_11_1/conv2d_11_1/convolution/ReadVariableOp", "op": "Const", "attr": {"value": {"tensor": {"dtype": "DT_FLOAT", "tensorShape": {"dim": [{"size": "1"}, {"size": "1"}, {"size": "192"}, {"size": "96"}]}}}, "dtype": {"type": "DT_FLOAT"}}}, {"name": "PartitionedCall/PartitionedCall/functional_15_1/tfc3_1_2/tf_conv_11_1/conv2d_11_1/Reshape", "op": "Const", "attr": {"value": {"tensor": {"dtype": "DT_FLOAT", "tensorShape": {"dim": [{"size": "1"}, {"size": "1"}, {"size": "1"}, {"size": "96"}]}}}, "dtype": {"type": "DT_FLOAT"}}}, {"name": "PartitionedCall/PartitionedCall/functional_15_1/tfc3_1_2/concat/axis", "op": "Const", "attr": {"value": {"tensor": {"dtype": "DT_INT32", "tensorShape": {}}}, "dtype": {"type": "DT_INT32"}}}, {"name": "PartitionedCall/PartitionedCall/functional_15_1/tfc3_1_2/tf_conv_12_1/conv2d_12_1/convolution/ReadVariableOp", "op": "Const", "attr": {"value": {"tensor": {"dtype": "DT_FLOAT", "tensorShape": {"dim": [{"size": "1"}, {"size": "1"}, {"size": "192"}, {"size": "192"}]}}}, "dtype": {"type": "DT_FLOAT"}}}, {"name": "PartitionedCall/PartitionedCall/functional_15_1/tfc3_1_2/tf_conv_12_1/conv2d_12_1/Reshape", "op": "Const", "attr": {"value": {"tensor": {"dtype": "DT_FLOAT", "tensorShape": {"dim": [{"size": "1"}, {"size": "1"}, {"size": "1"}, {"size": "192"}]}}}, "dtype": {"type": "DT_FLOAT"}}}, {"name": "PartitionedCall/PartitionedCall/functional_15_1/tf_conv_21_1/sequential_5_1/tf_pad_3_1/Pad/paddings", "op": "Const", "attr": {"value": {"tensor": {"dtype": "DT_INT32", "tensorShape": {"dim": [{"size": "4"}, {"size": "2"}]}}}, "dtype": {"type": "DT_INT32"}}}, {"name": "PartitionedCall/PartitionedCall/functional_15_1/tf_conv_21_1/sequential_5_1/conv2d_21_1/convolution/ReadVariableOp", "op": "Const", "attr": {"value": {"tensor": {"dtype": "DT_FLOAT", "tensorShape": {"dim": [{"size": "3"}, {"size": "3"}, {"size": "192"}, {"size": "384"}]}}}, "dtype": {"type": "DT_FLOAT"}}}, {"name": "PartitionedCall/PartitionedCall/functional_15_1/tf_conv_21_1/sequential_5_1/conv2d_21_1/Reshape", "op": "Const", "attr": {"value": {"tensor": {"dtype": "DT_FLOAT", "tensorShape": {"dim": [{"size": "1"}, {"size": "1"}, {"size": "1"}, {"size": "384"}]}}}, "dtype": {"type": "DT_FLOAT"}}}, {"name": "PartitionedCall/PartitionedCall/functional_15_1/tfc3_2_1/tf_conv_23_1/conv2d_23_1/convolution/ReadVariableOp", "op": "Const", "attr": {"value": {"tensor": {"dtype": "DT_FLOAT", "tensorShape": {"dim": [{"size": "1"}, {"size": "1"}, {"size": "384"}, {"size": "192"}]}}}, "dtype": {"type": "DT_FLOAT"}}}, {"name": "PartitionedCall/PartitionedCall/functional_15_1/tfc3_2_1/tf_conv_23_1/conv2d_23_1/Reshape", "op": "Const", "attr": {"value": {"tensor": {"dtype": "DT_FLOAT", "tensorShape": {"dim": [{"size": "1"}, {"size": "1"}, {"size": "1"}, {"size": "192"}]}}}, "dtype": {"type": "DT_FLOAT"}}}, {"name": "PartitionedCall/PartitionedCall/functional_15_1/tfc3_2_1/concat/axis", "op": "Const", "attr": {"value": {"tensor": {"dtype": "DT_INT32", "tensorShape": {}}}, "dtype": {"type": "DT_INT32"}}}, {"name": "PartitionedCall/PartitionedCall/functional_15_1/tfc3_2_1/tf_conv_24_1/conv2d_24_1/convolution/ReadVariableOp", "op": "Const", "attr": {"value": {"tensor": {"dtype": "DT_FLOAT", "tensorShape": {"dim": [{"size": "1"}, {"size": "1"}, {"size": "384"}, {"size": "384"}]}}}, "dtype": {"type": "DT_FLOAT"}}}, {"name": "PartitionedCall/PartitionedCall/functional_15_1/tfc3_2_1/tf_conv_24_1/conv2d_24_1/Reshape", "op": "Const", "attr": {"value": {"tensor": {"dtype": "DT_FLOAT", "tensorShape": {"dim": [{"size": "1"}, {"size": "1"}, {"size": "1"}, {"size": "384"}]}}}, "dtype": {"type": "DT_FLOAT"}}}, {"name": "PartitionedCall/PartitionedCall/functional_15_1/tf_conv_37_1/sequential_7_1/tf_pad_4_1/Pad/paddings", "op": "Const", "attr": {"value": {"tensor": {"dtype": "DT_INT32", "tensorShape": {"dim": [{"size": "4"}, {"size": "2"}]}}}, "dtype": {"type": "DT_INT32"}}}, {"name": "PartitionedCall/PartitionedCall/functional_15_1/tf_conv_37_1/sequential_7_1/conv2d_37_1/convolution/ReadVariableOp", "op": "Const", "attr": {"value": {"tensor": {"dtype": "DT_FLOAT", "tensorShape": {"dim": [{"size": "3"}, {"size": "3"}, {"size": "384"}, {"size": "768"}]}}}, "dtype": {"type": "DT_FLOAT"}}}, {"name": "PartitionedCall/PartitionedCall/functional_15_1/tf_conv_37_1/sequential_7_1/conv2d_37_1/Reshape", "op": "Const", "attr": {"value": {"tensor": {"dtype": "DT_FLOAT", "tensorShape": {"dim": [{"size": "1"}, {"size": "1"}, {"size": "1"}, {"size": "768"}]}}}, "dtype": {"type": "DT_FLOAT"}}}, {"name": "PartitionedCall/PartitionedCall/functional_15_1/tfc3_3_1/tf_conv_39_1/conv2d_39_1/convolution/ReadVariableOp", "op": "Const", "attr": {"value": {"tensor": {"dtype": "DT_FLOAT", "tensorShape": {"dim": [{"size": "1"}, {"size": "1"}, {"size": "768"}, {"size": "384"}]}}}, "dtype": {"type": "DT_FLOAT"}}}, {"name": "PartitionedCall/PartitionedCall/functional_15_1/tfc3_3_1/tf_conv_39_1/conv2d_39_1/Reshape", "op": "Const", "attr": {"value": {"tensor": {"dtype": "DT_FLOAT", "tensorShape": {"dim": [{"size": "1"}, {"size": "1"}, {"size": "1"}, {"size": "384"}]}}}, "dtype": {"type": "DT_FLOAT"}}}, {"name": "PartitionedCall/PartitionedCall/functional_15_1/tfc3_3_1/concat/axis", "op": "Const", "attr": {"value": {"tensor": {"dtype": "DT_INT32", "tensorShape": {}}}, "dtype": {"type": "DT_INT32"}}}, {"name": "PartitionedCall/PartitionedCall/functional_15_1/tfc3_3_1/tf_conv_40_1/conv2d_40_1/convolution/ReadVariableOp", "op": "Const", "attr": {"value": {"tensor": {"dtype": "DT_FLOAT", "tensorShape": {"dim": [{"size": "1"}, {"size": "1"}, {"size": "768"}, {"size": "768"}]}}}, "dtype": {"type": "DT_FLOAT"}}}, {"name": "PartitionedCall/PartitionedCall/functional_15_1/tfc3_3_1/tf_conv_40_1/conv2d_40_1/Reshape", "op": "Const", "attr": {"value": {"tensor": {"dtype": "DT_FLOAT", "tensorShape": {"dim": [{"size": "1"}, {"size": "1"}, {"size": "1"}, {"size": "768"}]}}}, "dtype": {"type": "DT_FLOAT"}}}, {"name": "PartitionedCall/PartitionedCall/functional_15_1/tfsppf_1/tf_conv_45_1/conv2d_45_1/convolution/ReadVariableOp", "op": "Const", "attr": {"value": {"tensor": {"dtype": "DT_FLOAT", "tensorShape": {"dim": [{"size": "1"}, {"size": "1"}, {"size": "768"}, {"size": "384"}]}}}, "dtype": {"type": "DT_FLOAT"}}}, {"name": "PartitionedCall/PartitionedCall/functional_15_1/tfsppf_1/tf_conv_45_1/conv2d_45_1/Reshape", "op": "Const", "attr": {"value": {"tensor": {"dtype": "DT_FLOAT", "tensorShape": {"dim": [{"size": "1"}, {"size": "1"}, {"size": "1"}, {"size": "384"}]}}}, "dtype": {"type": "DT_FLOAT"}}}, {"name": "PartitionedCall/PartitionedCall/functional_15_1/tfsppf_1/concat/axis", "op": "Const", "attr": {"value": {"tensor": {"dtype": "DT_INT32", "tensorShape": {}}}, "dtype": {"type": "DT_INT32"}}}, {"name": "PartitionedCall/PartitionedCall/functional_15_1/tfsppf_1/tf_conv_46_1/conv2d_46_1/convolution/ReadVariableOp", "op": "Const", "attr": {"value": {"tensor": {"dtype": "DT_FLOAT", "tensorShape": {"dim": [{"size": "1"}, {"size": "1"}, {"size": "1536"}, {"size": "768"}]}}}, "dtype": {"type": "DT_FLOAT"}}}, {"name": "PartitionedCall/PartitionedCall/functional_15_1/tfsppf_1/tf_conv_46_1/conv2d_46_1/Reshape", "op": "Const", "attr": {"value": {"tensor": {"dtype": "DT_FLOAT", "tensorShape": {"dim": [{"size": "1"}, {"size": "1"}, {"size": "1"}, {"size": "768"}]}}}, "dtype": {"type": "DT_FLOAT"}}}, {"name": "PartitionedCall/PartitionedCall/functional_15_1/tf_conv_47_1/conv2d_47_1/convolution/ReadVariableOp", "op": "Const", "attr": {"value": {"tensor": {"dtype": "DT_FLOAT", "tensorShape": {"dim": [{"size": "1"}, {"size": "1"}, {"size": "768"}, {"size": "384"}]}}}, "dtype": {"type": "DT_FLOAT"}}}, {"name": "PartitionedCall/PartitionedCall/functional_15_1/tf_conv_47_1/conv2d_47_1/Reshape", "op": "Const", "attr": {"value": {"tensor": {"dtype": "DT_FLOAT", "tensorShape": {"dim": [{"size": "1"}, {"size": "1"}, {"size": "1"}, {"size": "384"}]}}}, "dtype": {"type": "DT_FLOAT"}}}, {"name": "PartitionedCall/PartitionedCall/functional_15_1/tf_concat_3_1/concat/axis", "op": "Const", "attr": {"value": {"tensor": {"dtype": "DT_INT32", "tensorShape": {}}}, "dtype": {"type": "DT_INT32"}}}, {"name": "PartitionedCall/PartitionedCall/functional_15_1/tfc3_7_1/tf_conv_73_1/conv2d_73_1/convolution/ReadVariableOp", "op": "Const", "attr": {"value": {"tensor": {"dtype": "DT_FLOAT", "tensorShape": {"dim": [{"size": "1"}, {"size": "1"}, {"size": "768"}, {"size": "384"}]}}}, "dtype": {"type": "DT_FLOAT"}}}, {"name": "PartitionedCall/PartitionedCall/functional_15_1/tfc3_7_1/tf_conv_73_1/conv2d_73_1/Reshape", "op": "Const", "attr": {"value": {"tensor": {"dtype": "DT_FLOAT", "tensorShape": {"dim": [{"size": "1"}, {"size": "1"}, {"size": "1"}, {"size": "384"}]}}}, "dtype": {"type": "DT_FLOAT"}}}, {"name": "PartitionedCall/PartitionedCall/functional_15_1/tfc3_7_1/concat/axis", "op": "Const", "attr": {"value": {"tensor": {"dtype": "DT_INT32", "tensorShape": {}}}, "dtype": {"type": "DT_INT32"}}}, {"name": "PartitionedCall/PartitionedCall/functional_15_1/tfc3_7_1/tf_conv_74_1/conv2d_74_1/convolution/ReadVariableOp", "op": "Const", "attr": {"value": {"tensor": {"dtype": "DT_FLOAT", "tensorShape": {"dim": [{"size": "1"}, {"size": "1"}, {"size": "768"}, {"size": "768"}]}}}, "dtype": {"type": "DT_FLOAT"}}}, {"name": "PartitionedCall/PartitionedCall/functional_15_1/tfc3_7_1/tf_conv_74_1/conv2d_74_1/Reshape", "op": "Const", "attr": {"value": {"tensor": {"dtype": "DT_FLOAT", "tensorShape": {"dim": [{"size": "1"}, {"size": "1"}, {"size": "1"}, {"size": "768"}]}}}, "dtype": {"type": "DT_FLOAT"}}}, {"name": "PartitionedCall/PartitionedCall/functional_15_1/tf_detect_1/tf_conv2d_2_1/conv2d_81_1/convolution/ReadVariableOp", "op": "Const", "attr": {"value": {"tensor": {"dtype": "DT_FLOAT", "tensorShape": {"dim": [{"size": "1"}, {"size": "1"}, {"size": "768"}, {"size": "27"}]}}}, "dtype": {"type": "DT_FLOAT"}}}, {"name": "PartitionedCall/PartitionedCall/functional_15_1/tf_detect_1/tf_conv2d_2_1/conv2d_81_1/Reshape", "op": "Const", "attr": {"value": {"tensor": {"dtype": "DT_FLOAT", "tensorShape": {"dim": [{"size": "1"}, {"size": "1"}, {"size": "1"}, {"size": "27"}]}}}, "dtype": {"type": "DT_FLOAT"}}}, {"name": "PartitionedCall/PartitionedCall/functional_15_1/tf_detect_1/Reshape_4/shape_1", "op": "Const", "attr": {"value": {"tensor": {"dtype": "DT_INT32", "tensorShape": {"dim": [{"size": "4"}]}}}, "dtype": {"type": "DT_INT32"}}}, {"name": "PartitionedCall/PartitionedCall/functional_15_1/tf_detect_1/strided_slice_23/stack", "op": "Const", "attr": {"value": {"tensor": {"dtype": "DT_INT32", "tensorShape": {"dim": [{"size": "2"}]}}}, "dtype": {"type": "DT_INT32"}}}, {"name": "PartitionedCall/PartitionedCall/functional_15_1/tf_detect_1/strided_slice_23/stack_1", "op": "Const", "attr": {"value": {"tensor": {"dtype": "DT_INT32", "tensorShape": {"dim": [{"size": "2"}]}}}, "dtype": {"type": "DT_INT32"}}}, {"name": "PartitionedCall/PartitionedCall/functional_15_1/tf_detect_1/strided_slice_23/stack_2", "op": "Const", "attr": {"value": {"tensor": {"dtype": "DT_INT32", "tensorShape": {"dim": [{"size": "2"}]}}}, "dtype": {"type": "DT_INT32"}}}, {"name": "PartitionedCall/PartitionedCall/functional_15_1/tf_detect_1/concat_2/axis", "op": "Const", "attr": {"value": {"tensor": {"dtype": "DT_INT32", "tensorShape": {}}}, "dtype": {"type": "DT_INT32"}}}, {"name": "PartitionedCall/PartitionedCall/functional_15_1/tf_detect_1/Reshape_5/shape_1", "op": "Const", "attr": {"value": {"tensor": {"dtype": "DT_INT32", "tensorShape": {"dim": [{"size": "3"}]}}}, "dtype": {"type": "DT_INT32"}}}, {"name": "PartitionedCall/PartitionedCall/functional_15_1/tf_detect_1/concat_3/axis", "op": "Const", "attr": {"value": {"tensor": {"dtype": "DT_INT32", "tensorShape": {}}}, "dtype": {"type": "DT_INT32"}}}, {"name": "x", "op": "Placeholder", "attr": {"shape": {"shape": {"dim": [{"size": "1"}, {"size": "640"}, {"size": "640"}, {"size": "3"}]}}, "dtype": {"type": "DT_FLOAT"}}}, {"name": "PartitionedCall/PartitionedCall/functional_15_1/tf_conv_1/sequential_1/tf_pad_1/Pad", "op": "Pad", "input": ["x", "PartitionedCall/PartitionedCall/functional_15_1/tf_conv_1/sequential_1/tf_pad_1/Pad/paddings"], "attr": {"Tpaddings": {"type": "DT_INT32"}, "T": {"type": "DT_FLOAT"}}}, {"name": "PartitionedCall/PartitionedCall/functional_15_1/tf_conv_1/sequential_1/conv2d_1/add", "op": "_FusedConv2D", "input": ["PartitionedCall/PartitionedCall/functional_15_1/tf_conv_1/sequential_1/tf_pad_1/Pad", "PartitionedCall/PartitionedCall/functional_15_1/tf_conv_1/sequential_1/conv2d_1/convolution/ReadVariableOp", "PartitionedCall/PartitionedCall/functional_15_1/tf_conv_1/sequential_1/conv2d_1/Reshape"], "device": "/device:CPU:0", "attr": {"num_host_args": {"i": "0"}, "_input_shapes": {"list": {"shape": [{"dim": [{"size": "-17"}, {"size": "-21"}, {"size": "-22"}, {"size": "-20"}]}, {"dim": [{"size": "6"}, {"size": "6"}, {"size": "3"}, {"size": "48"}]}]}}, "filter_format": {"s": "SFdJTw=="}, "data_format": {"s": "TkhXQw=="}, "strides": {"list": {"i": ["1", "2", "2", "1"]}}, "num_args": {"i": "1"}, "fused_ops": {"list": {"s": ["Qmlhc0FkZA=="]}}, "TArgs": {"list": {"type": ["DT_FLOAT"]}}, "padding": {"s": "VkFMSUQ="}, "use_cudnn_on_gpu": {"b": true}, "leakyrelu_alpha": {"f": 0.2}, "epsilon": {"f": 0.0}, "T": {"type": "DT_FLOAT"}, "explicit_paddings": {"list": {}}, "dilations": {"list": {"i": ["1", "1", "1", "1"]}}}}, {"name": "PartitionedCall/PartitionedCall/functional_15_1/tf_conv_1/Sigmoid", "op": "Sigmoid", "input": ["PartitionedCall/PartitionedCall/functional_15_1/tf_conv_1/sequential_1/conv2d_1/add"], "attr": {"_input_shapes": {"list": {"shape": [{"unknownRank": true}]}}, "T": {"type": "DT_FLOAT"}}}, {"name": "PartitionedCall/PartitionedCall/functional_15_1/tf_conv_1/mul_1", "op": "Mul", "input": ["PartitionedCall/PartitionedCall/functional_15_1/tf_conv_1/sequential_1/conv2d_1/add", "PartitionedCall/PartitionedCall/functional_15_1/tf_conv_1/Sigmoid"], "attr": {"T": {"type": "DT_FLOAT"}}}, {"name": "PartitionedCall/PartitionedCall/functional_15_1/tf_conv_1_2/sequential_1_1/tf_pad_1_1/Pad", "op": "Pad", "input": ["PartitionedCall/PartitionedCall/functional_15_1/tf_conv_1/mul_1", "PartitionedCall/PartitionedCall/functional_15_1/tf_conv_1_2/sequential_1_1/tf_pad_1_1/Pad/paddings"], "attr": {"Tpaddings": {"type": "DT_INT32"}, "T": {"type": "DT_FLOAT"}}}, {"name": "PartitionedCall/PartitionedCall/functional_15_1/tf_conv_1_2/sequential_1_1/conv2d_1_1/add", "op": "_FusedConv2D", "input": ["PartitionedCall/PartitionedCall/functional_15_1/tf_conv_1_2/sequential_1_1/tf_pad_1_1/Pad", "PartitionedCall/PartitionedCall/functional_15_1/tf_conv_1_2/sequential_1_1/conv2d_1_1/convolution/ReadVariableOp", "PartitionedCall/PartitionedCall/functional_15_1/tf_conv_1_2/sequential_1_1/conv2d_1_1/Reshape"], "device": "/device:CPU:0", "attr": {"num_host_args": {"i": "0"}, "data_format": {"s": "TkhXQw=="}, "filter_format": {"s": "SFdJTw=="}, "_input_shapes": {"list": {"shape": [{"dim": [{"size": "-25"}, {"size": "-29"}, {"size": "-30"}, {"size": "-28"}]}, {"dim": [{"size": "3"}, {"size": "3"}, {"size": "48"}, {"size": "96"}]}]}}, "fused_ops": {"list": {"s": ["Qmlhc0FkZA=="]}}, "num_args": {"i": "1"}, "strides": {"list": {"i": ["1", "2", "2", "1"]}}, "TArgs": {"list": {"type": ["DT_FLOAT"]}}, "padding": {"s": "VkFMSUQ="}, "use_cudnn_on_gpu": {"b": true}, "leakyrelu_alpha": {"f": 0.2}, "epsilon": {"f": 0.0}, "T": {"type": "DT_FLOAT"}, "explicit_paddings": {"list": {}}, "dilations": {"list": {"i": ["1", "1", "1", "1"]}}}}, {"name": "PartitionedCall/PartitionedCall/functional_15_1/tf_conv_1_2/Sigmoid", "op": "Sigmoid", "input": ["PartitionedCall/PartitionedCall/functional_15_1/tf_conv_1_2/sequential_1_1/conv2d_1_1/add"], "attr": {"_input_shapes": {"list": {"shape": [{"unknownRank": true}]}}, "T": {"type": "DT_FLOAT"}}}, {"name": "PartitionedCall/PartitionedCall/functional_15_1/tf_conv_1_2/mul_1", "op": "Mul", "input": ["PartitionedCall/PartitionedCall/functional_15_1/tf_conv_1_2/sequential_1_1/conv2d_1_1/add", "PartitionedCall/PartitionedCall/functional_15_1/tf_conv_1_2/Sigmoid"], "attr": {"T": {"type": "DT_FLOAT"}}}, {"name": "PartitionedCall/PartitionedCall/functional_15_1/tfc3_1/tf_conv_2_1/conv2d_2_1/add", "op": "_FusedConv2D", "input": ["PartitionedCall/PartitionedCall/functional_15_1/tf_conv_1_2/mul_1", "PartitionedCall/PartitionedCall/functional_15_1/tfc3_1/tf_conv_2_1/conv2d_2_1/convolution/ReadVariableOp", "PartitionedCall/PartitionedCall/functional_15_1/tfc3_1/tf_conv_2_1/conv2d_2_1/Reshape"], "device": "/device:CPU:0", "attr": {"num_host_args": {"i": "0"}, "_input_shapes": {"list": {"shape": [{"dim": [{"size": "-33"}, {"size": "-34"}, {"size": "-35"}, {"size": "-36"}]}, {"dim": [{"size": "1"}, {"size": "1"}, {"size": "96"}, {"size": "48"}]}]}}, "filter_format": {"s": "SFdJTw=="}, "data_format": {"s": "TkhXQw=="}, "strides": {"list": {"i": ["1", "1", "1", "1"]}}, "num_args": {"i": "1"}, "fused_ops": {"list": {"s": ["Qmlhc0FkZA=="]}}, "TArgs": {"list": {"type": ["DT_FLOAT"]}}, "padding": {"s": "U0FNRQ=="}, "use_cudnn_on_gpu": {"b": true}, "leakyrelu_alpha": {"f": 0.2}, "epsilon": {"f": 0.0}, "T": {"type": "DT_FLOAT"}, "explicit_paddings": {"list": {}}, "dilations": {"list": {"i": ["1", "1", "1", "1"]}}}}, {"name": "PartitionedCall/PartitionedCall/functional_15_1/tfc3_1/tf_conv_3_1/conv2d_3_1/add", "op": "_FusedConv2D", "input": ["PartitionedCall/PartitionedCall/functional_15_1/tf_conv_1_2/mul_1", "PartitionedCall/PartitionedCall/functional_15_1/tfc3_1/tf_conv_3_1/conv2d_3_1/convolution/ReadVariableOp", "PartitionedCall/PartitionedCall/functional_15_1/tfc3_1/tf_conv_3_1/conv2d_3_1/Reshape"], "device": "/device:CPU:0", "attr": {"num_host_args": {"i": "0"}, "data_format": {"s": "TkhXQw=="}, "filter_format": {"s": "SFdJTw=="}, "_input_shapes": {"list": {"shape": [{"dim": [{"size": "-33"}, {"size": "-34"}, {"size": "-35"}, {"size": "-36"}]}, {"dim": [{"size": "1"}, {"size": "1"}, {"size": "96"}, {"size": "48"}]}]}}, "fused_ops": {"list": {"s": ["Qmlhc0FkZA=="]}}, "num_args": {"i": "1"}, "strides": {"list": {"i": ["1", "1", "1", "1"]}}, "TArgs": {"list": {"type": ["DT_FLOAT"]}}, "padding": {"s": "U0FNRQ=="}, "use_cudnn_on_gpu": {"b": true}, "leakyrelu_alpha": {"f": 0.2}, "epsilon": {"f": 0.0}, "T": {"type": "DT_FLOAT"}, "explicit_paddings": {"list": {}}, "dilations": {"list": {"i": ["1", "1", "1", "1"]}}}}, {"name": "PartitionedCall/PartitionedCall/functional_15_1/tfc3_1/tf_conv_2_1/Sigmoid", "op": "Sigmoid", "input": ["PartitionedCall/PartitionedCall/functional_15_1/tfc3_1/tf_conv_2_1/conv2d_2_1/add"], "attr": {"_input_shapes": {"list": {"shape": [{"unknownRank": true}]}}, "T": {"type": "DT_FLOAT"}}}, {"name": "PartitionedCall/PartitionedCall/functional_15_1/tfc3_1/tf_conv_3_1/Sigmoid", "op": "Sigmoid", "input": ["PartitionedCall/PartitionedCall/functional_15_1/tfc3_1/tf_conv_3_1/conv2d_3_1/add"], "attr": {"_input_shapes": {"list": {"shape": [{"unknownRank": true}]}}, "T": {"type": "DT_FLOAT"}}}, {"name": "PartitionedCall/PartitionedCall/functional_15_1/tfc3_1/tf_conv_2_1/mul_1", "op": "Mul", "input": ["PartitionedCall/PartitionedCall/functional_15_1/tfc3_1/tf_conv_2_1/conv2d_2_1/add", "PartitionedCall/PartitionedCall/functional_15_1/tfc3_1/tf_conv_2_1/Sigmoid"], "attr": {"T": {"type": "DT_FLOAT"}}}, {"name": "PartitionedCall/PartitionedCall/functional_15_1/tfc3_1/tf_conv_3_1/mul_1", "op": "Mul", "input": ["PartitionedCall/PartitionedCall/functional_15_1/tfc3_1/tf_conv_3_1/conv2d_3_1/add", "PartitionedCall/PartitionedCall/functional_15_1/tfc3_1/tf_conv_3_1/Sigmoid"], "attr": {"T": {"type": "DT_FLOAT"}}}, {"name": "PartitionedCall/PartitionedCall/functional_15_1/tfc3_1/sequential_2_1/tf_bottleneck_1/tf_conv_5_1/conv2d_5_1/add", "op": "_FusedConv2D", "input": ["PartitionedCall/PartitionedCall/functional_15_1/tfc3_1/tf_conv_2_1/mul_1", "PartitionedCall/PartitionedCall/functional_15_1/tfc3_1/sequential_2_1/tf_bottleneck_1/tf_conv_5_1/conv2d_5_1/convolution/ReadVariableOp", "PartitionedCall/PartitionedCall/functional_15_1/tfc3_1/sequential_2_1/tf_bottleneck_1/tf_conv_5_1/conv2d_5_1/Reshape"], "device": "/device:CPU:0", "attr": {"num_host_args": {"i": "0"}, "data_format": {"s": "TkhXQw=="}, "filter_format": {"s": "SFdJTw=="}, "_input_shapes": {"list": {"shape": [{"dim": [{"size": "-37"}, {"size": "-38"}, {"size": "-39"}, {"size": "-40"}]}, {"dim": [{"size": "1"}, {"size": "1"}, {"size": "48"}, {"size": "48"}]}]}}, "strides": {"list": {"i": ["1", "1", "1", "1"]}}, "num_args": {"i": "1"}, "fused_ops": {"list": {"s": ["Qmlhc0FkZA=="]}}, "TArgs": {"list": {"type": ["DT_FLOAT"]}}, "padding": {"s": "U0FNRQ=="}, "use_cudnn_on_gpu": {"b": true}, "leakyrelu_alpha": {"f": 0.2}, "epsilon": {"f": 0.0}, "T": {"type": "DT_FLOAT"}, "explicit_paddings": {"list": {}}, "dilations": {"list": {"i": ["1", "1", "1", "1"]}}}}, {"name": "PartitionedCall/PartitionedCall/functional_15_1/tfc3_1/sequential_2_1/tf_bottleneck_1/tf_conv_5_1/Sigmoid", "op": "Sigmoid", "input": ["PartitionedCall/PartitionedCall/functional_15_1/tfc3_1/sequential_2_1/tf_bottleneck_1/tf_conv_5_1/conv2d_5_1/add"], "attr": {"_input_shapes": {"list": {"shape": [{"unknownRank": true}]}}, "T": {"type": "DT_FLOAT"}}}, {"name": "PartitionedCall/PartitionedCall/functional_15_1/tfc3_1/sequential_2_1/tf_bottleneck_1/tf_conv_5_1/mul_1", "op": "Mul", "input": ["PartitionedCall/PartitionedCall/functional_15_1/tfc3_1/sequential_2_1/tf_bottleneck_1/tf_conv_5_1/conv2d_5_1/add", "PartitionedCall/PartitionedCall/functional_15_1/tfc3_1/sequential_2_1/tf_bottleneck_1/tf_conv_5_1/Sigmoid"], "attr": {"T": {"type": "DT_FLOAT"}}}, {"name": "PartitionedCall/PartitionedCall/functional_15_1/tfc3_1/sequential_2_1/tf_bottleneck_1/tf_conv_6_1/conv2d_6_1/add", "op": "_FusedConv2D", "input": ["PartitionedCall/PartitionedCall/functional_15_1/tfc3_1/sequential_2_1/tf_bottleneck_1/tf_conv_5_1/mul_1", "PartitionedCall/PartitionedCall/functional_15_1/tfc3_1/sequential_2_1/tf_bottleneck_1/tf_conv_6_1/conv2d_6_1/convolution/ReadVariableOp", "PartitionedCall/PartitionedCall/functional_15_1/tfc3_1/sequential_2_1/tf_bottleneck_1/tf_conv_6_1/conv2d_6_1/Reshape"], "device": "/device:CPU:0", "attr": {"num_host_args": {"i": "0"}, "data_format": {"s": "TkhXQw=="}, "filter_format": {"s": "SFdJTw=="}, "_input_shapes": {"list": {"shape": [{"dim": [{"size": "-41"}, {"size": "-42"}, {"size": "-43"}, {"size": "-44"}]}, {"dim": [{"size": "3"}, {"size": "3"}, {"size": "48"}, {"size": "48"}]}]}}, "strides": {"list": {"i": ["1", "1", "1", "1"]}}, "num_args": {"i": "1"}, "fused_ops": {"list": {"s": ["Qmlhc0FkZA=="]}}, "TArgs": {"list": {"type": ["DT_FLOAT"]}}, "padding": {"s": "U0FNRQ=="}, "use_cudnn_on_gpu": {"b": true}, "leakyrelu_alpha": {"f": 0.2}, "epsilon": {"f": 0.0}, "T": {"type": "DT_FLOAT"}, "explicit_paddings": {"list": {}}, "dilations": {"list": {"i": ["1", "1", "1", "1"]}}}}, {"name": "PartitionedCall/PartitionedCall/functional_15_1/tfc3_1/sequential_2_1/tf_bottleneck_1/tf_conv_6_1/Sigmoid", "op": "Sigmoid", "input": ["PartitionedCall/PartitionedCall/functional_15_1/tfc3_1/sequential_2_1/tf_bottleneck_1/tf_conv_6_1/conv2d_6_1/add"], "attr": {"_input_shapes": {"list": {"shape": [{"unknownRank": true}]}}, "T": {"type": "DT_FLOAT"}}}, {"name": "PartitionedCall/PartitionedCall/functional_15_1/tfc3_1/sequential_2_1/tf_bottleneck_1/tf_conv_6_1/mul_1", "op": "Mul", "input": ["PartitionedCall/PartitionedCall/functional_15_1/tfc3_1/sequential_2_1/tf_bottleneck_1/tf_conv_6_1/conv2d_6_1/add", "PartitionedCall/PartitionedCall/functional_15_1/tfc3_1/sequential_2_1/tf_bottleneck_1/tf_conv_6_1/Sigmoid"], "attr": {"T": {"type": "DT_FLOAT"}}}, {"name": "PartitionedCall/PartitionedCall/functional_15_1/tfc3_1/sequential_2_1/tf_bottleneck_1/add", "op": "AddV2", "input": ["PartitionedCall/PartitionedCall/functional_15_1/tfc3_1/tf_conv_2_1/mul_1", "PartitionedCall/PartitionedCall/functional_15_1/tfc3_1/sequential_2_1/tf_bottleneck_1/tf_conv_6_1/mul_1"], "attr": {"T": {"type": "DT_FLOAT"}}}, {"name": "PartitionedCall/PartitionedCall/functional_15_1/tfc3_1/sequential_2_1/tf_bottleneck_1_2/tf_conv_7_1/conv2d_7_1/add", "op": "_FusedConv2D", "input": ["PartitionedCall/PartitionedCall/functional_15_1/tfc3_1/sequential_2_1/tf_bottleneck_1/add", "PartitionedCall/PartitionedCall/functional_15_1/tfc3_1/sequential_2_1/tf_bottleneck_1_2/tf_conv_7_1/conv2d_7_1/convolution/ReadVariableOp", "PartitionedCall/PartitionedCall/functional_15_1/tfc3_1/sequential_2_1/tf_bottleneck_1_2/tf_conv_7_1/conv2d_7_1/Reshape"], "device": "/device:CPU:0", "attr": {"num_host_args": {"i": "0"}, "data_format": {"s": "TkhXQw=="}, "filter_format": {"s": "SFdJTw=="}, "_input_shapes": {"list": {"shape": [{"dim": [{"size": "-45"}, {"size": "-46"}, {"size": "-47"}, {"size": "-48"}]}, {"dim": [{"size": "1"}, {"size": "1"}, {"size": "48"}, {"size": "48"}]}]}}, "fused_ops": {"list": {"s": ["Qmlhc0FkZA=="]}}, "num_args": {"i": "1"}, "strides": {"list": {"i": ["1", "1", "1", "1"]}}, "TArgs": {"list": {"type": ["DT_FLOAT"]}}, "padding": {"s": "U0FNRQ=="}, "use_cudnn_on_gpu": {"b": true}, "leakyrelu_alpha": {"f": 0.2}, "epsilon": {"f": 0.0}, "T": {"type": "DT_FLOAT"}, "explicit_paddings": {"list": {}}, "dilations": {"list": {"i": ["1", "1", "1", "1"]}}}}, {"name": "PartitionedCall/PartitionedCall/functional_15_1/tfc3_1/sequential_2_1/tf_bottleneck_1_2/tf_conv_7_1/Sigmoid", "op": "Sigmoid", "input": ["PartitionedCall/PartitionedCall/functional_15_1/tfc3_1/sequential_2_1/tf_bottleneck_1_2/tf_conv_7_1/conv2d_7_1/add"], "attr": {"_input_shapes": {"list": {"shape": [{"unknownRank": true}]}}, "T": {"type": "DT_FLOAT"}}}, {"name": "PartitionedCall/PartitionedCall/functional_15_1/tfc3_1/sequential_2_1/tf_bottleneck_1_2/tf_conv_7_1/mul_1", "op": "Mul", "input": ["PartitionedCall/PartitionedCall/functional_15_1/tfc3_1/sequential_2_1/tf_bottleneck_1_2/tf_conv_7_1/conv2d_7_1/add", "PartitionedCall/PartitionedCall/functional_15_1/tfc3_1/sequential_2_1/tf_bottleneck_1_2/tf_conv_7_1/Sigmoid"], "attr": {"T": {"type": "DT_FLOAT"}}}, {"name": "PartitionedCall/PartitionedCall/functional_15_1/tfc3_1/sequential_2_1/tf_bottleneck_1_2/tf_conv_8_1/conv2d_8_1/add", "op": "_FusedConv2D", "input": ["PartitionedCall/PartitionedCall/functional_15_1/tfc3_1/sequential_2_1/tf_bottleneck_1_2/tf_conv_7_1/mul_1", "PartitionedCall/PartitionedCall/functional_15_1/tfc3_1/sequential_2_1/tf_bottleneck_1_2/tf_conv_8_1/conv2d_8_1/convolution/ReadVariableOp", "PartitionedCall/PartitionedCall/functional_15_1/tfc3_1/sequential_2_1/tf_bottleneck_1_2/tf_conv_8_1/conv2d_8_1/Reshape"], "device": "/device:CPU:0", "attr": {"num_host_args": {"i": "0"}, "_input_shapes": {"list": {"shape": [{"dim": [{"size": "-49"}, {"size": "-50"}, {"size": "-51"}, {"size": "-52"}]}, {"dim": [{"size": "3"}, {"size": "3"}, {"size": "48"}, {"size": "48"}]}]}}, "filter_format": {"s": "SFdJTw=="}, "data_format": {"s": "TkhXQw=="}, "strides": {"list": {"i": ["1", "1", "1", "1"]}}, "num_args": {"i": "1"}, "fused_ops": {"list": {"s": ["Qmlhc0FkZA=="]}}, "TArgs": {"list": {"type": ["DT_FLOAT"]}}, "padding": {"s": "U0FNRQ=="}, "use_cudnn_on_gpu": {"b": true}, "leakyrelu_alpha": {"f": 0.2}, "epsilon": {"f": 0.0}, "T": {"type": "DT_FLOAT"}, "explicit_paddings": {"list": {}}, "dilations": {"list": {"i": ["1", "1", "1", "1"]}}}}, {"name": "PartitionedCall/PartitionedCall/functional_15_1/tfc3_1/sequential_2_1/tf_bottleneck_1_2/tf_conv_8_1/Sigmoid", "op": "Sigmoid", "input": ["PartitionedCall/PartitionedCall/functional_15_1/tfc3_1/sequential_2_1/tf_bottleneck_1_2/tf_conv_8_1/conv2d_8_1/add"], "attr": {"_input_shapes": {"list": {"shape": [{"unknownRank": true}]}}, "T": {"type": "DT_FLOAT"}}}, {"name": "PartitionedCall/PartitionedCall/functional_15_1/tfc3_1/sequential_2_1/tf_bottleneck_1_2/tf_conv_8_1/mul_1", "op": "Mul", "input": ["PartitionedCall/PartitionedCall/functional_15_1/tfc3_1/sequential_2_1/tf_bottleneck_1_2/tf_conv_8_1/conv2d_8_1/add", "PartitionedCall/PartitionedCall/functional_15_1/tfc3_1/sequential_2_1/tf_bottleneck_1_2/tf_conv_8_1/Sigmoid"], "attr": {"T": {"type": "DT_FLOAT"}}}, {"name": "PartitionedCall/PartitionedCall/functional_15_1/tfc3_1/sequential_2_1/tf_bottleneck_1_2/add", "op": "AddV2", "input": ["PartitionedCall/PartitionedCall/functional_15_1/tfc3_1/sequential_2_1/tf_bottleneck_1/add", "PartitionedCall/PartitionedCall/functional_15_1/tfc3_1/sequential_2_1/tf_bottleneck_1_2/tf_conv_8_1/mul_1"], "attr": {"T": {"type": "DT_FLOAT"}}}, {"name": "PartitionedCall/PartitionedCall/functional_15_1/tfc3_1/concat", "op": "ConcatV2", "input": ["PartitionedCall/PartitionedCall/functional_15_1/tfc3_1/sequential_2_1/tf_bottleneck_1_2/add", "PartitionedCall/PartitionedCall/functional_15_1/tfc3_1/tf_conv_3_1/mul_1", "PartitionedCall/PartitionedCall/functional_15_1/tfc3_1/concat/axis"], "attr": {"N": {"i": "2"}, "Tidx": {"type": "DT_INT32"}, "T": {"type": "DT_FLOAT"}}}, {"name": "PartitionedCall/PartitionedCall/functional_15_1/tfc3_1/tf_conv_4_1/conv2d_4_1/add", "op": "_FusedConv2D", "input": ["PartitionedCall/PartitionedCall/functional_15_1/tfc3_1/concat", "PartitionedCall/PartitionedCall/functional_15_1/tfc3_1/tf_conv_4_1/conv2d_4_1/convolution/ReadVariableOp", "PartitionedCall/PartitionedCall/functional_15_1/tfc3_1/tf_conv_4_1/conv2d_4_1/Reshape"], "device": "/device:CPU:0", "attr": {"num_host_args": {"i": "0"}, "_input_shapes": {"list": {"shape": [{"dim": [{"size": "-56"}, {"size": "-57"}, {"size": "-58"}, {"size": "-59"}]}, {"dim": [{"size": "1"}, {"size": "1"}, {"size": "96"}, {"size": "96"}]}]}}, "filter_format": {"s": "SFdJTw=="}, "data_format": {"s": "TkhXQw=="}, "fused_ops": {"list": {"s": ["Qmlhc0FkZA=="]}}, "num_args": {"i": "1"}, "strides": {"list": {"i": ["1", "1", "1", "1"]}}, "TArgs": {"list": {"type": ["DT_FLOAT"]}}, "padding": {"s": "U0FNRQ=="}, "use_cudnn_on_gpu": {"b": true}, "leakyrelu_alpha": {"f": 0.2}, "epsilon": {"f": 0.0}, "T": {"type": "DT_FLOAT"}, "explicit_paddings": {"list": {}}, "dilations": {"list": {"i": ["1", "1", "1", "1"]}}}}, {"name": "PartitionedCall/PartitionedCall/functional_15_1/tfc3_1/tf_conv_4_1/Sigmoid", "op": "Sigmoid", "input": ["PartitionedCall/PartitionedCall/functional_15_1/tfc3_1/tf_conv_4_1/conv2d_4_1/add"], "attr": {"_input_shapes": {"list": {"shape": [{"unknownRank": true}]}}, "T": {"type": "DT_FLOAT"}}}, {"name": "PartitionedCall/PartitionedCall/functional_15_1/tfc3_1/tf_conv_4_1/mul_1", "op": "Mul", "input": ["PartitionedCall/PartitionedCall/functional_15_1/tfc3_1/tf_conv_4_1/conv2d_4_1/add", "PartitionedCall/PartitionedCall/functional_15_1/tfc3_1/tf_conv_4_1/Sigmoid"], "attr": {"T": {"type": "DT_FLOAT"}}}, {"name": "PartitionedCall/PartitionedCall/functional_15_1/tf_conv_9_1/sequential_3_1/tf_pad_2_1/Pad", "op": "Pad", "input": ["PartitionedCall/PartitionedCall/functional_15_1/tfc3_1/tf_conv_4_1/mul_1", "PartitionedCall/PartitionedCall/functional_15_1/tf_conv_9_1/sequential_3_1/tf_pad_2_1/Pad/paddings"], "attr": {"Tpaddings": {"type": "DT_INT32"}, "T": {"type": "DT_FLOAT"}}}, {"name": "PartitionedCall/PartitionedCall/functional_15_1/tf_conv_9_1/sequential_3_1/conv2d_9_1/add", "op": "_FusedConv2D", "input": ["PartitionedCall/PartitionedCall/functional_15_1/tf_conv_9_1/sequential_3_1/tf_pad_2_1/Pad", "PartitionedCall/PartitionedCall/functional_15_1/tf_conv_9_1/sequential_3_1/conv2d_9_1/convolution/ReadVariableOp", "PartitionedCall/PartitionedCall/functional_15_1/tf_conv_9_1/sequential_3_1/conv2d_9_1/Reshape"], "device": "/device:CPU:0", "attr": {"num_host_args": {"i": "0"}, "_input_shapes": {"list": {"shape": [{"dim": [{"size": "-60"}, {"size": "-64"}, {"size": "-65"}, {"size": "-63"}]}, {"dim": [{"size": "3"}, {"size": "3"}, {"size": "96"}, {"size": "192"}]}]}}, "filter_format": {"s": "SFdJTw=="}, "data_format": {"s": "TkhXQw=="}, "fused_ops": {"list": {"s": ["Qmlhc0FkZA=="]}}, "num_args": {"i": "1"}, "strides": {"list": {"i": ["1", "2", "2", "1"]}}, "TArgs": {"list": {"type": ["DT_FLOAT"]}}, "padding": {"s": "VkFMSUQ="}, "use_cudnn_on_gpu": {"b": true}, "leakyrelu_alpha": {"f": 0.2}, "epsilon": {"f": 0.0}, "T": {"type": "DT_FLOAT"}, "explicit_paddings": {"list": {}}, "dilations": {"list": {"i": ["1", "1", "1", "1"]}}}}, {"name": "PartitionedCall/PartitionedCall/functional_15_1/tf_conv_9_1/Sigmoid", "op": "Sigmoid", "input": ["PartitionedCall/PartitionedCall/functional_15_1/tf_conv_9_1/sequential_3_1/conv2d_9_1/add"], "attr": {"_input_shapes": {"list": {"shape": [{"unknownRank": true}]}}, "T": {"type": "DT_FLOAT"}}}, {"name": "PartitionedCall/PartitionedCall/functional_15_1/tf_conv_9_1/mul_1", "op": "Mul", "input": ["PartitionedCall/PartitionedCall/functional_15_1/tf_conv_9_1/sequential_3_1/conv2d_9_1/add", "PartitionedCall/PartitionedCall/functional_15_1/tf_conv_9_1/Sigmoid"], "attr": {"T": {"type": "DT_FLOAT"}}}, {"name": "PartitionedCall/PartitionedCall/functional_15_1/tfc3_1_2/tf_conv_10_1/conv2d_10_1/add", "op": "_FusedConv2D", "input": ["PartitionedCall/PartitionedCall/functional_15_1/tf_conv_9_1/mul_1", "PartitionedCall/PartitionedCall/functional_15_1/tfc3_1_2/tf_conv_10_1/conv2d_10_1/convolution/ReadVariableOp", "PartitionedCall/PartitionedCall/functional_15_1/tfc3_1_2/tf_conv_10_1/conv2d_10_1/Reshape"], "device": "/device:CPU:0", "attr": {"num_host_args": {"i": "0"}, "_input_shapes": {"list": {"shape": [{"dim": [{"size": "-68"}, {"size": "-69"}, {"size": "-70"}, {"size": "-71"}]}, {"dim": [{"size": "1"}, {"size": "1"}, {"size": "192"}, {"size": "96"}]}]}}, "filter_format": {"s": "SFdJTw=="}, "data_format": {"s": "TkhXQw=="}, "strides": {"list": {"i": ["1", "1", "1", "1"]}}, "num_args": {"i": "1"}, "fused_ops": {"list": {"s": ["Qmlhc0FkZA=="]}}, "TArgs": {"list": {"type": ["DT_FLOAT"]}}, "padding": {"s": "U0FNRQ=="}, "use_cudnn_on_gpu": {"b": true}, "leakyrelu_alpha": {"f": 0.2}, "epsilon": {"f": 0.0}, "T": {"type": "DT_FLOAT"}, "explicit_paddings": {"list": {}}, "dilations": {"list": {"i": ["1", "1", "1", "1"]}}}}, {"name": "PartitionedCall/PartitionedCall/functional_15_1/tfc3_1_2/tf_conv_11_1/conv2d_11_1/add", "op": "_FusedConv2D", "input": ["PartitionedCall/PartitionedCall/functional_15_1/tf_conv_9_1/mul_1", "PartitionedCall/PartitionedCall/functional_15_1/tfc3_1_2/tf_conv_11_1/conv2d_11_1/convolution/ReadVariableOp", "PartitionedCall/PartitionedCall/functional_15_1/tfc3_1_2/tf_conv_11_1/conv2d_11_1/Reshape"], "device": "/device:CPU:0", "attr": {"num_host_args": {"i": "0"}, "_input_shapes": {"list": {"shape": [{"dim": [{"size": "-68"}, {"size": "-69"}, {"size": "-70"}, {"size": "-71"}]}, {"dim": [{"size": "1"}, {"size": "1"}, {"size": "192"}, {"size": "96"}]}]}}, "filter_format": {"s": "SFdJTw=="}, "data_format": {"s": "TkhXQw=="}, "fused_ops": {"list": {"s": ["Qmlhc0FkZA=="]}}, "num_args": {"i": "1"}, "strides": {"list": {"i": ["1", "1", "1", "1"]}}, "TArgs": {"list": {"type": ["DT_FLOAT"]}}, "padding": {"s": "U0FNRQ=="}, "use_cudnn_on_gpu": {"b": true}, "leakyrelu_alpha": {"f": 0.2}, "epsilon": {"f": 0.0}, "T": {"type": "DT_FLOAT"}, "explicit_paddings": {"list": {}}, "dilations": {"list": {"i": ["1", "1", "1", "1"]}}}}, {"name": "PartitionedCall/PartitionedCall/functional_15_1/tfc3_1_2/tf_conv_10_1/Sigmoid", "op": "Sigmoid", "input": ["PartitionedCall/PartitionedCall/functional_15_1/tfc3_1_2/tf_conv_10_1/conv2d_10_1/add"], "attr": {"_input_shapes": {"list": {"shape": [{"unknownRank": true}]}}, "T": {"type": "DT_FLOAT"}}}, {"name": "PartitionedCall/PartitionedCall/functional_15_1/tfc3_1_2/tf_conv_11_1/Sigmoid", "op": "Sigmoid", "input": ["PartitionedCall/PartitionedCall/functional_15_1/tfc3_1_2/tf_conv_11_1/conv2d_11_1/add"], "attr": {"_input_shapes": {"list": {"shape": [{"unknownRank": true}]}}, "T": {"type": "DT_FLOAT"}}}, {"name": "PartitionedCall/PartitionedCall/functional_15_1/tfc3_1_2/tf_conv_10_1/mul_1", "op": "Mul", "input": ["PartitionedCall/PartitionedCall/functional_15_1/tfc3_1_2/tf_conv_10_1/conv2d_10_1/add", "PartitionedCall/PartitionedCall/functional_15_1/tfc3_1_2/tf_conv_10_1/Sigmoid"], "attr": {"T": {"type": "DT_FLOAT"}}}, {"name": "PartitionedCall/PartitionedCall/functional_15_1/tfc3_1_2/tf_conv_11_1/mul_1", "op": "Mul", "input": ["PartitionedCall/PartitionedCall/functional_15_1/tfc3_1_2/tf_conv_11_1/conv2d_11_1/add", "PartitionedCall/PartitionedCall/functional_15_1/tfc3_1_2/tf_conv_11_1/Sigmoid"], "attr": {"T": {"type": "DT_FLOAT"}}}, {"name": "PartitionedCall/PartitionedCall/functional_15_1/tfc3_1_2/sequential_4_1/tf_bottleneck_2_1/tf_conv_13_1/conv2d_13_1/add", "op": "_FusedConv2D", "input": ["PartitionedCall/PartitionedCall/functional_15_1/tfc3_1_2/tf_conv_10_1/mul_1", "PartitionedCall/PartitionedCall/functional_15_1/tfc3_1_2/sequential_4_1/tf_bottleneck_2_1/tf_conv_13_1/conv2d_13_1/convolution/ReadVariableOp", "PartitionedCall/PartitionedCall/functional_15_1/tfc3_1_2/sequential_4_1/tf_bottleneck_2_1/tf_conv_13_1/conv2d_13_1/Reshape"], "device": "/device:CPU:0", "attr": {"num_host_args": {"i": "0"}, "data_format": {"s": "TkhXQw=="}, "filter_format": {"s": "SFdJTw=="}, "_input_shapes": {"list": {"shape": [{"dim": [{"size": "-72"}, {"size": "-73"}, {"size": "-74"}, {"size": "-75"}]}, {"dim": [{"size": "1"}, {"size": "1"}, {"size": "96"}, {"size": "96"}]}]}}, "fused_ops": {"list": {"s": ["Qmlhc0FkZA=="]}}, "num_args": {"i": "1"}, "strides": {"list": {"i": ["1", "1", "1", "1"]}}, "TArgs": {"list": {"type": ["DT_FLOAT"]}}, "padding": {"s": "U0FNRQ=="}, "use_cudnn_on_gpu": {"b": true}, "leakyrelu_alpha": {"f": 0.2}, "epsilon": {"f": 0.0}, "T": {"type": "DT_FLOAT"}, "explicit_paddings": {"list": {}}, "dilations": {"list": {"i": ["1", "1", "1", "1"]}}}}, {"name": "PartitionedCall/PartitionedCall/functional_15_1/tfc3_1_2/sequential_4_1/tf_bottleneck_2_1/tf_conv_13_1/Sigmoid", "op": "Sigmoid", "input": ["PartitionedCall/PartitionedCall/functional_15_1/tfc3_1_2/sequential_4_1/tf_bottleneck_2_1/tf_conv_13_1/conv2d_13_1/add"], "attr": {"_input_shapes": {"list": {"shape": [{"unknownRank": true}]}}, "T": {"type": "DT_FLOAT"}}}, {"name": "PartitionedCall/PartitionedCall/functional_15_1/tfc3_1_2/sequential_4_1/tf_bottleneck_2_1/tf_conv_13_1/mul_1", "op": "Mul", "input": ["PartitionedCall/PartitionedCall/functional_15_1/tfc3_1_2/sequential_4_1/tf_bottleneck_2_1/tf_conv_13_1/conv2d_13_1/add", "PartitionedCall/PartitionedCall/functional_15_1/tfc3_1_2/sequential_4_1/tf_bottleneck_2_1/tf_conv_13_1/Sigmoid"], "attr": {"T": {"type": "DT_FLOAT"}}}, {"name": "PartitionedCall/PartitionedCall/functional_15_1/tfc3_1_2/sequential_4_1/tf_bottleneck_2_1/tf_conv_14_1/conv2d_14_1/add", "op": "_FusedConv2D", "input": ["PartitionedCall/PartitionedCall/functional_15_1/tfc3_1_2/sequential_4_1/tf_bottleneck_2_1/tf_conv_13_1/mul_1", "PartitionedCall/PartitionedCall/functional_15_1/tfc3_1_2/sequential_4_1/tf_bottleneck_2_1/tf_conv_14_1/conv2d_14_1/convolution/ReadVariableOp", "PartitionedCall/PartitionedCall/functional_15_1/tfc3_1_2/sequential_4_1/tf_bottleneck_2_1/tf_conv_14_1/conv2d_14_1/Reshape"], "device": "/device:CPU:0", "attr": {"num_host_args": {"i": "0"}, "data_format": {"s": "TkhXQw=="}, "filter_format": {"s": "SFdJTw=="}, "_input_shapes": {"list": {"shape": [{"dim": [{"size": "-76"}, {"size": "-77"}, {"size": "-78"}, {"size": "-79"}]}, {"dim": [{"size": "3"}, {"size": "3"}, {"size": "96"}, {"size": "96"}]}]}}, "strides": {"list": {"i": ["1", "1", "1", "1"]}}, "num_args": {"i": "1"}, "fused_ops": {"list": {"s": ["Qmlhc0FkZA=="]}}, "TArgs": {"list": {"type": ["DT_FLOAT"]}}, "padding": {"s": "U0FNRQ=="}, "use_cudnn_on_gpu": {"b": true}, "leakyrelu_alpha": {"f": 0.2}, "epsilon": {"f": 0.0}, "T": {"type": "DT_FLOAT"}, "explicit_paddings": {"list": {}}, "dilations": {"list": {"i": ["1", "1", "1", "1"]}}}}, {"name": "PartitionedCall/PartitionedCall/functional_15_1/tfc3_1_2/sequential_4_1/tf_bottleneck_2_1/tf_conv_14_1/Sigmoid", "op": "Sigmoid", "input": ["PartitionedCall/PartitionedCall/functional_15_1/tfc3_1_2/sequential_4_1/tf_bottleneck_2_1/tf_conv_14_1/conv2d_14_1/add"], "attr": {"_input_shapes": {"list": {"shape": [{"unknownRank": true}]}}, "T": {"type": "DT_FLOAT"}}}, {"name": "PartitionedCall/PartitionedCall/functional_15_1/tfc3_1_2/sequential_4_1/tf_bottleneck_2_1/tf_conv_14_1/mul_1", "op": "Mul", "input": ["PartitionedCall/PartitionedCall/functional_15_1/tfc3_1_2/sequential_4_1/tf_bottleneck_2_1/tf_conv_14_1/conv2d_14_1/add", "PartitionedCall/PartitionedCall/functional_15_1/tfc3_1_2/sequential_4_1/tf_bottleneck_2_1/tf_conv_14_1/Sigmoid"], "attr": {"T": {"type": "DT_FLOAT"}}}, {"name": "PartitionedCall/PartitionedCall/functional_15_1/tfc3_1_2/sequential_4_1/tf_bottleneck_2_1/add", "op": "AddV2", "input": ["PartitionedCall/PartitionedCall/functional_15_1/tfc3_1_2/tf_conv_10_1/mul_1", "PartitionedCall/PartitionedCall/functional_15_1/tfc3_1_2/sequential_4_1/tf_bottleneck_2_1/tf_conv_14_1/mul_1"], "attr": {"T": {"type": "DT_FLOAT"}}}, {"name": "PartitionedCall/PartitionedCall/functional_15_1/tfc3_1_2/sequential_4_1/tf_bottleneck_3_1/tf_conv_15_1/conv2d_15_1/add", "op": "_FusedConv2D", "input": ["PartitionedCall/PartitionedCall/functional_15_1/tfc3_1_2/sequential_4_1/tf_bottleneck_2_1/add", "PartitionedCall/PartitionedCall/functional_15_1/tfc3_1_2/sequential_4_1/tf_bottleneck_3_1/tf_conv_15_1/conv2d_15_1/convolution/ReadVariableOp", "PartitionedCall/PartitionedCall/functional_15_1/tfc3_1_2/sequential_4_1/tf_bottleneck_3_1/tf_conv_15_1/conv2d_15_1/Reshape"], "device": "/device:CPU:0", "attr": {"num_host_args": {"i": "0"}, "data_format": {"s": "TkhXQw=="}, "filter_format": {"s": "SFdJTw=="}, "_input_shapes": {"list": {"shape": [{"dim": [{"size": "-80"}, {"size": "-81"}, {"size": "-82"}, {"size": "-83"}]}, {"dim": [{"size": "1"}, {"size": "1"}, {"size": "96"}, {"size": "96"}]}]}}, "strides": {"list": {"i": ["1", "1", "1", "1"]}}, "num_args": {"i": "1"}, "fused_ops": {"list": {"s": ["Qmlhc0FkZA=="]}}, "TArgs": {"list": {"type": ["DT_FLOAT"]}}, "padding": {"s": "U0FNRQ=="}, "use_cudnn_on_gpu": {"b": true}, "leakyrelu_alpha": {"f": 0.2}, "epsilon": {"f": 0.0}, "T": {"type": "DT_FLOAT"}, "explicit_paddings": {"list": {}}, "dilations": {"list": {"i": ["1", "1", "1", "1"]}}}}, {"name": "PartitionedCall/PartitionedCall/functional_15_1/tfc3_1_2/sequential_4_1/tf_bottleneck_3_1/tf_conv_15_1/Sigmoid", "op": "Sigmoid", "input": ["PartitionedCall/PartitionedCall/functional_15_1/tfc3_1_2/sequential_4_1/tf_bottleneck_3_1/tf_conv_15_1/conv2d_15_1/add"], "attr": {"_input_shapes": {"list": {"shape": [{"unknownRank": true}]}}, "T": {"type": "DT_FLOAT"}}}, {"name": "PartitionedCall/PartitionedCall/functional_15_1/tfc3_1_2/sequential_4_1/tf_bottleneck_3_1/tf_conv_15_1/mul_1", "op": "Mul", "input": ["PartitionedCall/PartitionedCall/functional_15_1/tfc3_1_2/sequential_4_1/tf_bottleneck_3_1/tf_conv_15_1/conv2d_15_1/add", "PartitionedCall/PartitionedCall/functional_15_1/tfc3_1_2/sequential_4_1/tf_bottleneck_3_1/tf_conv_15_1/Sigmoid"], "attr": {"T": {"type": "DT_FLOAT"}}}, {"name": "PartitionedCall/PartitionedCall/functional_15_1/tfc3_1_2/sequential_4_1/tf_bottleneck_3_1/tf_conv_16_1/conv2d_16_1/add", "op": "_FusedConv2D", "input": ["PartitionedCall/PartitionedCall/functional_15_1/tfc3_1_2/sequential_4_1/tf_bottleneck_3_1/tf_conv_15_1/mul_1", "PartitionedCall/PartitionedCall/functional_15_1/tfc3_1_2/sequential_4_1/tf_bottleneck_3_1/tf_conv_16_1/conv2d_16_1/convolution/ReadVariableOp", "PartitionedCall/PartitionedCall/functional_15_1/tfc3_1_2/sequential_4_1/tf_bottleneck_3_1/tf_conv_16_1/conv2d_16_1/Reshape"], "device": "/device:CPU:0", "attr": {"num_host_args": {"i": "0"}, "data_format": {"s": "TkhXQw=="}, "filter_format": {"s": "SFdJTw=="}, "_input_shapes": {"list": {"shape": [{"dim": [{"size": "-84"}, {"size": "-85"}, {"size": "-86"}, {"size": "-87"}]}, {"dim": [{"size": "3"}, {"size": "3"}, {"size": "96"}, {"size": "96"}]}]}}, "fused_ops": {"list": {"s": ["Qmlhc0FkZA=="]}}, "num_args": {"i": "1"}, "strides": {"list": {"i": ["1", "1", "1", "1"]}}, "TArgs": {"list": {"type": ["DT_FLOAT"]}}, "padding": {"s": "U0FNRQ=="}, "use_cudnn_on_gpu": {"b": true}, "leakyrelu_alpha": {"f": 0.2}, "epsilon": {"f": 0.0}, "T": {"type": "DT_FLOAT"}, "explicit_paddings": {"list": {}}, "dilations": {"list": {"i": ["1", "1", "1", "1"]}}}}, {"name": "PartitionedCall/PartitionedCall/functional_15_1/tfc3_1_2/sequential_4_1/tf_bottleneck_3_1/tf_conv_16_1/Sigmoid", "op": "Sigmoid", "input": ["PartitionedCall/PartitionedCall/functional_15_1/tfc3_1_2/sequential_4_1/tf_bottleneck_3_1/tf_conv_16_1/conv2d_16_1/add"], "attr": {"_input_shapes": {"list": {"shape": [{"unknownRank": true}]}}, "T": {"type": "DT_FLOAT"}}}, {"name": "PartitionedCall/PartitionedCall/functional_15_1/tfc3_1_2/sequential_4_1/tf_bottleneck_3_1/tf_conv_16_1/mul_1", "op": "Mul", "input": ["PartitionedCall/PartitionedCall/functional_15_1/tfc3_1_2/sequential_4_1/tf_bottleneck_3_1/tf_conv_16_1/conv2d_16_1/add", "PartitionedCall/PartitionedCall/functional_15_1/tfc3_1_2/sequential_4_1/tf_bottleneck_3_1/tf_conv_16_1/Sigmoid"], "attr": {"T": {"type": "DT_FLOAT"}}}, {"name": "PartitionedCall/PartitionedCall/functional_15_1/tfc3_1_2/sequential_4_1/tf_bottleneck_3_1/add", "op": "AddV2", "input": ["PartitionedCall/PartitionedCall/functional_15_1/tfc3_1_2/sequential_4_1/tf_bottleneck_2_1/add", "PartitionedCall/PartitionedCall/functional_15_1/tfc3_1_2/sequential_4_1/tf_bottleneck_3_1/tf_conv_16_1/mul_1"], "attr": {"T": {"type": "DT_FLOAT"}}}, {"name": "PartitionedCall/PartitionedCall/functional_15_1/tfc3_1_2/sequential_4_1/tf_bottleneck_4_1/tf_conv_17_1/conv2d_17_1/add", "op": "_FusedConv2D", "input": ["PartitionedCall/PartitionedCall/functional_15_1/tfc3_1_2/sequential_4_1/tf_bottleneck_3_1/add", "PartitionedCall/PartitionedCall/functional_15_1/tfc3_1_2/sequential_4_1/tf_bottleneck_4_1/tf_conv_17_1/conv2d_17_1/convolution/ReadVariableOp", "PartitionedCall/PartitionedCall/functional_15_1/tfc3_1_2/sequential_4_1/tf_bottleneck_4_1/tf_conv_17_1/conv2d_17_1/Reshape"], "device": "/device:CPU:0", "attr": {"num_host_args": {"i": "0"}, "_input_shapes": {"list": {"shape": [{"dim": [{"size": "-88"}, {"size": "-89"}, {"size": "-90"}, {"size": "-91"}]}, {"dim": [{"size": "1"}, {"size": "1"}, {"size": "96"}, {"size": "96"}]}]}}, "filter_format": {"s": "SFdJTw=="}, "data_format": {"s": "TkhXQw=="}, "strides": {"list": {"i": ["1", "1", "1", "1"]}}, "num_args": {"i": "1"}, "fused_ops": {"list": {"s": ["Qmlhc0FkZA=="]}}, "TArgs": {"list": {"type": ["DT_FLOAT"]}}, "padding": {"s": "U0FNRQ=="}, "use_cudnn_on_gpu": {"b": true}, "leakyrelu_alpha": {"f": 0.2}, "epsilon": {"f": 0.0}, "T": {"type": "DT_FLOAT"}, "explicit_paddings": {"list": {}}, "dilations": {"list": {"i": ["1", "1", "1", "1"]}}}}, {"name": "PartitionedCall/PartitionedCall/functional_15_1/tfc3_1_2/sequential_4_1/tf_bottleneck_4_1/tf_conv_17_1/Sigmoid", "op": "Sigmoid", "input": ["PartitionedCall/PartitionedCall/functional_15_1/tfc3_1_2/sequential_4_1/tf_bottleneck_4_1/tf_conv_17_1/conv2d_17_1/add"], "attr": {"_input_shapes": {"list": {"shape": [{"unknownRank": true}]}}, "T": {"type": "DT_FLOAT"}}}, {"name": "PartitionedCall/PartitionedCall/functional_15_1/tfc3_1_2/sequential_4_1/tf_bottleneck_4_1/tf_conv_17_1/mul_1", "op": "Mul", "input": ["PartitionedCall/PartitionedCall/functional_15_1/tfc3_1_2/sequential_4_1/tf_bottleneck_4_1/tf_conv_17_1/conv2d_17_1/add", "PartitionedCall/PartitionedCall/functional_15_1/tfc3_1_2/sequential_4_1/tf_bottleneck_4_1/tf_conv_17_1/Sigmoid"], "attr": {"T": {"type": "DT_FLOAT"}}}, {"name": "PartitionedCall/PartitionedCall/functional_15_1/tfc3_1_2/sequential_4_1/tf_bottleneck_4_1/tf_conv_18_1/conv2d_18_1/add", "op": "_FusedConv2D", "input": ["PartitionedCall/PartitionedCall/functional_15_1/tfc3_1_2/sequential_4_1/tf_bottleneck_4_1/tf_conv_17_1/mul_1", "PartitionedCall/PartitionedCall/functional_15_1/tfc3_1_2/sequential_4_1/tf_bottleneck_4_1/tf_conv_18_1/conv2d_18_1/convolution/ReadVariableOp", "PartitionedCall/PartitionedCall/functional_15_1/tfc3_1_2/sequential_4_1/tf_bottleneck_4_1/tf_conv_18_1/conv2d_18_1/Reshape"], "device": "/device:CPU:0", "attr": {"num_host_args": {"i": "0"}, "_input_shapes": {"list": {"shape": [{"dim": [{"size": "-92"}, {"size": "-93"}, {"size": "-94"}, {"size": "-95"}]}, {"dim": [{"size": "3"}, {"size": "3"}, {"size": "96"}, {"size": "96"}]}]}}, "filter_format": {"s": "SFdJTw=="}, "data_format": {"s": "TkhXQw=="}, "strides": {"list": {"i": ["1", "1", "1", "1"]}}, "num_args": {"i": "1"}, "fused_ops": {"list": {"s": ["Qmlhc0FkZA=="]}}, "TArgs": {"list": {"type": ["DT_FLOAT"]}}, "padding": {"s": "U0FNRQ=="}, "use_cudnn_on_gpu": {"b": true}, "leakyrelu_alpha": {"f": 0.2}, "epsilon": {"f": 0.0}, "T": {"type": "DT_FLOAT"}, "explicit_paddings": {"list": {}}, "dilations": {"list": {"i": ["1", "1", "1", "1"]}}}}, {"name": "PartitionedCall/PartitionedCall/functional_15_1/tfc3_1_2/sequential_4_1/tf_bottleneck_4_1/tf_conv_18_1/Sigmoid", "op": "Sigmoid", "input": ["PartitionedCall/PartitionedCall/functional_15_1/tfc3_1_2/sequential_4_1/tf_bottleneck_4_1/tf_conv_18_1/conv2d_18_1/add"], "attr": {"_input_shapes": {"list": {"shape": [{"unknownRank": true}]}}, "T": {"type": "DT_FLOAT"}}}, {"name": "PartitionedCall/PartitionedCall/functional_15_1/tfc3_1_2/sequential_4_1/tf_bottleneck_4_1/tf_conv_18_1/mul_1", "op": "Mul", "input": ["PartitionedCall/PartitionedCall/functional_15_1/tfc3_1_2/sequential_4_1/tf_bottleneck_4_1/tf_conv_18_1/conv2d_18_1/add", "PartitionedCall/PartitionedCall/functional_15_1/tfc3_1_2/sequential_4_1/tf_bottleneck_4_1/tf_conv_18_1/Sigmoid"], "attr": {"T": {"type": "DT_FLOAT"}}}, {"name": "PartitionedCall/PartitionedCall/functional_15_1/tfc3_1_2/sequential_4_1/tf_bottleneck_4_1/add", "op": "AddV2", "input": ["PartitionedCall/PartitionedCall/functional_15_1/tfc3_1_2/sequential_4_1/tf_bottleneck_3_1/add", "PartitionedCall/PartitionedCall/functional_15_1/tfc3_1_2/sequential_4_1/tf_bottleneck_4_1/tf_conv_18_1/mul_1"], "attr": {"T": {"type": "DT_FLOAT"}}}, {"name": "PartitionedCall/PartitionedCall/functional_15_1/tfc3_1_2/sequential_4_1/tf_bottleneck_5_1/tf_conv_19_1/conv2d_19_1/add", "op": "_FusedConv2D", "input": ["PartitionedCall/PartitionedCall/functional_15_1/tfc3_1_2/sequential_4_1/tf_bottleneck_4_1/add", "PartitionedCall/PartitionedCall/functional_15_1/tfc3_1_2/sequential_4_1/tf_bottleneck_5_1/tf_conv_19_1/conv2d_19_1/convolution/ReadVariableOp", "PartitionedCall/PartitionedCall/functional_15_1/tfc3_1_2/sequential_4_1/tf_bottleneck_5_1/tf_conv_19_1/conv2d_19_1/Reshape"], "device": "/device:CPU:0", "attr": {"num_host_args": {"i": "0"}, "_input_shapes": {"list": {"shape": [{"dim": [{"size": "-96"}, {"size": "-97"}, {"size": "-98"}, {"size": "-99"}]}, {"dim": [{"size": "1"}, {"size": "1"}, {"size": "96"}, {"size": "96"}]}]}}, "filter_format": {"s": "SFdJTw=="}, "data_format": {"s": "TkhXQw=="}, "strides": {"list": {"i": ["1", "1", "1", "1"]}}, "num_args": {"i": "1"}, "fused_ops": {"list": {"s": ["Qmlhc0FkZA=="]}}, "TArgs": {"list": {"type": ["DT_FLOAT"]}}, "padding": {"s": "U0FNRQ=="}, "use_cudnn_on_gpu": {"b": true}, "leakyrelu_alpha": {"f": 0.2}, "epsilon": {"f": 0.0}, "T": {"type": "DT_FLOAT"}, "explicit_paddings": {"list": {}}, "dilations": {"list": {"i": ["1", "1", "1", "1"]}}}}, {"name": "PartitionedCall/PartitionedCall/functional_15_1/tfc3_1_2/sequential_4_1/tf_bottleneck_5_1/tf_conv_19_1/Sigmoid", "op": "Sigmoid", "input": ["PartitionedCall/PartitionedCall/functional_15_1/tfc3_1_2/sequential_4_1/tf_bottleneck_5_1/tf_conv_19_1/conv2d_19_1/add"], "attr": {"_input_shapes": {"list": {"shape": [{"unknownRank": true}]}}, "T": {"type": "DT_FLOAT"}}}, {"name": "PartitionedCall/PartitionedCall/functional_15_1/tfc3_1_2/sequential_4_1/tf_bottleneck_5_1/tf_conv_19_1/mul_1", "op": "Mul", "input": ["PartitionedCall/PartitionedCall/functional_15_1/tfc3_1_2/sequential_4_1/tf_bottleneck_5_1/tf_conv_19_1/conv2d_19_1/add", "PartitionedCall/PartitionedCall/functional_15_1/tfc3_1_2/sequential_4_1/tf_bottleneck_5_1/tf_conv_19_1/Sigmoid"], "attr": {"T": {"type": "DT_FLOAT"}}}, {"name": "PartitionedCall/PartitionedCall/functional_15_1/tfc3_1_2/sequential_4_1/tf_bottleneck_5_1/tf_conv_20_1/conv2d_20_1/add", "op": "_FusedConv2D", "input": ["PartitionedCall/PartitionedCall/functional_15_1/tfc3_1_2/sequential_4_1/tf_bottleneck_5_1/tf_conv_19_1/mul_1", "PartitionedCall/PartitionedCall/functional_15_1/tfc3_1_2/sequential_4_1/tf_bottleneck_5_1/tf_conv_20_1/conv2d_20_1/convolution/ReadVariableOp", "PartitionedCall/PartitionedCall/functional_15_1/tfc3_1_2/sequential_4_1/tf_bottleneck_5_1/tf_conv_20_1/conv2d_20_1/Reshape"], "device": "/device:CPU:0", "attr": {"num_host_args": {"i": "0"}, "_input_shapes": {"list": {"shape": [{"dim": [{"size": "-100"}, {"size": "-101"}, {"size": "-102"}, {"size": "-103"}]}, {"dim": [{"size": "3"}, {"size": "3"}, {"size": "96"}, {"size": "96"}]}]}}, "filter_format": {"s": "SFdJTw=="}, "data_format": {"s": "TkhXQw=="}, "fused_ops": {"list": {"s": ["Qmlhc0FkZA=="]}}, "num_args": {"i": "1"}, "strides": {"list": {"i": ["1", "1", "1", "1"]}}, "TArgs": {"list": {"type": ["DT_FLOAT"]}}, "padding": {"s": "U0FNRQ=="}, "use_cudnn_on_gpu": {"b": true}, "leakyrelu_alpha": {"f": 0.2}, "epsilon": {"f": 0.0}, "T": {"type": "DT_FLOAT"}, "explicit_paddings": {"list": {}}, "dilations": {"list": {"i": ["1", "1", "1", "1"]}}}}, {"name": "PartitionedCall/PartitionedCall/functional_15_1/tfc3_1_2/sequential_4_1/tf_bottleneck_5_1/tf_conv_20_1/Sigmoid", "op": "Sigmoid", "input": ["PartitionedCall/PartitionedCall/functional_15_1/tfc3_1_2/sequential_4_1/tf_bottleneck_5_1/tf_conv_20_1/conv2d_20_1/add"], "attr": {"_input_shapes": {"list": {"shape": [{"unknownRank": true}]}}, "T": {"type": "DT_FLOAT"}}}, {"name": "PartitionedCall/PartitionedCall/functional_15_1/tfc3_1_2/sequential_4_1/tf_bottleneck_5_1/tf_conv_20_1/mul_1", "op": "Mul", "input": ["PartitionedCall/PartitionedCall/functional_15_1/tfc3_1_2/sequential_4_1/tf_bottleneck_5_1/tf_conv_20_1/conv2d_20_1/add", "PartitionedCall/PartitionedCall/functional_15_1/tfc3_1_2/sequential_4_1/tf_bottleneck_5_1/tf_conv_20_1/Sigmoid"], "attr": {"T": {"type": "DT_FLOAT"}}}, {"name": "PartitionedCall/PartitionedCall/functional_15_1/tfc3_1_2/sequential_4_1/tf_bottleneck_5_1/add", "op": "AddV2", "input": ["PartitionedCall/PartitionedCall/functional_15_1/tfc3_1_2/sequential_4_1/tf_bottleneck_4_1/add", "PartitionedCall/PartitionedCall/functional_15_1/tfc3_1_2/sequential_4_1/tf_bottleneck_5_1/tf_conv_20_1/mul_1"], "attr": {"T": {"type": "DT_FLOAT"}}}, {"name": "PartitionedCall/PartitionedCall/functional_15_1/tfc3_1_2/concat", "op": "ConcatV2", "input": ["PartitionedCall/PartitionedCall/functional_15_1/tfc3_1_2/sequential_4_1/tf_bottleneck_5_1/add", "PartitionedCall/PartitionedCall/functional_15_1/tfc3_1_2/tf_conv_11_1/mul_1", "PartitionedCall/PartitionedCall/functional_15_1/tfc3_1_2/concat/axis"], "attr": {"N": {"i": "2"}, "Tidx": {"type": "DT_INT32"}, "T": {"type": "DT_FLOAT"}}}, {"name": "PartitionedCall/PartitionedCall/functional_15_1/tfc3_1_2/tf_conv_12_1/conv2d_12_1/add", "op": "_FusedConv2D", "input": ["PartitionedCall/PartitionedCall/functional_15_1/tfc3_1_2/concat", "PartitionedCall/PartitionedCall/functional_15_1/tfc3_1_2/tf_conv_12_1/conv2d_12_1/convolution/ReadVariableOp", "PartitionedCall/PartitionedCall/functional_15_1/tfc3_1_2/tf_conv_12_1/conv2d_12_1/Reshape"], "device": "/device:CPU:0", "attr": {"num_host_args": {"i": "0"}, "_input_shapes": {"list": {"shape": [{"dim": [{"size": "-107"}, {"size": "-108"}, {"size": "-109"}, {"size": "-110"}]}, {"dim": [{"size": "1"}, {"size": "1"}, {"size": "192"}, {"size": "192"}]}]}}, "filter_format": {"s": "SFdJTw=="}, "data_format": {"s": "TkhXQw=="}, "fused_ops": {"list": {"s": ["Qmlhc0FkZA=="]}}, "num_args": {"i": "1"}, "strides": {"list": {"i": ["1", "1", "1", "1"]}}, "TArgs": {"list": {"type": ["DT_FLOAT"]}}, "padding": {"s": "U0FNRQ=="}, "use_cudnn_on_gpu": {"b": true}, "leakyrelu_alpha": {"f": 0.2}, "epsilon": {"f": 0.0}, "T": {"type": "DT_FLOAT"}, "explicit_paddings": {"list": {}}, "dilations": {"list": {"i": ["1", "1", "1", "1"]}}}}, {"name": "PartitionedCall/PartitionedCall/functional_15_1/tfc3_1_2/tf_conv_12_1/Sigmoid", "op": "Sigmoid", "input": ["PartitionedCall/PartitionedCall/functional_15_1/tfc3_1_2/tf_conv_12_1/conv2d_12_1/add"], "attr": {"_input_shapes": {"list": {"shape": [{"unknownRank": true}]}}, "T": {"type": "DT_FLOAT"}}}, {"name": "PartitionedCall/PartitionedCall/functional_15_1/tfc3_1_2/tf_conv_12_1/mul_1", "op": "Mul", "input": ["PartitionedCall/PartitionedCall/functional_15_1/tfc3_1_2/tf_conv_12_1/conv2d_12_1/add", "PartitionedCall/PartitionedCall/functional_15_1/tfc3_1_2/tf_conv_12_1/Sigmoid"], "attr": {"T": {"type": "DT_FLOAT"}}}, {"name": "PartitionedCall/PartitionedCall/functional_15_1/tf_conv_21_1/sequential_5_1/tf_pad_3_1/Pad", "op": "Pad", "input": ["PartitionedCall/PartitionedCall/functional_15_1/tfc3_1_2/tf_conv_12_1/mul_1", "PartitionedCall/PartitionedCall/functional_15_1/tf_conv_21_1/sequential_5_1/tf_pad_3_1/Pad/paddings"], "attr": {"Tpaddings": {"type": "DT_INT32"}, "T": {"type": "DT_FLOAT"}}}, {"name": "PartitionedCall/PartitionedCall/functional_15_1/tf_conv_21_1/sequential_5_1/conv2d_21_1/add", "op": "_FusedConv2D", "input": ["PartitionedCall/PartitionedCall/functional_15_1/tf_conv_21_1/sequential_5_1/tf_pad_3_1/Pad", "PartitionedCall/PartitionedCall/functional_15_1/tf_conv_21_1/sequential_5_1/conv2d_21_1/convolution/ReadVariableOp", "PartitionedCall/PartitionedCall/functional_15_1/tf_conv_21_1/sequential_5_1/conv2d_21_1/Reshape"], "device": "/device:CPU:0", "attr": {"num_host_args": {"i": "0"}, "_input_shapes": {"list": {"shape": [{"dim": [{"size": "-111"}, {"size": "-115"}, {"size": "-116"}, {"size": "-114"}]}, {"dim": [{"size": "3"}, {"size": "3"}, {"size": "192"}, {"size": "384"}]}]}}, "filter_format": {"s": "SFdJTw=="}, "data_format": {"s": "TkhXQw=="}, "strides": {"list": {"i": ["1", "2", "2", "1"]}}, "num_args": {"i": "1"}, "fused_ops": {"list": {"s": ["Qmlhc0FkZA=="]}}, "TArgs": {"list": {"type": ["DT_FLOAT"]}}, "padding": {"s": "VkFMSUQ="}, "use_cudnn_on_gpu": {"b": true}, "leakyrelu_alpha": {"f": 0.2}, "epsilon": {"f": 0.0}, "T": {"type": "DT_FLOAT"}, "explicit_paddings": {"list": {}}, "dilations": {"list": {"i": ["1", "1", "1", "1"]}}}}, {"name": "PartitionedCall/PartitionedCall/functional_15_1/tf_conv_21_1/Sigmoid", "op": "Sigmoid", "input": ["PartitionedCall/PartitionedCall/functional_15_1/tf_conv_21_1/sequential_5_1/conv2d_21_1/add"], "attr": {"_input_shapes": {"list": {"shape": [{"unknownRank": true}]}}, "T": {"type": "DT_FLOAT"}}}, {"name": "PartitionedCall/PartitionedCall/functional_15_1/tf_conv_21_1/mul_1", "op": "Mul", "input": ["PartitionedCall/PartitionedCall/functional_15_1/tf_conv_21_1/sequential_5_1/conv2d_21_1/add", "PartitionedCall/PartitionedCall/functional_15_1/tf_conv_21_1/Sigmoid"], "attr": {"T": {"type": "DT_FLOAT"}}}, {"name": "PartitionedCall/PartitionedCall/functional_15_1/tfc3_2_1/tf_conv_22_1/conv2d_22_1/add", "op": "_FusedConv2D", "input": ["PartitionedCall/PartitionedCall/functional_15_1/tf_conv_21_1/mul_1", "PartitionedCall/PartitionedCall/functional_15_1/tfc3_2_1/tf_conv_22_1/conv2d_22_1/convolution/ReadVariableOp", "PartitionedCall/PartitionedCall/functional_15_1/tfc3_2_1/tf_conv_22_1/conv2d_22_1/Reshape"], "device": "/device:CPU:0", "attr": {"num_host_args": {"i": "0"}, "data_format": {"s": "TkhXQw=="}, "filter_format": {"s": "SFdJTw=="}, "_input_shapes": {"list": {"shape": [{"dim": [{"size": "-119"}, {"size": "-120"}, {"size": "-121"}, {"size": "-122"}]}, {"dim": [{"size": "1"}, {"size": "1"}, {"size": "384"}, {"size": "192"}]}]}}, "strides": {"list": {"i": ["1", "1", "1", "1"]}}, "num_args": {"i": "1"}, "fused_ops": {"list": {"s": ["Qmlhc0FkZA=="]}}, "TArgs": {"list": {"type": ["DT_FLOAT"]}}, "padding": {"s": "U0FNRQ=="}, "use_cudnn_on_gpu": {"b": true}, "leakyrelu_alpha": {"f": 0.2}, "epsilon": {"f": 0.0}, "T": {"type": "DT_FLOAT"}, "explicit_paddings": {"list": {}}, "dilations": {"list": {"i": ["1", "1", "1", "1"]}}}}, {"name": "PartitionedCall/PartitionedCall/functional_15_1/tfc3_2_1/tf_conv_23_1/conv2d_23_1/add", "op": "_FusedConv2D", "input": ["PartitionedCall/PartitionedCall/functional_15_1/tf_conv_21_1/mul_1", "PartitionedCall/PartitionedCall/functional_15_1/tfc3_2_1/tf_conv_23_1/conv2d_23_1/convolution/ReadVariableOp", "PartitionedCall/PartitionedCall/functional_15_1/tfc3_2_1/tf_conv_23_1/conv2d_23_1/Reshape"], "device": "/device:CPU:0", "attr": {"num_host_args": {"i": "0"}, "_input_shapes": {"list": {"shape": [{"dim": [{"size": "-119"}, {"size": "-120"}, {"size": "-121"}, {"size": "-122"}]}, {"dim": [{"size": "1"}, {"size": "1"}, {"size": "384"}, {"size": "192"}]}]}}, "filter_format": {"s": "SFdJTw=="}, "data_format": {"s": "TkhXQw=="}, "fused_ops": {"list": {"s": ["Qmlhc0FkZA=="]}}, "num_args": {"i": "1"}, "strides": {"list": {"i": ["1", "1", "1", "1"]}}, "TArgs": {"list": {"type": ["DT_FLOAT"]}}, "padding": {"s": "U0FNRQ=="}, "use_cudnn_on_gpu": {"b": true}, "leakyrelu_alpha": {"f": 0.2}, "epsilon": {"f": 0.0}, "T": {"type": "DT_FLOAT"}, "explicit_paddings": {"list": {}}, "dilations": {"list": {"i": ["1", "1", "1", "1"]}}}}, {"name": "PartitionedCall/PartitionedCall/functional_15_1/tfc3_2_1/tf_conv_22_1/Sigmoid", "op": "Sigmoid", "input": ["PartitionedCall/PartitionedCall/functional_15_1/tfc3_2_1/tf_conv_22_1/conv2d_22_1/add"], "attr": {"_input_shapes": {"list": {"shape": [{"unknownRank": true}]}}, "T": {"type": "DT_FLOAT"}}}, {"name": "PartitionedCall/PartitionedCall/functional_15_1/tfc3_2_1/tf_conv_23_1/Sigmoid", "op": "Sigmoid", "input": ["PartitionedCall/PartitionedCall/functional_15_1/tfc3_2_1/tf_conv_23_1/conv2d_23_1/add"], "attr": {"_input_shapes": {"list": {"shape": [{"unknownRank": true}]}}, "T": {"type": "DT_FLOAT"}}}, {"name": "PartitionedCall/PartitionedCall/functional_15_1/tfc3_2_1/tf_conv_22_1/mul_1", "op": "Mul", "input": ["PartitionedCall/PartitionedCall/functional_15_1/tfc3_2_1/tf_conv_22_1/conv2d_22_1/add", "PartitionedCall/PartitionedCall/functional_15_1/tfc3_2_1/tf_conv_22_1/Sigmoid"], "attr": {"T": {"type": "DT_FLOAT"}}}, {"name": "PartitionedCall/PartitionedCall/functional_15_1/tfc3_2_1/tf_conv_23_1/mul_1", "op": "Mul", "input": ["PartitionedCall/PartitionedCall/functional_15_1/tfc3_2_1/tf_conv_23_1/conv2d_23_1/add", "PartitionedCall/PartitionedCall/functional_15_1/tfc3_2_1/tf_conv_23_1/Sigmoid"], "attr": {"T": {"type": "DT_FLOAT"}}}, {"name": "PartitionedCall/PartitionedCall/functional_15_1/tfc3_2_1/sequential_6_1/tf_bottleneck_6_1/tf_conv_25_1/conv2d_25_1/add", "op": "_FusedConv2D", "input": ["PartitionedCall/PartitionedCall/functional_15_1/tfc3_2_1/tf_conv_22_1/mul_1", "PartitionedCall/PartitionedCall/functional_15_1/tfc3_2_1/sequential_6_1/tf_bottleneck_6_1/tf_conv_25_1/conv2d_25_1/convolution/ReadVariableOp", "PartitionedCall/PartitionedCall/functional_15_1/tfc3_2_1/sequential_6_1/tf_bottleneck_6_1/tf_conv_25_1/conv2d_25_1/Reshape"], "device": "/device:CPU:0", "attr": {"num_host_args": {"i": "0"}, "_input_shapes": {"list": {"shape": [{"dim": [{"size": "-123"}, {"size": "-124"}, {"size": "-125"}, {"size": "-126"}]}, {"dim": [{"size": "1"}, {"size": "1"}, {"size": "192"}, {"size": "192"}]}]}}, "filter_format": {"s": "SFdJTw=="}, "data_format": {"s": "TkhXQw=="}, "strides": {"list": {"i": ["1", "1", "1", "1"]}}, "num_args": {"i": "1"}, "fused_ops": {"list": {"s": ["Qmlhc0FkZA=="]}}, "TArgs": {"list": {"type": ["DT_FLOAT"]}}, "padding": {"s": "U0FNRQ=="}, "use_cudnn_on_gpu": {"b": true}, "leakyrelu_alpha": {"f": 0.2}, "epsilon": {"f": 0.0}, "T": {"type": "DT_FLOAT"}, "explicit_paddings": {"list": {}}, "dilations": {"list": {"i": ["1", "1", "1", "1"]}}}}, {"name": "PartitionedCall/PartitionedCall/functional_15_1/tfc3_2_1/sequential_6_1/tf_bottleneck_6_1/tf_conv_25_1/Sigmoid", "op": "Sigmoid", "input": ["PartitionedCall/PartitionedCall/functional_15_1/tfc3_2_1/sequential_6_1/tf_bottleneck_6_1/tf_conv_25_1/conv2d_25_1/add"], "attr": {"_input_shapes": {"list": {"shape": [{"unknownRank": true}]}}, "T": {"type": "DT_FLOAT"}}}, {"name": "PartitionedCall/PartitionedCall/functional_15_1/tfc3_2_1/sequential_6_1/tf_bottleneck_6_1/tf_conv_25_1/mul_1", "op": "Mul", "input": ["PartitionedCall/PartitionedCall/functional_15_1/tfc3_2_1/sequential_6_1/tf_bottleneck_6_1/tf_conv_25_1/conv2d_25_1/add", "PartitionedCall/PartitionedCall/functional_15_1/tfc3_2_1/sequential_6_1/tf_bottleneck_6_1/tf_conv_25_1/Sigmoid"], "attr": {"T": {"type": "DT_FLOAT"}}}, {"name": "PartitionedCall/PartitionedCall/functional_15_1/tfc3_2_1/sequential_6_1/tf_bottleneck_6_1/tf_conv_26_1/conv2d_26_1/add", "op": "_FusedConv2D", "input": ["PartitionedCall/PartitionedCall/functional_15_1/tfc3_2_1/sequential_6_1/tf_bottleneck_6_1/tf_conv_25_1/mul_1", "PartitionedCall/PartitionedCall/functional_15_1/tfc3_2_1/sequential_6_1/tf_bottleneck_6_1/tf_conv_26_1/conv2d_26_1/convolution/ReadVariableOp", "PartitionedCall/PartitionedCall/functional_15_1/tfc3_2_1/sequential_6_1/tf_bottleneck_6_1/tf_conv_26_1/conv2d_26_1/Reshape"], "device": "/device:CPU:0", "attr": {"num_host_args": {"i": "0"}, "_input_shapes": {"list": {"shape": [{"dim": [{"size": "-127"}, {"size": "-128"}, {"size": "-129"}, {"size": "-130"}]}, {"dim": [{"size": "3"}, {"size": "3"}, {"size": "192"}, {"size": "192"}]}]}}, "filter_format": {"s": "SFdJTw=="}, "data_format": {"s": "TkhXQw=="}, "strides": {"list": {"i": ["1", "1", "1", "1"]}}, "num_args": {"i": "1"}, "fused_ops": {"list": {"s": ["Qmlhc0FkZA=="]}}, "TArgs": {"list": {"type": ["DT_FLOAT"]}}, "padding": {"s": "U0FNRQ=="}, "use_cudnn_on_gpu": {"b": true}, "leakyrelu_alpha": {"f": 0.2}, "epsilon": {"f": 0.0}, "T": {"type": "DT_FLOAT"}, "explicit_paddings": {"list": {}}, "dilations": {"list": {"i": ["1", "1", "1", "1"]}}}}, {"name": "PartitionedCall/PartitionedCall/functional_15_1/tfc3_2_1/sequential_6_1/tf_bottleneck_6_1/tf_conv_26_1/Sigmoid", "op": "Sigmoid", "input": ["PartitionedCall/PartitionedCall/functional_15_1/tfc3_2_1/sequential_6_1/tf_bottleneck_6_1/tf_conv_26_1/conv2d_26_1/add"], "attr": {"_input_shapes": {"list": {"shape": [{"unknownRank": true}]}}, "T": {"type": "DT_FLOAT"}}}, {"name": "PartitionedCall/PartitionedCall/functional_15_1/tfc3_2_1/sequential_6_1/tf_bottleneck_6_1/tf_conv_26_1/mul_1", "op": "Mul", "input": ["PartitionedCall/PartitionedCall/functional_15_1/tfc3_2_1/sequential_6_1/tf_bottleneck_6_1/tf_conv_26_1/conv2d_26_1/add", "PartitionedCall/PartitionedCall/functional_15_1/tfc3_2_1/sequential_6_1/tf_bottleneck_6_1/tf_conv_26_1/Sigmoid"], "attr": {"T": {"type": "DT_FLOAT"}}}, {"name": "PartitionedCall/PartitionedCall/functional_15_1/tfc3_2_1/sequential_6_1/tf_bottleneck_6_1/add", "op": "AddV2", "input": ["PartitionedCall/PartitionedCall/functional_15_1/tfc3_2_1/tf_conv_22_1/mul_1", "PartitionedCall/PartitionedCall/functional_15_1/tfc3_2_1/sequential_6_1/tf_bottleneck_6_1/tf_conv_26_1/mul_1"], "attr": {"T": {"type": "DT_FLOAT"}}}, {"name": "PartitionedCall/PartitionedCall/functional_15_1/tfc3_2_1/sequential_6_1/tf_bottleneck_7_1/tf_conv_27_1/conv2d_27_1/add", "op": "_FusedConv2D", "input": ["PartitionedCall/PartitionedCall/functional_15_1/tfc3_2_1/sequential_6_1/tf_bottleneck_6_1/add", "PartitionedCall/PartitionedCall/functional_15_1/tfc3_2_1/sequential_6_1/tf_bottleneck_7_1/tf_conv_27_1/conv2d_27_1/convolution/ReadVariableOp", "PartitionedCall/PartitionedCall/functional_15_1/tfc3_2_1/sequential_6_1/tf_bottleneck_7_1/tf_conv_27_1/conv2d_27_1/Reshape"], "device": "/device:CPU:0", "attr": {"num_host_args": {"i": "0"}, "data_format": {"s": "TkhXQw=="}, "filter_format": {"s": "SFdJTw=="}, "_input_shapes": {"list": {"shape": [{"dim": [{"size": "-131"}, {"size": "-132"}, {"size": "-133"}, {"size": "-134"}]}, {"dim": [{"size": "1"}, {"size": "1"}, {"size": "192"}, {"size": "192"}]}]}}, "strides": {"list": {"i": ["1", "1", "1", "1"]}}, "num_args": {"i": "1"}, "fused_ops": {"list": {"s": ["Qmlhc0FkZA=="]}}, "TArgs": {"list": {"type": ["DT_FLOAT"]}}, "padding": {"s": "U0FNRQ=="}, "use_cudnn_on_gpu": {"b": true}, "leakyrelu_alpha": {"f": 0.2}, "epsilon": {"f": 0.0}, "T": {"type": "DT_FLOAT"}, "explicit_paddings": {"list": {}}, "dilations": {"list": {"i": ["1", "1", "1", "1"]}}}}, {"name": "PartitionedCall/PartitionedCall/functional_15_1/tfc3_2_1/sequential_6_1/tf_bottleneck_7_1/tf_conv_27_1/Sigmoid", "op": "Sigmoid", "input": ["PartitionedCall/PartitionedCall/functional_15_1/tfc3_2_1/sequential_6_1/tf_bottleneck_7_1/tf_conv_27_1/conv2d_27_1/add"], "attr": {"_input_shapes": {"list": {"shape": [{"unknownRank": true}]}}, "T": {"type": "DT_FLOAT"}}}, {"name": "PartitionedCall/PartitionedCall/functional_15_1/tfc3_2_1/sequential_6_1/tf_bottleneck_7_1/tf_conv_27_1/mul_1", "op": "Mul", "input": ["PartitionedCall/PartitionedCall/functional_15_1/tfc3_2_1/sequential_6_1/tf_bottleneck_7_1/tf_conv_27_1/conv2d_27_1/add", "PartitionedCall/PartitionedCall/functional_15_1/tfc3_2_1/sequential_6_1/tf_bottleneck_7_1/tf_conv_27_1/Sigmoid"], "attr": {"T": {"type": "DT_FLOAT"}}}, {"name": "PartitionedCall/PartitionedCall/functional_15_1/tfc3_2_1/sequential_6_1/tf_bottleneck_7_1/tf_conv_28_1/conv2d_28_1/add", "op": "_FusedConv2D", "input": ["PartitionedCall/PartitionedCall/functional_15_1/tfc3_2_1/sequential_6_1/tf_bottleneck_7_1/tf_conv_27_1/mul_1", "PartitionedCall/PartitionedCall/functional_15_1/tfc3_2_1/sequential_6_1/tf_bottleneck_7_1/tf_conv_28_1/conv2d_28_1/convolution/ReadVariableOp", "PartitionedCall/PartitionedCall/functional_15_1/tfc3_2_1/sequential_6_1/tf_bottleneck_7_1/tf_conv_28_1/conv2d_28_1/Reshape"], "device": "/device:CPU:0", "attr": {"num_host_args": {"i": "0"}, "data_format": {"s": "TkhXQw=="}, "filter_format": {"s": "SFdJTw=="}, "_input_shapes": {"list": {"shape": [{"dim": [{"size": "-135"}, {"size": "-136"}, {"size": "-137"}, {"size": "-138"}]}, {"dim": [{"size": "3"}, {"size": "3"}, {"size": "192"}, {"size": "192"}]}]}}, "strides": {"list": {"i": ["1", "1", "1", "1"]}}, "num_args": {"i": "1"}, "fused_ops": {"list": {"s": ["Qmlhc0FkZA=="]}}, "TArgs": {"list": {"type": ["DT_FLOAT"]}}, "padding": {"s": "U0FNRQ=="}, "use_cudnn_on_gpu": {"b": true}, "leakyrelu_alpha": {"f": 0.2}, "epsilon": {"f": 0.0}, "T": {"type": "DT_FLOAT"}, "explicit_paddings": {"list": {}}, "dilations": {"list": {"i": ["1", "1", "1", "1"]}}}}, {"name": "PartitionedCall/PartitionedCall/functional_15_1/tfc3_2_1/sequential_6_1/tf_bottleneck_7_1/tf_conv_28_1/Sigmoid", "op": "Sigmoid", "input": ["PartitionedCall/PartitionedCall/functional_15_1/tfc3_2_1/sequential_6_1/tf_bottleneck_7_1/tf_conv_28_1/conv2d_28_1/add"], "attr": {"_input_shapes": {"list": {"shape": [{"unknownRank": true}]}}, "T": {"type": "DT_FLOAT"}}}, {"name": "PartitionedCall/PartitionedCall/functional_15_1/tfc3_2_1/sequential_6_1/tf_bottleneck_7_1/tf_conv_28_1/mul_1", "op": "Mul", "input": ["PartitionedCall/PartitionedCall/functional_15_1/tfc3_2_1/sequential_6_1/tf_bottleneck_7_1/tf_conv_28_1/conv2d_28_1/add", "PartitionedCall/PartitionedCall/functional_15_1/tfc3_2_1/sequential_6_1/tf_bottleneck_7_1/tf_conv_28_1/Sigmoid"], "attr": {"T": {"type": "DT_FLOAT"}}}, {"name": "PartitionedCall/PartitionedCall/functional_15_1/tfc3_2_1/sequential_6_1/tf_bottleneck_7_1/add", "op": "AddV2", "input": ["PartitionedCall/PartitionedCall/functional_15_1/tfc3_2_1/sequential_6_1/tf_bottleneck_6_1/add", "PartitionedCall/PartitionedCall/functional_15_1/tfc3_2_1/sequential_6_1/tf_bottleneck_7_1/tf_conv_28_1/mul_1"], "attr": {"T": {"type": "DT_FLOAT"}}}, {"name": "PartitionedCall/PartitionedCall/functional_15_1/tfc3_2_1/sequential_6_1/tf_bottleneck_8_1/tf_conv_29_1/conv2d_29_1/add", "op": "_FusedConv2D", "input": ["PartitionedCall/PartitionedCall/functional_15_1/tfc3_2_1/sequential_6_1/tf_bottleneck_7_1/add", "PartitionedCall/PartitionedCall/functional_15_1/tfc3_2_1/sequential_6_1/tf_bottleneck_8_1/tf_conv_29_1/conv2d_29_1/convolution/ReadVariableOp", "PartitionedCall/PartitionedCall/functional_15_1/tfc3_2_1/sequential_6_1/tf_bottleneck_8_1/tf_conv_29_1/conv2d_29_1/Reshape"], "device": "/device:CPU:0", "attr": {"num_host_args": {"i": "0"}, "_input_shapes": {"list": {"shape": [{"dim": [{"size": "-139"}, {"size": "-140"}, {"size": "-141"}, {"size": "-142"}]}, {"dim": [{"size": "1"}, {"size": "1"}, {"size": "192"}, {"size": "192"}]}]}}, "filter_format": {"s": "SFdJTw=="}, "data_format": {"s": "TkhXQw=="}, "fused_ops": {"list": {"s": ["Qmlhc0FkZA=="]}}, "num_args": {"i": "1"}, "strides": {"list": {"i": ["1", "1", "1", "1"]}}, "TArgs": {"list": {"type": ["DT_FLOAT"]}}, "padding": {"s": "U0FNRQ=="}, "use_cudnn_on_gpu": {"b": true}, "leakyrelu_alpha": {"f": 0.2}, "epsilon": {"f": 0.0}, "T": {"type": "DT_FLOAT"}, "explicit_paddings": {"list": {}}, "dilations": {"list": {"i": ["1", "1", "1", "1"]}}}}, {"name": "PartitionedCall/PartitionedCall/functional_15_1/tfc3_2_1/sequential_6_1/tf_bottleneck_8_1/tf_conv_29_1/Sigmoid", "op": "Sigmoid", "input": ["PartitionedCall/PartitionedCall/functional_15_1/tfc3_2_1/sequential_6_1/tf_bottleneck_8_1/tf_conv_29_1/conv2d_29_1/add"], "attr": {"_input_shapes": {"list": {"shape": [{"unknownRank": true}]}}, "T": {"type": "DT_FLOAT"}}}, {"name": "PartitionedCall/PartitionedCall/functional_15_1/tfc3_2_1/sequential_6_1/tf_bottleneck_8_1/tf_conv_29_1/mul_1", "op": "Mul", "input": ["PartitionedCall/PartitionedCall/functional_15_1/tfc3_2_1/sequential_6_1/tf_bottleneck_8_1/tf_conv_29_1/conv2d_29_1/add", "PartitionedCall/PartitionedCall/functional_15_1/tfc3_2_1/sequential_6_1/tf_bottleneck_8_1/tf_conv_29_1/Sigmoid"], "attr": {"T": {"type": "DT_FLOAT"}}}, {"name": "PartitionedCall/PartitionedCall/functional_15_1/tfc3_2_1/sequential_6_1/tf_bottleneck_8_1/tf_conv_30_1/conv2d_30_1/add", "op": "_FusedConv2D", "input": ["PartitionedCall/PartitionedCall/functional_15_1/tfc3_2_1/sequential_6_1/tf_bottleneck_8_1/tf_conv_29_1/mul_1", "PartitionedCall/PartitionedCall/functional_15_1/tfc3_2_1/sequential_6_1/tf_bottleneck_8_1/tf_conv_30_1/conv2d_30_1/convolution/ReadVariableOp", "PartitionedCall/PartitionedCall/functional_15_1/tfc3_2_1/sequential_6_1/tf_bottleneck_8_1/tf_conv_30_1/conv2d_30_1/Reshape"], "device": "/device:CPU:0", "attr": {"num_host_args": {"i": "0"}, "_input_shapes": {"list": {"shape": [{"dim": [{"size": "-143"}, {"size": "-144"}, {"size": "-145"}, {"size": "-146"}]}, {"dim": [{"size": "3"}, {"size": "3"}, {"size": "192"}, {"size": "192"}]}]}}, "filter_format": {"s": "SFdJTw=="}, "data_format": {"s": "TkhXQw=="}, "fused_ops": {"list": {"s": ["Qmlhc0FkZA=="]}}, "num_args": {"i": "1"}, "strides": {"list": {"i": ["1", "1", "1", "1"]}}, "TArgs": {"list": {"type": ["DT_FLOAT"]}}, "padding": {"s": "U0FNRQ=="}, "use_cudnn_on_gpu": {"b": true}, "leakyrelu_alpha": {"f": 0.2}, "epsilon": {"f": 0.0}, "T": {"type": "DT_FLOAT"}, "explicit_paddings": {"list": {}}, "dilations": {"list": {"i": ["1", "1", "1", "1"]}}}}, {"name": "PartitionedCall/PartitionedCall/functional_15_1/tfc3_2_1/sequential_6_1/tf_bottleneck_8_1/tf_conv_30_1/Sigmoid", "op": "Sigmoid", "input": ["PartitionedCall/PartitionedCall/functional_15_1/tfc3_2_1/sequential_6_1/tf_bottleneck_8_1/tf_conv_30_1/conv2d_30_1/add"], "attr": {"_input_shapes": {"list": {"shape": [{"unknownRank": true}]}}, "T": {"type": "DT_FLOAT"}}}, {"name": "PartitionedCall/PartitionedCall/functional_15_1/tfc3_2_1/sequential_6_1/tf_bottleneck_8_1/tf_conv_30_1/mul_1", "op": "Mul", "input": ["PartitionedCall/PartitionedCall/functional_15_1/tfc3_2_1/sequential_6_1/tf_bottleneck_8_1/tf_conv_30_1/conv2d_30_1/add", "PartitionedCall/PartitionedCall/functional_15_1/tfc3_2_1/sequential_6_1/tf_bottleneck_8_1/tf_conv_30_1/Sigmoid"], "attr": {"T": {"type": "DT_FLOAT"}}}, {"name": "PartitionedCall/PartitionedCall/functional_15_1/tfc3_2_1/sequential_6_1/tf_bottleneck_8_1/add", "op": "AddV2", "input": ["PartitionedCall/PartitionedCall/functional_15_1/tfc3_2_1/sequential_6_1/tf_bottleneck_7_1/add", "PartitionedCall/PartitionedCall/functional_15_1/tfc3_2_1/sequential_6_1/tf_bottleneck_8_1/tf_conv_30_1/mul_1"], "attr": {"T": {"type": "DT_FLOAT"}}}, {"name": "PartitionedCall/PartitionedCall/functional_15_1/tfc3_2_1/sequential_6_1/tf_bottleneck_9_1/tf_conv_31_1/conv2d_31_1/add", "op": "_FusedConv2D", "input": ["PartitionedCall/PartitionedCall/functional_15_1/tfc3_2_1/sequential_6_1/tf_bottleneck_8_1/add", "PartitionedCall/PartitionedCall/functional_15_1/tfc3_2_1/sequential_6_1/tf_bottleneck_9_1/tf_conv_31_1/conv2d_31_1/convolution/ReadVariableOp", "PartitionedCall/PartitionedCall/functional_15_1/tfc3_2_1/sequential_6_1/tf_bottleneck_9_1/tf_conv_31_1/conv2d_31_1/Reshape"], "device": "/device:CPU:0", "attr": {"num_host_args": {"i": "0"}, "_input_shapes": {"list": {"shape": [{"dim": [{"size": "-147"}, {"size": "-148"}, {"size": "-149"}, {"size": "-150"}]}, {"dim": [{"size": "1"}, {"size": "1"}, {"size": "192"}, {"size": "192"}]}]}}, "filter_format": {"s": "SFdJTw=="}, "data_format": {"s": "TkhXQw=="}, "strides": {"list": {"i": ["1", "1", "1", "1"]}}, "num_args": {"i": "1"}, "fused_ops": {"list": {"s": ["Qmlhc0FkZA=="]}}, "TArgs": {"list": {"type": ["DT_FLOAT"]}}, "padding": {"s": "U0FNRQ=="}, "use_cudnn_on_gpu": {"b": true}, "leakyrelu_alpha": {"f": 0.2}, "epsilon": {"f": 0.0}, "T": {"type": "DT_FLOAT"}, "explicit_paddings": {"list": {}}, "dilations": {"list": {"i": ["1", "1", "1", "1"]}}}}, {"name": "PartitionedCall/PartitionedCall/functional_15_1/tfc3_2_1/sequential_6_1/tf_bottleneck_9_1/tf_conv_31_1/Sigmoid", "op": "Sigmoid", "input": ["PartitionedCall/PartitionedCall/functional_15_1/tfc3_2_1/sequential_6_1/tf_bottleneck_9_1/tf_conv_31_1/conv2d_31_1/add"], "attr": {"_input_shapes": {"list": {"shape": [{"unknownRank": true}]}}, "T": {"type": "DT_FLOAT"}}}, {"name": "PartitionedCall/PartitionedCall/functional_15_1/tfc3_2_1/sequential_6_1/tf_bottleneck_9_1/tf_conv_31_1/mul_1", "op": "Mul", "input": ["PartitionedCall/PartitionedCall/functional_15_1/tfc3_2_1/sequential_6_1/tf_bottleneck_9_1/tf_conv_31_1/conv2d_31_1/add", "PartitionedCall/PartitionedCall/functional_15_1/tfc3_2_1/sequential_6_1/tf_bottleneck_9_1/tf_conv_31_1/Sigmoid"], "attr": {"T": {"type": "DT_FLOAT"}}}, {"name": "PartitionedCall/PartitionedCall/functional_15_1/tfc3_2_1/sequential_6_1/tf_bottleneck_9_1/tf_conv_32_1/conv2d_32_1/add", "op": "_FusedConv2D", "input": ["PartitionedCall/PartitionedCall/functional_15_1/tfc3_2_1/sequential_6_1/tf_bottleneck_9_1/tf_conv_31_1/mul_1", "PartitionedCall/PartitionedCall/functional_15_1/tfc3_2_1/sequential_6_1/tf_bottleneck_9_1/tf_conv_32_1/conv2d_32_1/convolution/ReadVariableOp", "PartitionedCall/PartitionedCall/functional_15_1/tfc3_2_1/sequential_6_1/tf_bottleneck_9_1/tf_conv_32_1/conv2d_32_1/Reshape"], "device": "/device:CPU:0", "attr": {"num_host_args": {"i": "0"}, "data_format": {"s": "TkhXQw=="}, "filter_format": {"s": "SFdJTw=="}, "_input_shapes": {"list": {"shape": [{"dim": [{"size": "-151"}, {"size": "-152"}, {"size": "-153"}, {"size": "-154"}]}, {"dim": [{"size": "3"}, {"size": "3"}, {"size": "192"}, {"size": "192"}]}]}}, "fused_ops": {"list": {"s": ["Qmlhc0FkZA=="]}}, "num_args": {"i": "1"}, "strides": {"list": {"i": ["1", "1", "1", "1"]}}, "TArgs": {"list": {"type": ["DT_FLOAT"]}}, "padding": {"s": "U0FNRQ=="}, "use_cudnn_on_gpu": {"b": true}, "leakyrelu_alpha": {"f": 0.2}, "epsilon": {"f": 0.0}, "T": {"type": "DT_FLOAT"}, "explicit_paddings": {"list": {}}, "dilations": {"list": {"i": ["1", "1", "1", "1"]}}}}, {"name": "PartitionedCall/PartitionedCall/functional_15_1/tfc3_2_1/sequential_6_1/tf_bottleneck_9_1/tf_conv_32_1/Sigmoid", "op": "Sigmoid", "input": ["PartitionedCall/PartitionedCall/functional_15_1/tfc3_2_1/sequential_6_1/tf_bottleneck_9_1/tf_conv_32_1/conv2d_32_1/add"], "attr": {"_input_shapes": {"list": {"shape": [{"unknownRank": true}]}}, "T": {"type": "DT_FLOAT"}}}, {"name": "PartitionedCall/PartitionedCall/functional_15_1/tfc3_2_1/sequential_6_1/tf_bottleneck_9_1/tf_conv_32_1/mul_1", "op": "Mul", "input": ["PartitionedCall/PartitionedCall/functional_15_1/tfc3_2_1/sequential_6_1/tf_bottleneck_9_1/tf_conv_32_1/conv2d_32_1/add", "PartitionedCall/PartitionedCall/functional_15_1/tfc3_2_1/sequential_6_1/tf_bottleneck_9_1/tf_conv_32_1/Sigmoid"], "attr": {"T": {"type": "DT_FLOAT"}}}, {"name": "PartitionedCall/PartitionedCall/functional_15_1/tfc3_2_1/sequential_6_1/tf_bottleneck_9_1/add", "op": "AddV2", "input": ["PartitionedCall/PartitionedCall/functional_15_1/tfc3_2_1/sequential_6_1/tf_bottleneck_8_1/add", "PartitionedCall/PartitionedCall/functional_15_1/tfc3_2_1/sequential_6_1/tf_bottleneck_9_1/tf_conv_32_1/mul_1"], "attr": {"T": {"type": "DT_FLOAT"}}}, {"name": "PartitionedCall/PartitionedCall/functional_15_1/tfc3_2_1/sequential_6_1/tf_bottleneck_10_1/tf_conv_33_1/conv2d_33_1/add", "op": "_FusedConv2D", "input": ["PartitionedCall/PartitionedCall/functional_15_1/tfc3_2_1/sequential_6_1/tf_bottleneck_9_1/add", "PartitionedCall/PartitionedCall/functional_15_1/tfc3_2_1/sequential_6_1/tf_bottleneck_10_1/tf_conv_33_1/conv2d_33_1/convolution/ReadVariableOp", "PartitionedCall/PartitionedCall/functional_15_1/tfc3_2_1/sequential_6_1/tf_bottleneck_10_1/tf_conv_33_1/conv2d_33_1/Reshape"], "device": "/device:CPU:0", "attr": {"num_host_args": {"i": "0"}, "data_format": {"s": "TkhXQw=="}, "filter_format": {"s": "SFdJTw=="}, "_input_shapes": {"list": {"shape": [{"dim": [{"size": "-155"}, {"size": "-156"}, {"size": "-157"}, {"size": "-158"}]}, {"dim": [{"size": "1"}, {"size": "1"}, {"size": "192"}, {"size": "192"}]}]}}, "fused_ops": {"list": {"s": ["Qmlhc0FkZA=="]}}, "num_args": {"i": "1"}, "strides": {"list": {"i": ["1", "1", "1", "1"]}}, "TArgs": {"list": {"type": ["DT_FLOAT"]}}, "padding": {"s": "U0FNRQ=="}, "use_cudnn_on_gpu": {"b": true}, "leakyrelu_alpha": {"f": 0.2}, "epsilon": {"f": 0.0}, "T": {"type": "DT_FLOAT"}, "explicit_paddings": {"list": {}}, "dilations": {"list": {"i": ["1", "1", "1", "1"]}}}}, {"name": "PartitionedCall/PartitionedCall/functional_15_1/tfc3_2_1/sequential_6_1/tf_bottleneck_10_1/tf_conv_33_1/Sigmoid", "op": "Sigmoid", "input": ["PartitionedCall/PartitionedCall/functional_15_1/tfc3_2_1/sequential_6_1/tf_bottleneck_10_1/tf_conv_33_1/conv2d_33_1/add"], "attr": {"_input_shapes": {"list": {"shape": [{"unknownRank": true}]}}, "T": {"type": "DT_FLOAT"}}}, {"name": "PartitionedCall/PartitionedCall/functional_15_1/tfc3_2_1/sequential_6_1/tf_bottleneck_10_1/tf_conv_33_1/mul_1", "op": "Mul", "input": ["PartitionedCall/PartitionedCall/functional_15_1/tfc3_2_1/sequential_6_1/tf_bottleneck_10_1/tf_conv_33_1/conv2d_33_1/add", "PartitionedCall/PartitionedCall/functional_15_1/tfc3_2_1/sequential_6_1/tf_bottleneck_10_1/tf_conv_33_1/Sigmoid"], "attr": {"T": {"type": "DT_FLOAT"}}}, {"name": "PartitionedCall/PartitionedCall/functional_15_1/tfc3_2_1/sequential_6_1/tf_bottleneck_10_1/tf_conv_34_1/conv2d_34_1/add", "op": "_FusedConv2D", "input": ["PartitionedCall/PartitionedCall/functional_15_1/tfc3_2_1/sequential_6_1/tf_bottleneck_10_1/tf_conv_33_1/mul_1", "PartitionedCall/PartitionedCall/functional_15_1/tfc3_2_1/sequential_6_1/tf_bottleneck_10_1/tf_conv_34_1/conv2d_34_1/convolution/ReadVariableOp", "PartitionedCall/PartitionedCall/functional_15_1/tfc3_2_1/sequential_6_1/tf_bottleneck_10_1/tf_conv_34_1/conv2d_34_1/Reshape"], "device": "/device:CPU:0", "attr": {"num_host_args": {"i": "0"}, "_input_shapes": {"list": {"shape": [{"dim": [{"size": "-159"}, {"size": "-160"}, {"size": "-161"}, {"size": "-162"}]}, {"dim": [{"size": "3"}, {"size": "3"}, {"size": "192"}, {"size": "192"}]}]}}, "filter_format": {"s": "SFdJTw=="}, "data_format": {"s": "TkhXQw=="}, "fused_ops": {"list": {"s": ["Qmlhc0FkZA=="]}}, "num_args": {"i": "1"}, "strides": {"list": {"i": ["1", "1", "1", "1"]}}, "TArgs": {"list": {"type": ["DT_FLOAT"]}}, "padding": {"s": "U0FNRQ=="}, "use_cudnn_on_gpu": {"b": true}, "leakyrelu_alpha": {"f": 0.2}, "epsilon": {"f": 0.0}, "T": {"type": "DT_FLOAT"}, "explicit_paddings": {"list": {}}, "dilations": {"list": {"i": ["1", "1", "1", "1"]}}}}, {"name": "PartitionedCall/PartitionedCall/functional_15_1/tfc3_2_1/sequential_6_1/tf_bottleneck_10_1/tf_conv_34_1/Sigmoid", "op": "Sigmoid", "input": ["PartitionedCall/PartitionedCall/functional_15_1/tfc3_2_1/sequential_6_1/tf_bottleneck_10_1/tf_conv_34_1/conv2d_34_1/add"], "attr": {"_input_shapes": {"list": {"shape": [{"unknownRank": true}]}}, "T": {"type": "DT_FLOAT"}}}, {"name": "PartitionedCall/PartitionedCall/functional_15_1/tfc3_2_1/sequential_6_1/tf_bottleneck_10_1/tf_conv_34_1/mul_1", "op": "Mul", "input": ["PartitionedCall/PartitionedCall/functional_15_1/tfc3_2_1/sequential_6_1/tf_bottleneck_10_1/tf_conv_34_1/conv2d_34_1/add", "PartitionedCall/PartitionedCall/functional_15_1/tfc3_2_1/sequential_6_1/tf_bottleneck_10_1/tf_conv_34_1/Sigmoid"], "attr": {"T": {"type": "DT_FLOAT"}}}, {"name": "PartitionedCall/PartitionedCall/functional_15_1/tfc3_2_1/sequential_6_1/tf_bottleneck_10_1/add", "op": "AddV2", "input": ["PartitionedCall/PartitionedCall/functional_15_1/tfc3_2_1/sequential_6_1/tf_bottleneck_9_1/add", "PartitionedCall/PartitionedCall/functional_15_1/tfc3_2_1/sequential_6_1/tf_bottleneck_10_1/tf_conv_34_1/mul_1"], "attr": {"T": {"type": "DT_FLOAT"}}}, {"name": "PartitionedCall/PartitionedCall/functional_15_1/tfc3_2_1/sequential_6_1/tf_bottleneck_11_1/tf_conv_35_1/conv2d_35_1/add", "op": "_FusedConv2D", "input": ["PartitionedCall/PartitionedCall/functional_15_1/tfc3_2_1/sequential_6_1/tf_bottleneck_10_1/add", "PartitionedCall/PartitionedCall/functional_15_1/tfc3_2_1/sequential_6_1/tf_bottleneck_11_1/tf_conv_35_1/conv2d_35_1/convolution/ReadVariableOp", "PartitionedCall/PartitionedCall/functional_15_1/tfc3_2_1/sequential_6_1/tf_bottleneck_11_1/tf_conv_35_1/conv2d_35_1/Reshape"], "device": "/device:CPU:0", "attr": {"num_host_args": {"i": "0"}, "_input_shapes": {"list": {"shape": [{"dim": [{"size": "-163"}, {"size": "-164"}, {"size": "-165"}, {"size": "-166"}]}, {"dim": [{"size": "1"}, {"size": "1"}, {"size": "192"}, {"size": "192"}]}]}}, "filter_format": {"s": "SFdJTw=="}, "data_format": {"s": "TkhXQw=="}, "fused_ops": {"list": {"s": ["Qmlhc0FkZA=="]}}, "num_args": {"i": "1"}, "strides": {"list": {"i": ["1", "1", "1", "1"]}}, "TArgs": {"list": {"type": ["DT_FLOAT"]}}, "padding": {"s": "U0FNRQ=="}, "use_cudnn_on_gpu": {"b": true}, "leakyrelu_alpha": {"f": 0.2}, "epsilon": {"f": 0.0}, "T": {"type": "DT_FLOAT"}, "explicit_paddings": {"list": {}}, "dilations": {"list": {"i": ["1", "1", "1", "1"]}}}}, {"name": "PartitionedCall/PartitionedCall/functional_15_1/tfc3_2_1/sequential_6_1/tf_bottleneck_11_1/tf_conv_35_1/Sigmoid", "op": "Sigmoid", "input": ["PartitionedCall/PartitionedCall/functional_15_1/tfc3_2_1/sequential_6_1/tf_bottleneck_11_1/tf_conv_35_1/conv2d_35_1/add"], "attr": {"_input_shapes": {"list": {"shape": [{"unknownRank": true}]}}, "T": {"type": "DT_FLOAT"}}}, {"name": "PartitionedCall/PartitionedCall/functional_15_1/tfc3_2_1/sequential_6_1/tf_bottleneck_11_1/tf_conv_35_1/mul_1", "op": "Mul", "input": ["PartitionedCall/PartitionedCall/functional_15_1/tfc3_2_1/sequential_6_1/tf_bottleneck_11_1/tf_conv_35_1/conv2d_35_1/add", "PartitionedCall/PartitionedCall/functional_15_1/tfc3_2_1/sequential_6_1/tf_bottleneck_11_1/tf_conv_35_1/Sigmoid"], "attr": {"T": {"type": "DT_FLOAT"}}}, {"name": "PartitionedCall/PartitionedCall/functional_15_1/tfc3_2_1/sequential_6_1/tf_bottleneck_11_1/tf_conv_36_1/conv2d_36_1/add", "op": "_FusedConv2D", "input": ["PartitionedCall/PartitionedCall/functional_15_1/tfc3_2_1/sequential_6_1/tf_bottleneck_11_1/tf_conv_35_1/mul_1", "PartitionedCall/PartitionedCall/functional_15_1/tfc3_2_1/sequential_6_1/tf_bottleneck_11_1/tf_conv_36_1/conv2d_36_1/convolution/ReadVariableOp", "PartitionedCall/PartitionedCall/functional_15_1/tfc3_2_1/sequential_6_1/tf_bottleneck_11_1/tf_conv_36_1/conv2d_36_1/Reshape"], "device": "/device:CPU:0", "attr": {"num_host_args": {"i": "0"}, "_input_shapes": {"list": {"shape": [{"dim": [{"size": "-167"}, {"size": "-168"}, {"size": "-169"}, {"size": "-170"}]}, {"dim": [{"size": "3"}, {"size": "3"}, {"size": "192"}, {"size": "192"}]}]}}, "filter_format": {"s": "SFdJTw=="}, "data_format": {"s": "TkhXQw=="}, "strides": {"list": {"i": ["1", "1", "1", "1"]}}, "num_args": {"i": "1"}, "fused_ops": {"list": {"s": ["Qmlhc0FkZA=="]}}, "TArgs": {"list": {"type": ["DT_FLOAT"]}}, "padding": {"s": "U0FNRQ=="}, "use_cudnn_on_gpu": {"b": true}, "leakyrelu_alpha": {"f": 0.2}, "epsilon": {"f": 0.0}, "T": {"type": "DT_FLOAT"}, "explicit_paddings": {"list": {}}, "dilations": {"list": {"i": ["1", "1", "1", "1"]}}}}, {"name": "PartitionedCall/PartitionedCall/functional_15_1/tfc3_2_1/sequential_6_1/tf_bottleneck_11_1/tf_conv_36_1/Sigmoid", "op": "Sigmoid", "input": ["PartitionedCall/PartitionedCall/functional_15_1/tfc3_2_1/sequential_6_1/tf_bottleneck_11_1/tf_conv_36_1/conv2d_36_1/add"], "attr": {"_input_shapes": {"list": {"shape": [{"unknownRank": true}]}}, "T": {"type": "DT_FLOAT"}}}, {"name": "PartitionedCall/PartitionedCall/functional_15_1/tfc3_2_1/sequential_6_1/tf_bottleneck_11_1/tf_conv_36_1/mul_1", "op": "Mul", "input": ["PartitionedCall/PartitionedCall/functional_15_1/tfc3_2_1/sequential_6_1/tf_bottleneck_11_1/tf_conv_36_1/conv2d_36_1/add", "PartitionedCall/PartitionedCall/functional_15_1/tfc3_2_1/sequential_6_1/tf_bottleneck_11_1/tf_conv_36_1/Sigmoid"], "attr": {"T": {"type": "DT_FLOAT"}}}, {"name": "PartitionedCall/PartitionedCall/functional_15_1/tfc3_2_1/sequential_6_1/tf_bottleneck_11_1/add", "op": "AddV2", "input": ["PartitionedCall/PartitionedCall/functional_15_1/tfc3_2_1/sequential_6_1/tf_bottleneck_10_1/add", "PartitionedCall/PartitionedCall/functional_15_1/tfc3_2_1/sequential_6_1/tf_bottleneck_11_1/tf_conv_36_1/mul_1"], "attr": {"T": {"type": "DT_FLOAT"}}}, {"name": "PartitionedCall/PartitionedCall/functional_15_1/tfc3_2_1/concat", "op": "ConcatV2", "input": ["PartitionedCall/PartitionedCall/functional_15_1/tfc3_2_1/sequential_6_1/tf_bottleneck_11_1/add", "PartitionedCall/PartitionedCall/functional_15_1/tfc3_2_1/tf_conv_23_1/mul_1", "PartitionedCall/PartitionedCall/functional_15_1/tfc3_2_1/concat/axis"], "attr": {"N": {"i": "2"}, "Tidx": {"type": "DT_INT32"}, "T": {"type": "DT_FLOAT"}}}, {"name": "PartitionedCall/PartitionedCall/functional_15_1/tfc3_2_1/tf_conv_24_1/conv2d_24_1/add", "op": "_FusedConv2D", "input": ["PartitionedCall/PartitionedCall/functional_15_1/tfc3_2_1/concat", "PartitionedCall/PartitionedCall/functional_15_1/tfc3_2_1/tf_conv_24_1/conv2d_24_1/convolution/ReadVariableOp", "PartitionedCall/PartitionedCall/functional_15_1/tfc3_2_1/tf_conv_24_1/conv2d_24_1/Reshape"], "device": "/device:CPU:0", "attr": {"num_host_args": {"i": "0"}, "_input_shapes": {"list": {"shape": [{"dim": [{"size": "-174"}, {"size": "-175"}, {"size": "-176"}, {"size": "-177"}]}, {"dim": [{"size": "1"}, {"size": "1"}, {"size": "384"}, {"size": "384"}]}]}}, "filter_format": {"s": "SFdJTw=="}, "data_format": {"s": "TkhXQw=="}, "strides": {"list": {"i": ["1", "1", "1", "1"]}}, "num_args": {"i": "1"}, "fused_ops": {"list": {"s": ["Qmlhc0FkZA=="]}}, "TArgs": {"list": {"ty…
 {"list": {"shape": [{"unknownRank": true}]}}, "T": {"type": "DT_FLOAT"}}}, {"name": "PartitionedCall/PartitionedCall/functional_15_1/tfc3_7_1/sequential_14_1/tf_bottleneck_21_1/tf_conv_78_1/mul_1", "op": "Mul", "input": ["PartitionedCall/PartitionedCall/functional_15_1/tfc3_7_1/sequential_14_1/tf_bottleneck_21_1/tf_conv_78_1/conv2d_78_1/add", "PartitionedCall/PartitionedCall/functional_15_1/tfc3_7_1/sequential_14_1/tf_bottleneck_21_1/tf_conv_78_1/Sigmoid"], "attr": {"T": {"type": "DT_FLOAT"}}}, {"name": "PartitionedCall/PartitionedCall/functional_15_1/tfc3_7_1/concat", "op": "ConcatV2", "input": ["PartitionedCall/PartitionedCall/functional_15_1/tfc3_7_1/sequential_14_1/tf_bottleneck_21_1/tf_conv_78_1/mul_1", "PartitionedCall/PartitionedCall/functional_15_1/tfc3_7_1/tf_conv_73_1/mul_1", "PartitionedCall/PartitionedCall/functional_15_1/tfc3_7_1/concat/axis"], "attr": {"N": {"i": "2"}, "Tidx": {"type": "DT_INT32"}, "T": {"type": "DT_FLOAT"}}}, {"name": "PartitionedCall/PartitionedCall/functional_15_1/tfc3_7_1/tf_conv_74_1/conv2d_74_1/add", "op": "_FusedConv2D", "input": ["PartitionedCall/PartitionedCall/functional_15_1/tfc3_7_1/concat", "PartitionedCall/PartitionedCall/functional_15_1/tfc3_7_1/tf_conv_74_1/conv2d_74_1/convolution/ReadVariableOp", "PartitionedCall/PartitionedCall/functional_15_1/tfc3_7_1/tf_conv_74_1/conv2d_74_1/Reshape"], "device": "/device:CPU:0", "attr": {"num_host_args": {"i": "0"}, "data_format": {"s": "TkhXQw=="}, "filter_format": {"s": "SFdJTw=="}, "_input_shapes": {"list": {"shape": [{"dim": [{"size": "-353"}, {"size": "-354"}, {"size": "-355"}, {"size": "-356"}]}, {"dim": [{"size": "1"}, {"size": "1"}, {"size": "768"}, {"size": "768"}]}]}}, "fused_ops": {"list": {"s": ["Qmlhc0FkZA=="]}}, "num_args": {"i": "1"}, "strides": {"list": {"i": ["1", "1", "1", "1"]}}, "TArgs": {"list": {"type": ["DT_FLOAT"]}}, "padding": {"s": "U0FNRQ=="}, "use_cudnn_on_gpu": {"b": true}, "leakyrelu_alpha": {"f": 0.2}, "epsilon": {"f": 0.0}, "T": {"type": "DT_FLOAT"}, "explicit_paddings": {"list": {}}, "dilations": {"list": {"i": ["1", "1", "1", "1"]}}}}, {"name": "PartitionedCall/PartitionedCall/functional_15_1/tfc3_7_1/tf_conv_74_1/Sigmoid", "op": "Sigmoid", "input": ["PartitionedCall/PartitionedCall/functional_15_1/tfc3_7_1/tf_conv_74_1/conv2d_74_1/add"], "attr": {"_input_shapes": {"list": {"shape": [{"unknownRank": true}]}}, "T": {"type": "DT_FLOAT"}}}, {"name": "PartitionedCall/PartitionedCall/functional_15_1/tfc3_7_1/tf_conv_74_1/mul_1", "op": "Mul", "input": ["PartitionedCall/PartitionedCall/functional_15_1/tfc3_7_1/tf_conv_74_1/conv2d_74_1/add", "PartitionedCall/PartitionedCall/functional_15_1/tfc3_7_1/tf_conv_74_1/Sigmoid"], "attr": {"T": {"type": "DT_FLOAT"}}}, {"name": "PartitionedCall/PartitionedCall/functional_15_1/tf_detect_1/tf_conv2d_2_1/conv2d_81_1/add", "op": "_FusedConv2D", "input": ["PartitionedCall/PartitionedCall/functional_15_1/tfc3_7_1/tf_conv_74_1/mul_1", "PartitionedCall/PartitionedCall/functional_15_1/tf_detect_1/tf_conv2d_2_1/conv2d_81_1/convolution/ReadVariableOp", "PartitionedCall/PartitionedCall/functional_15_1/tf_detect_1/tf_conv2d_2_1/conv2d_81_1/Reshape"], "device": "/device:CPU:0", "attr": {"num_host_args": {"i": "0"}, "data_format": {"s": "TkhXQw=="}, "filter_format": {"s": "SFdJTw=="}, "_input_shapes": {"list": {"shape": [{"dim": [{"size": "-357"}, {"size": "-358"}, {"size": "-359"}, {"size": "-360"}]}, {"dim": [{"size": "1"}, {"size": "1"}, {"size": "768"}, {"size": "27"}]}]}}, "fused_ops": {"list": {"s": ["Qmlhc0FkZA=="]}}, "num_args": {"i": "1"}, "strides": {"list": {"i": ["1", "1", "1", "1"]}}, "TArgs": {"list": {"type": ["DT_FLOAT"]}}, "padding": {"s": "VkFMSUQ="}, "use_cudnn_on_gpu": {"b": true}, "leakyrelu_alpha": {"f": 0.2}, "epsilon": {"f": 0.0}, "T": {"type": "DT_FLOAT"}, "explicit_paddings": {"list": {}}, "dilations": {"list": {"i": ["1", "1", "1", "1"]}}}}, {"name": "PartitionedCall/PartitionedCall/functional_15_1/tf_detect_1/Reshape_4", "op": "Reshape", "input": ["PartitionedCall/PartitionedCall/functional_15_1/tf_detect_1/tf_conv2d_2_1/conv2d_81_1/add", "PartitionedCall/PartitionedCall/functional_15_1/tf_detect_1/Reshape_4/shape_1"], "attr": {"T": {"type": "DT_FLOAT"}, "Tshape": {"type": "DT_INT32"}}}, {"name": "PartitionedCall/PartitionedCall/functional_15_1/tf_detect_1/strided_slice_21", "op": "StridedSlice", "input": ["PartitionedCall/PartitionedCall/functional_15_1/tf_detect_1/Reshape_4", "PartitionedCall/PartitionedCall/functional_15_1/tf_detect_1/strided_slice_21/stack", "PartitionedCall/PartitionedCall/functional_15_1/tf_detect_1/strided_slice_21/stack_1", "PartitionedCall/PartitionedCall/functional_15_1/tf_detect_1/strided_slice_21/stack_2"], "attr": {"shrink_axis_mask": {"i": "0"}, "new_axis_mask": {"i": "0"}, "Index": {"type": "DT_INT32"}, "begin_mask": {"i": "0"}, "end_mask": {"i": "0"}, "T": {"type": "DT_FLOAT"}, "ellipsis_mask": {"i": "1"}}}, {"name": "PartitionedCall/PartitionedCall/functional_15_1/tf_detect_1/strided_slice_22", "op": "StridedSlice", "input": ["PartitionedCall/PartitionedCall/functional_15_1/tf_detect_1/Reshape_4", "PartitionedCall/PartitionedCall/functional_15_1/tf_detect_1/strided_slice_22/stack", "PartitionedCall/PartitionedCall/functional_15_1/tf_detect_1/strided_slice_22/stack_1", "PartitionedCall/PartitionedCall/functional_15_1/tf_detect_1/strided_slice_22/stack_2"], "attr": {"shrink_axis_mask": {"i": "0"}, "Index": {"type": "DT_INT32"}, "new_axis_mask": {"i": "0"}, "begin_mask": {"i": "0"}, "end_mask": {"i": "0"}, "T": {"type": "DT_FLOAT"}, "ellipsis_mask": {"i": "1"}}}, {"name": "PartitionedCall/PartitionedCall/functional_15_1/tf_detect_1/strided_slice_23", "op": "StridedSlice", "input": ["PartitionedCall/PartitionedCall/functional_15_1/tf_detect_1/Reshape_4", "PartitionedCall/PartitionedCall/functional_15_1/tf_detect_1/strided_slice_23/stack", "PartitionedCall/PartitionedCall/functional_15_1/tf_detect_1/strided_slice_23/stack_1", "PartitionedCall/PartitionedCall/functional_15_1/tf_detect_1/strided_slice_23/stack_2"], "attr": {"shrink_axis_mask": {"i": "0"}, "new_axis_mask": {"i": "0"}, "Index": {"type": "DT_INT32"}, "begin_mask": {"i": "0"}, "end_mask": {"i": "2"}, "T": {"type": "DT_FLOAT"}, "ellipsis_mask": {"i": "1"}}}, {"name": "PartitionedCall/PartitionedCall/functional_15_1/tf_detect_1/strided_slice_19", "op": "StridedSlice", "input": ["PartitionedCall/PartitionedCall/functional_15_1/tf_detect_1/Reshape_4", "PartitionedCall/PartitionedCall/functional_15_1/tf_detect_1/strided_slice_19/stack", "PartitionedCall/PartitionedCall/functional_15_1/tf_detect_1/strided_slice_19/stack_1", "PartitionedCall/PartitionedCall/functional_15_1/tf_detect_1/strided_slice_19/stack_2"], "attr": {"shrink_axis_mask": {"i": "0"}, "Index": {"type": "DT_INT32"}, "new_axis_mask": {"i": "0"}, "begin_mask": {"i": "0"}, "end_mask": {"i": "0"}, "T": {"type": "DT_FLOAT"}, "ellipsis_mask": {"i": "1"}}}, {"name": "PartitionedCall/PartitionedCall/functional_15_1/tf_detect_1/Sigmoid_7", "op": "Sigmoid", "input": ["PartitionedCall/PartitionedCall/functional_15_1/tf_detect_1/strided_slice_21"], "attr": {"T": {"type": "DT_FLOAT"}}}, {"name": "PartitionedCall/PartitionedCall/functional_15_1/tf_detect_1/Sigmoid_8", "op": "Sigmoid", "input": ["PartitionedCall/PartitionedCall/functional_15_1/tf_detect_1/strided_slice_22"], "attr": {"T": {"type": "DT_FLOAT"}}}, {"name": "PartitionedCall/PartitionedCall/functional_15_1/tf_detect_1/Sigmoid_6", "op": "Sigmoid", "input": ["PartitionedCall/PartitionedCall/functional_15_1/tf_detect_1/strided_slice_19"], "attr": {"T": {"type": "DT_FLOAT"}}}, {"name": "PartitionedCall/PartitionedCall/functional_15_1/tf_detect_1/pow_2", "op": "Square", "input": ["PartitionedCall/PartitionedCall/functional_15_1/tf_detect_1/Sigmoid_7"], "attr": {"T": {"type": "DT_FLOAT"}}}, {"name": "PartitionedCall/PartitionedCall/functional_15_1/tf_detect_1/mul_16", "op": "Mul", "input": ["PartitionedCall/PartitionedCall/functional_15_1/tf_detect_1/Sigmoid_6", "PartitionedCall/PartitionedCall/functional_15_1/tf_detect_1/mul_16/y"], "attr": {"T": {"type": "DT_FLOAT"}}}, {"name": "PartitionedCall/PartitionedCall/functional_15_1/tf_detect_1/truediv_5", "op": "Mul", "input": ["PartitionedCall/PartitionedCall/functional_15_1/tf_detect_1/pow_2", "PartitionedCall/PartitionedCall/functional_15_1/tf_detect_1/mul_18"], "attr": {"T": {"type": "DT_FLOAT"}}}, {"name": "PartitionedCall/PartitionedCall/functional_15_1/tf_detect_1/add_2", "op": "AddV2", "input": ["PartitionedCall/PartitionedCall/functional_15_1/tf_detect_1/mul_16", "PartitionedCall/PartitionedCall/functional_15_1/tf_detect_1/sub_2"], "attr": {"T": {"type": "DT_FLOAT"}}}, {"name": "PartitionedCall/PartitionedCall/functional_15_1/tf_detect_1/truediv_4", "op": "Mul", "input": ["PartitionedCall/PartitionedCall/functional_15_1/tf_detect_1/add_2", "PartitionedCall/PartitionedCall/functional_15_1/tf_detect_1/mul_17"], "attr": {"T": {"type": "DT_FLOAT"}}}, {"name": "PartitionedCall/PartitionedCall/functional_15_1/tf_detect_1/concat_2", "op": "ConcatV2", "input": ["PartitionedCall/PartitionedCall/functional_15_1/tf_detect_1/truediv_4", "PartitionedCall/PartitionedCall/functional_15_1/tf_detect_1/truediv_5", "PartitionedCall/PartitionedCall/functional_15_1/tf_detect_1/Sigmoid_8", "PartitionedCall/PartitionedCall/functional_15_1/tf_detect_1/strided_slice_23", "PartitionedCall/PartitionedCall/functional_15_1/tf_detect_1/concat_2/axis"], "attr": {"N": {"i": "4"}, "T": {"type": "DT_FLOAT"}, "Tidx": {"type": "DT_INT32"}}}, {"name": "PartitionedCall/PartitionedCall/functional_15_1/tf_detect_1/Reshape_5", "op": "Reshape", "input": ["PartitionedCall/PartitionedCall/functional_15_1/tf_detect_1/concat_2", "PartitionedCall/PartitionedCall/functional_15_1/tf_detect_1/Reshape_5/shape_1"], "attr": {"T": {"type": "DT_FLOAT"}, "Tshape": {"type": "DT_INT32"}}}, {"name": "PartitionedCall/PartitionedCall/functional_15_1/tf_detect_1/concat_3", "op": "ConcatV2", "input": ["PartitionedCall/PartitionedCall/functional_15_1/tf_detect_1/Reshape_1", "PartitionedCall/PartitionedCall/functional_15_1/tf_detect_1/Reshape_3", "PartitionedCall/PartitionedCall/functional_15_1/tf_detect_1/Reshape_5", "PartitionedCall/PartitionedCall/functional_15_1/tf_detect_1/concat_3/axis"], "attr": {"N": {"i": "3"}, "T": {"type": "DT_FLOAT"}, "Tidx": {"type": "DT_INT32"}}}, {"name": "Identity", "op": "Identity", "input": ["PartitionedCall/PartitionedCall/functional_15_1/tf_detect_1/concat_3"], "attr": {"T": {"type": "DT_FLOAT"}}}], "library": {}, "versions": {"producer": 1994}}, "weightsManifest": [{"paths": ["group1-shard1of20.bin", "group1-shard2of20.bin", "group1-shard3of20.bin", "group1-shard4of20.bin", "group1-shard5of20.bin", "group1-shard6of20.bin", "group1-shard7of20.bin", "group1-shard8of20.bin", "group1-shard9of20.bin", "group1-shard10of20.bin", "group1-shard11of20.bin", "group1-shard12of20.bin", "group1-shard13of20.bin", "group1-shard14of20.bin", "group1-shard15of20.bin", "group1-shard16of20.bin", "group1-shard17of20.bin", "group1-shard18of20.bin", "group1-shard19of20.bin", "group1-shard20of20.bin"], "weights": [{"name": "PartitionedCall/PartitionedCall/functional_15_1/tf_detect_1/strided_slice_3/stack", "shape": [2], "dtype": "int32"}, {"name": "PartitionedCall/PartitionedCall/functional_15_1/tf_detect_1/strided_slice_3/stack_1", "shape": [2], "dtype": "int32"}, {"name": "PartitionedCall/PartitionedCall/functional_15_1/tf_detect_1/strided_slice_3/stack_2", "shape": [2], "dtype": "int32"}, {"name": "PartitionedCall/PartitionedCall/functional_15_1/tf_detect_1/mul_2/y", "shape": [], "dtype": "float32"}, {"name": "PartitionedCall/PartitionedCall/functional_15_1/tf_detect_1/sub", "shape": [1, 6400, 1, 2], "dtype": "float32"}, {"name": "PartitionedCall/PartitionedCall/functional_15_1/tf_detect_1/mul_3", "shape": [1, 2], "dtype": "float32"}, {"name": "PartitionedCall/PartitionedCall/functional_15_1/tf_detect_1/strided_slice_5/stack", "shape": [2], "dtype": "int32"}, {"name": "PartitionedCall/PartitionedCall/functional_15_1/tf_detect_1/strided_slice_5/stack_1", "shape": [2], "dtype": "int32"}, {"name": "PartitionedCall/PartitionedCall/functional_15_1/tf_detect_1/strided_slice_5/stack_2", "shape": [2], "dtype": "int32"}, {"name": "PartitionedCall/PartitionedCall/functional_15_1/tf_detect_1/mul_4", "shape": [1, 1, 3, 2], "dtype": "float32"}, {"name": "PartitionedCall/PartitionedCall/functional_15_1/tf_detect_1/strided_slice_6/stack", "shape": [2], "dtype": "int32"}, {"name": "PartitionedCall/PartitionedCall/functional_15_1/tf_detect_1/strided_slice_6/stack_1", "shape": [2], "dtype": "int32"}, {"name": "PartitionedCall/PartitionedCall/functional_15_1/tf_detect_1/strided_slice_6/stack_2", "shape": [2], "dtype": "int32"}, {"name": "PartitionedCall/PartitionedCall/functional_15_1/tf_detect_1/tf_conv2d_1/conv2d_79_1/convolution/ReadVariableOp", "shape": [1, 1, 192, 27], "dtype": "float32"}, {"name": "PartitionedCall/PartitionedCall/functional_15_1/tf_detect_1/tf_conv2d_1/conv2d_79_1/Reshape", "shape": [1, 1, 1, 27], "dtype": "float32"}, {"name": "PartitionedCall/PartitionedCall/functional_15_1/tf_detect_1/Reshape/shape_1", "shape": [4], "dtype": "int32"}, {"name": "PartitionedCall/PartitionedCall/functional_15_1/tf_detect_1/strided_slice_7/stack", "shape": [2], "dtype": "int32"}, {"name": "PartitionedCall/PartitionedCall/functional_15_1/tf_detect_1/strided_slice_7/stack_1", "shape": [2], "dtype": "int32"}, {"name": "PartitionedCall/PartitionedCall/functional_15_1/tf_detect_1/strided_slice_7/stack_2", "shape": [2], "dtype": "int32"}, {"name": "PartitionedCall/PartitionedCall/functional_15_1/tf_detect_1/concat/axis", "shape": [], "dtype": "int32"}, {"name": "PartitionedCall/PartitionedCall/functional_15_1/tf_detect_1/Reshape_1/shape_1", "shape": [3], "dtype": "int32"}, {"name": "PartitionedCall/PartitionedCall/functional_15_1/tf_detect_1/strided_slice_11/stack", "shape": [2], "dtype": "int32"}, {"name": "PartitionedCall/PartitionedCall/functional_15_1/tf_detect_1/strided_slice_11/stack_1", "shape": [2], "dtype": "int32"}, {"name": "PartitionedCall/PartitionedCall/functional_15_1/tf_detect_1/strided_slice_11/stack_2", "shape": [2], "dtype": "int32"}, {"name": "PartitionedCall/PartitionedCall/functional_15_1/tf_detect_1/mul_9/y", "shape": [], "dtype": "float32"}, {"name": "PartitionedCall/PartitionedCall/functional_15_1/tf_detect_1/sub_1", "shape": [1, 1600, 1, 2], "dtype": "float32"}, {"name": "PartitionedCall/PartitionedCall/functional_15_1/tf_detect_1/mul_10", "shape": [1, 2], "dtype": "float32"}, {"name": "PartitionedCall/PartitionedCall/functional_15_1/tf_detect_1/strided_slice_13/stack", "shape": [2], "dtype": "int32"}, {"name": "PartitionedCall/PartitionedCall/functional_15_1/tf_detect_1/strided_slice_13/stack_1", "shape": [2], "dtype": "int32"}, {"name": "PartitionedCall/PartitionedCall/functional_15_1/tf_detect_1/strided_slice_13/stack_2", "shape": [2], "dtype": "int32"}, {"name": "PartitionedCall/PartitionedCall/functional_15_1/tf_detect_1/mul_11", "shape": [1, 1, 3, 2], "dtype": "float32"}, {"name": "PartitionedCall/PartitionedCall/functional_15_1/tf_detect_1/strided_slice_14/stack", "shape": [2], "dtype": "int32"}, {"name": "PartitionedCall/PartitionedCall/functional_15_1/tf_detect_1/strided_slice_14/stack_1", "shape": [2], "dtype": "int32"}, {"name": "PartitionedCall/PartitionedCall/functional_15_1/tf_detect_1/strided_slice_14/stack_2", "shape": [2], "dtype": "int32"}, {"name": "PartitionedCall/PartitionedCall/functional_15_1/tf_detect_1/tf_conv2d_1_2/conv2d_80_1/convolution/ReadVariableOp", "shape": [1, 1, 384, 27], "dtype": "float32"}, {"name": "PartitionedCall/PartitionedCall/functional_15_1/tf_detect_1/tf_conv2d_1_2/conv2d_80_1/Reshape", "shape": [1, 1, 1, 27], "dtype": "float32"}, {"name": "PartitionedCall/PartitionedCall/functional_15_1/tf_detect_1/Reshape_2/shape_1", "shape": [4], "dtype": "int32"}, {"name": "PartitionedCall/PartitionedCall/functional_15_1/tf_detect_1/strided_slice_15/stack", "shape": [2], "dtype": "int32"}, {"name": "PartitionedCall/PartitionedCall/functional_15_1/tf_detect_1/strided_slice_15/stack_1", "shape": [2], "dtype": "int32"}, {"name": "PartitionedCall/PartitionedCall/functional_15_1/tf_detect_1/strided_slice_15/stack_2", "shape": [2], "dtype": "int32"}, {"name": "PartitionedCall/PartitionedCall/functional_15_1/tf_detect_1/concat_1/axis", "shape": [], "dtype": "int32"}, {"name": "PartitionedCall/PartitionedCall/functional_15_1/tf_detect_1/Reshape_3/shape_1", "shape": [3], "dtype": "int32"}, {"name": "PartitionedCall/PartitionedCall/functional_15_1/tf_detect_1/strided_slice_19/stack", "shape": [2], "dtype": "int32"}, {"name": "PartitionedCall/PartitionedCall/functional_15_1/tf_detect_1/strided_slice_19/stack_1", "shape": [2], "dtype": "int32"}, {"name": "PartitionedCall/PartitionedCall/functional_15_1/tf_detect_1/strided_slice_19/stack_2", "shape": [2], "dtype": "int32"}, {"name": "PartitionedCall/PartitionedCall/functional_15_1/tf_detect_1/mul_16/y", "shape": [], "dtype": "float32"}, {"name": "PartitionedCall/PartitionedCall/functional_15_1/tf_detect_1/sub_2", "shape": [1, 400, 1, 2], "dtype": "float32"}, {"name": "PartitionedCall/PartitionedCall/functional_15_1/tf_detect_1/mul_17", "shape": [1, 2], "dtype": "float32"}, {"name": "PartitionedCall/PartitionedCall/functional_15_1/tf_detect_1/strided_slice_21/stack", "shape": [2], "dtype": "int32"}, {"name": "PartitionedCall/PartitionedCall/functional_15_1/tf_detect_1/strided_slice_21/stack_1", "shape": [2], "dtype": "int32"}, {"name": "PartitionedCall/PartitionedCall/functional_15_1/tf_detect_1/strided_slice_21/stack_2", "shape": [2], "dtype": "int32"}, {"name": "PartitionedCall/PartitionedCall/functional_15_1/tf_detect_1/mul_18", "shape": [1, 1, 3, 2], "dtype": "float32"}, {"name": "PartitionedCall/PartitionedCall/functional_15_1/tf_detect_1/strided_slice_22/stack", "shape": [2], "dtype": "int32"}, {"name": "PartitionedCall/PartitionedCall/functional_15_1/tf_detect_1/strided_slice_22/stack_1", "shape": [2], "dtype": "int32"}, {"name": "PartitionedCall/PartitionedCall/functional_15_1/tf_detect_1/strided_slice_22/stack_2", "shape": [2], "dtype": "int32"}, {"name": "PartitionedCall/PartitionedCall/functional_15_1/tfc3_7_1/tf_conv_72_1/conv2d_72_1/convolution/ReadVariableOp", "shape": [1, 1, 768, 384], "dtype": "float32"}, {"name": "PartitionedCall/PartitionedCall/functional_15_1/tfc3_7_1/tf_conv_72_1/conv2d_72_1/Reshape", "shape": [1, 1, 1, 384], "dtype": "float32"}, {"name": "PartitionedCall/PartitionedCall/functional_15_1/tfc3_7_1/sequential_14_1/tf_bottleneck_20_1/tf_conv_75_1/conv2d_75_1/convolution/ReadVariableOp", "shape": [1, 1, 384, 384], "dtype": "float32"}, {"name": "PartitionedCall/PartitionedCall/functional_15_1/tfc3_7_1/sequential_14_1/tf_bottleneck_20_1/tf_conv_75_1/conv2d_75_1/Reshape", "shape": [1, 1, 1, 384], "dtype": "float32"}, {"name": "PartitionedCall/PartitionedCall/functional_15_1/tfc3_7_1/sequential_14_1/tf_bottleneck_20_1/tf_conv_76_1/conv2d_76_1/convolution/ReadVariableOp", "shape": [3, 3, 384, 384], "dtype": "float32"}, {"name": "PartitionedCall/PartitionedCall/functional_15_1/tfc3_7_1/sequential_14_1/tf_bottleneck_20_1/tf_conv_76_1/conv2d_76_1/Reshape", "shape": [1, 1, 1, 384], "dtype": "float32"}, {"name": "PartitionedCall/PartitionedCall/functional_15_1/tfc3_7_1/sequential_14_1/tf_bottleneck_21_1/tf_conv_77_1/conv2d_77_1/convolution/ReadVariableOp", "shape": [1, 1, 384, 384], "dtype": "float32"}, {"name": "PartitionedCall/PartitionedCall/functional_15_1/tfc3_7_1/sequential_14_1/tf_bottleneck_21_1/tf_conv_77_1/conv2d_77_1/Reshape", "shape": [1, 1, 1, 384], "dtype": "float32"}, {"name": "PartitionedCall/PartitionedCall/functional_15_1/tfc3_7_1/sequential_14_1/tf_bottleneck_21_1/tf_conv_78_1/conv2d_78_1/convolution/ReadVariableOp", "shape": [3, 3, 384, 384], "dtype": "float32"}, {"name": "PartitionedCall/PartitionedCall/functional_15_1/tfc3_7_1/sequential_14_1/tf_bottleneck_21_1/tf_conv_78_1/conv2d_78_1/Reshape", "shape": [1, 1, 1, 384], "dtype": "float32"}, {"name": "PartitionedCall/PartitionedCall/functional_15_1/tfc3_6_1/tf_conv_64_1/conv2d_64_1/convolution/ReadVariableOp", "shape": [1, 1, 384, 192], "dtype": "float32"}, {"name": "PartitionedCall/PartitionedCall/functional_15_1/tfc3_6_1/tf_conv_64_1/conv2d_64_1/Reshape", "shape": [1, 1, 1, 192], "dtype": "float32"}, {"name": "PartitionedCall/PartitionedCall/functional_15_1/tfc3_6_1/sequential_12_1/tf_bottleneck_18_1/tf_conv_67_1/conv2d_67_1/convolution/ReadVariableOp", "shape": [1, 1, 192, 192], "dtype": "float32"}, {"name": "PartitionedCall/PartitionedCall/functional_15_1/tfc3_6_1/sequential_12_1/tf_bottleneck_18_1/tf_conv_67_1/conv2d_67_1/Reshape", "shape": [1, 1, 1, 192], "dtype": "float32"}, {"name": "PartitionedCall/PartitionedCall/functional_15_1/tfc3_6_1/sequential_12_1/tf_bottleneck_18_1/tf_conv_68_1/conv2d_68_1/convolution/ReadVariableOp", "shape": [3, 3, 192, 192], "dtype": "float32"}, {"name": "PartitionedCall/PartitionedCall/functional_15_1/tfc3_6_1/sequential_12_1/tf_bottleneck_18_1/tf_conv_68_1/conv2d_68_1/Reshape", "shape": [1, 1, 1, 192], "dtype": "float32"}, {"name": "PartitionedCall/PartitionedCall/functional_15_1/tfc3_6_1/sequential_12_1/tf_bottleneck_19_1/tf_conv_69_1/conv2d_69_1/convolution/ReadVariableOp", "shape": [1, 1, 192, 192], "dtype": "float32"}, {"name": "PartitionedCall/PartitionedCall/functional_15_1/tfc3_6_1/sequential_12_1/tf_bottleneck_19_1/tf_conv_69_1/conv2d_69_1/Reshape", "shape": [1, 1, 1, 192], "dtype": "float32"}, {"name": "PartitionedCall/PartitionedCall/functional_15_1/tfc3_6_1/sequential_12_1/tf_bottleneck_19_1/tf_conv_70_1/conv2d_70_1/convolution/ReadVariableOp", "shape": [3, 3, 192, 192], "dtype": "float32"}, {"name": "PartitionedCall/PartitionedCall/functional_15_1/tfc3_6_1/sequential_12_1/tf_bottleneck_19_1/tf_conv_70_1/conv2d_70_1/Reshape", "shape": [1, 1, 1, 192], "dtype": "float32"}, {"name": "PartitionedCall/PartitionedCall/functional_15_1/tfc3_5_1/tf_conv_56_1/conv2d_56_1/convolution/ReadVariableOp", "shape": [1, 1, 384, 96], "dtype": "float32"}, {"name": "PartitionedCall/PartitionedCall/functional_15_1/tfc3_5_1/tf_conv_56_1/conv2d_56_1/Reshape", "shape": [1, 1, 1, 96], "dtype": "float32"}, {"name": "PartitionedCall/PartitionedCall/functional_15_1/tfc3_5_1/sequential_10_1/tf_bottleneck_16_1/tf_conv_59_1/conv2d_59_1/convolution/ReadVariableOp", "shape": [1, 1, 96, 96], "dtype": "float32"}, {"name": "PartitionedCall/PartitionedCall/functional_15_1/tfc3_5_1/sequential_10_1/tf_bottleneck_16_1/tf_conv_59_1/conv2d_59_1/Reshape", "shape": [1, 1, 1, 96], "dtype": "float32"}, {"name": "PartitionedCall/PartitionedCall/functional_15_1/tfc3_5_1/sequential_10_1/tf_bottleneck_16_1/tf_conv_60_1/conv2d_60_1/convolution/ReadVariableOp", "shape": [3, 3, 96, 96], "dtype": "float32"}, {"name": "PartitionedCall/PartitionedCall/functional_15_1/tfc3_5_1/sequential_10_1/tf_bottleneck_16_1/tf_conv_60_1/conv2d_60_1/Reshape", "shape": [1, 1, 1, 96], "dtype": "float32"}, {"name": "PartitionedCall/PartitionedCall/functional_15_1/tfc3_5_1/sequential_10_1/tf_bottleneck_17_1/tf_conv_61_1/conv2d_61_1/convolution/ReadVariableOp", "shape": [1, 1, 96, 96], "dtype": "float32"}, {"name": "PartitionedCall/PartitionedCall/functional_15_1/tfc3_5_1/sequential_10_1/tf_bottleneck_17_1/tf_conv_61_1/conv2d_61_1/Reshape", "shape": [1, 1, 1, 96], "dtype": "float32"}, {"name": "PartitionedCall/PartitionedCall/functional_15_1/tfc3_5_1/sequential_10_1/tf_bottleneck_17_1/tf_conv_62_1/conv2d_62_1/convolution/ReadVariableOp", "shape": [3, 3, 96, 96], "dtype": "float32"}, {"name": "PartitionedCall/PartitionedCall/functional_15_1/tfc3_5_1/sequential_10_1/tf_bottleneck_17_1/tf_conv_62_1/conv2d_62_1/Reshape", "shape": [1, 1, 1, 96], "dtype": "float32"}, {"name": "PartitionedCall/PartitionedCall/functional_15_1/tf_upsample_1_2/resize/size", "shape": [2], "dtype": "int32"}, {"name": "PartitionedCall/PartitionedCall/functional_15_1/tf_concat_1_2/concat/axis", "shape": [], "dtype": "int32"}, {"name": "PartitionedCall/PartitionedCall/functional_15_1/tfc3_5_1/tf_conv_57_1/conv2d_57_1/convolution/ReadVariableOp", "shape": [1, 1, 384, 96], "dtype": "float32"}, {"name": "PartitionedCall/PartitionedCall/functional_15_1/tfc3_5_1/tf_conv_57_1/conv2d_57_1/Reshape", "shape": [1, 1, 1, 96], "dtype": "float32"}, {"name": "PartitionedCall/PartitionedCall/functional_15_1/tfc3_5_1/concat/axis", "shape": [], "dtype": "int32"}, {"name": "PartitionedCall/PartitionedCall/functional_15_1/tfc3_5_1/tf_conv_58_1/conv2d_58_1/convolution/ReadVariableOp", "shape": [1, 1, 192, 192], "dtype": "float32"}, {"name": "PartitionedCall/PartitionedCall/functional_15_1/tfc3_5_1/tf_conv_58_1/conv2d_58_1/Reshape", "shape": [1, 1, 1, 192], "dtype": "float32"}, {"name": "PartitionedCall/PartitionedCall/functional_15_1/tf_conv_63_1/sequential_11_1/tf_pad_5_1/Pad/paddings", "shape": [4, 2], "dtype": "int32"}, {"name": "PartitionedCall/PartitionedCall/functional_15_1/tf_conv_63_1/sequential_11_1/conv2d_63_1/convolution/ReadVariableOp", "shape": [3, 3, 192, 192], "dtype": "float32"}, {"name": "PartitionedCall/PartitionedCall/functional_15_1/tf_conv_63_1/sequential_11_1/conv2d_63_1/Reshape", "shape": [1, 1, 1, 192], "dtype": "float32"}, {"name": "PartitionedCall/PartitionedCall/functional_15_1/tfc3_4_1/tf_conv_48_1/conv2d_48_1/convolution/ReadVariableOp", "shape": [1, 1, 768, 192], "dtype": "float32"}, {"name": "PartitionedCall/PartitionedCall/functional_15_1/tfc3_4_1/tf_conv_48_1/conv2d_48_1/Reshape", "shape": [1, 1, 1, 192], "dtype": "float32"}, {"name": "PartitionedCall/PartitionedCall/functional_15_1/tfc3_4_1/sequential_9_1/tf_bottleneck_14_1/tf_conv_51_1/conv2d_51_1/convolution/ReadVariableOp", "shape": [1, 1, 192, 192], "dtype": "float32"}, {"name": "PartitionedCall/PartitionedCall/functional_15_1/tfc3_4_1/sequential_9_1/tf_bottleneck_14_1/tf_conv_51_1/conv2d_51_1/Reshape", "shape": [1, 1, 1, 192], "dtype": "float32"}, {"name": "PartitionedCall/PartitionedCall/functional_15_1/tfc3_4_1/sequential_9_1/tf_bottleneck_14_1/tf_conv_52_1/conv2d_52_1/convolution/ReadVariableOp", "shape": [3, 3, 192, 192], "dtype": "float32"}, {"name": "PartitionedCall/PartitionedCall/functional_15_1/tfc3_4_1/sequential_9_1/tf_bottleneck_14_1/tf_conv_52_1/conv2d_52_1/Reshape", "shape": [1, 1, 1, 192], "dtype": "float32"}, {"name": "PartitionedCall/PartitionedCall/functional_15_1/tfc3_4_1/sequential_9_1/tf_bottleneck_15_1/tf_conv_53_1/conv2d_53_1/convolution/ReadVariableOp", "shape": [1, 1, 192, 192], "dtype": "float32"}, {"name": "PartitionedCall/PartitionedCall/functional_15_1/tfc3_4_1/sequential_9_1/tf_bottleneck_15_1/tf_conv_53_1/conv2d_53_1/Reshape", "shape": [1, 1, 1, 192], "dtype": "float32"}, {"name": "PartitionedCall/PartitionedCall/functional_15_1/tfc3_4_1/sequential_9_1/tf_bottleneck_15_1/tf_conv_54_1/conv2d_54_1/convolution/ReadVariableOp", "shape": [3, 3, 192, 192], "dtype": "float32"}, {"name": "PartitionedCall/PartitionedCall/functional_15_1/tfc3_4_1/sequential_9_1/tf_bottleneck_15_1/tf_conv_54_1/conv2d_54_1/Reshape", "shape": [1, 1, 1, 192], "dtype": "float32"}, {"name": "PartitionedCall/PartitionedCall/functional_15_1/tf_upsample_1/resize/size", "shape": [2], "dtype": "int32"}, {"name": "PartitionedCall/PartitionedCall/functional_15_1/tf_concat_1/concat/axis", "shape": [], "dtype": "int32"}, {"name": "PartitionedCall/PartitionedCall/functional_15_1/tfc3_4_1/tf_conv_49_1/conv2d_49_1/convolution/ReadVariableOp", "shape": [1, 1, 768, 192], "dtype": "float32"}, {"name": "PartitionedCall/PartitionedCall/functional_15_1/tfc3_4_1/tf_conv_49_1/conv2d_49_1/Reshape", "shape": [1, 1, 1, 192], "dtype": "float32"}, {"name": "PartitionedCall/PartitionedCall/functional_15_1/tfc3_4_1/concat/axis", "shape": [], "dtype": "int32"}, {"name": "PartitionedCall/PartitionedCall/functional_15_1/tfc3_4_1/tf_conv_50_1/conv2d_50_1/convolution/ReadVariableOp", "shape": [1, 1, 384, 384], "dtype": "float32"}, {"name": "PartitionedCall/PartitionedCall/functional_15_1/tfc3_4_1/tf_conv_50_1/conv2d_50_1/Reshape", "shape": [1, 1, 1, 384], "dtype": "float32"}, {"name": "PartitionedCall/PartitionedCall/functional_15_1/tf_conv_55_1/conv2d_55_1/convolution/ReadVariableOp", "shape": [1, 1, 384, 192], "dtype": "float32"}, {"name": "PartitionedCall/PartitionedCall/functional_15_1/tf_conv_55_1/conv2d_55_1/Reshape", "shape": [1, 1, 1, 192], "dtype": "float32"}, {"name": "PartitionedCall/PartitionedCall/functional_15_1/tf_concat_2_1/concat/axis", "shape": [], "dtype": "int32"}, {"name": "PartitionedCall/PartitionedCall/functional_15_1/tfc3_6_1/tf_conv_65_1/conv2d_65_1/convolution/ReadVariableOp", "shape": [1, 1, 384, 192], "dtype": "float32"}, {"name": "PartitionedCall/PartitionedCall/functional_15_1/tfc3_6_1/tf_conv_65_1/conv2d_65_1/Reshape", "shape": [1, 1, 1, 192], "dtype": "float32"}, {"name": "PartitionedCall/PartitionedCall/functional_15_1/tfc3_6_1/concat/axis", "shape": [], "dtype": "int32"}, {"name": "PartitionedCall/PartitionedCall/functional_15_1/tfc3_6_1/tf_conv_66_1/conv2d_66_1/convolution/ReadVariableOp", "shape": [1, 1, 384, 384], "dtype": "float32"}, {"name": "PartitionedCall/PartitionedCall/functional_15_1/tfc3_6_1/tf_conv_66_1/conv2d_66_1/Reshape", "shape": [1, 1, 1, 384], "dtype": "float32"}, {"name": "PartitionedCall/PartitionedCall/functional_15_1/tf_conv_71_1/sequential_13_1/tf_pad_6_1/Pad/paddings", "shape": [4, 2], "dtype": "int32"}, {"name": "PartitionedCall/PartitionedCall/functional_15_1/tf_conv_71_1/sequential_13_1/conv2d_71_1/convolution/ReadVariableOp", "shape": [3, 3, 384, 384], "dtype": "float32"}, {"name": "PartitionedCall/PartitionedCall/functional_15_1/tf_conv_71_1/sequential_13_1/conv2d_71_1/Reshape", "shape": [1, 1, 1, 384], "dtype": "float32"}, {"name": "PartitionedCall/PartitionedCall/functional_15_1/tfc3_3_1/tf_conv_38_1/conv2d_38_1/convolution/ReadVariableOp", "shape": [1, 1, 768, 384], "dtype": "float32"}, {"name": "PartitionedCall/PartitionedCall/functional_15_1/tfc3_3_1/tf_conv_38_1/conv2d_38_1/Reshape", "shape": [1, 1, 1, 384], "dtype": "float32"}, {"name": "PartitionedCall/PartitionedCall/functional_15_1/tfc3_3_1/sequential_8_1/tf_bottleneck_12_1/tf_conv_41_1/conv2d_41_1/convolution/ReadVariableOp", "shape": [1, 1, 384, 384], "dtype": "float32"}, {"name": "PartitionedCall/PartitionedCall/functional_15_1/tfc3_3_1/sequential_8_1/tf_bottleneck_12_1/tf_conv_41_1/conv2d_41_1/Reshape", "shape": [1, 1, 1, 384], "dtype": "float32"}, {"name": "PartitionedCall/PartitionedCall/functional_15_1/tfc3_3_1/sequential_8_1/tf_bottleneck_12_1/tf_conv_42_1/conv2d_42_1/convolution/ReadVariableOp", "shape": [3, 3, 384, 384], "dtype": "float32"}, {"name": "PartitionedCall/PartitionedCall/functional_15_1/tfc3_3_1/sequential_8_1/tf_bottleneck_12_1/tf_conv_42_1/conv2d_42_1/Reshape", "shape": [1, 1, 1, 384], "dtype": "float32"}, {"name": "PartitionedCall/PartitionedCall/functional_15_1/tfc3_3_1/sequential_8_1/tf_bottleneck_13_1/tf_conv_43_1/conv2d_43_1/convolution/ReadVariableOp", "shape": [1, 1, 384, 384], "dtype": "float32"}, {"name": "PartitionedCall/PartitionedCall/functional_15_1/tfc3_3_1/sequential_8_1/tf_bottleneck_13_1/tf_conv_43_1/conv2d_43_1/Reshape", "shape": [1, 1, 1, 384], "dtype": "float32"}, {"name": "PartitionedCall/PartitionedCall/functional_15_1/tfc3_3_1/sequential_8_1/tf_bottleneck_13_1/tf_conv_44_1/conv2d_44_1/convolution/ReadVariableOp", "shape": [3, 3, 384, 384], "dtype": "float32"}, {"name": "PartitionedCall/PartitionedCall/functional_15_1/tfc3_3_1/sequential_8_1/tf_bottleneck_13_1/tf_conv_44_1/conv2d_44_1/Reshape", "shape": [1, 1, 1, 384], "dtype": "float32"}, {"name": "PartitionedCall/PartitionedCall/functional_15_1/tfc3_2_1/tf_conv_22_1/conv2d_22_1/convolution/ReadVariableOp", "shape": [1, 1, 384, 192], "dtype": "float32"}, {"name": "PartitionedCall/PartitionedCall/functional_15_1/tfc3_2_1/tf_conv_22_1/conv2d_22_1/Reshape", "shape": [1, 1, 1, 192], "dtype": "float32"}, {"name": "PartitionedCall/PartitionedCall/functional_15_1/tfc3_2_1/sequential_6_1/tf_bottleneck_6_1/tf_conv_25_1/conv2d_25_1/convolution/ReadVariableOp", "shape": [1, 1, 192, 192], "dtype": "float32"}, {"name": "PartitionedCall/PartitionedCall/functional_15_1/tfc3_2_1/sequential_6_1/tf_bottleneck_6_1/tf_conv_25_1/conv2d_25_1/Reshape", "shape": [1, 1, 1, 192], "dtype": "float32"}, {"name": "PartitionedCall/PartitionedCall/functional_15_1/tfc3_2_1/sequential_6_1/tf_bottleneck_6_1/tf_conv_26_1/conv2d_26_1/convolution/ReadVariableOp", "shape": [3, 3, 192, 192], "dtype": "float32"}, {"name": "PartitionedCall/PartitionedCall/functional_15_1/tfc3_2_1/sequential_6_1/tf_bottleneck_6_1/tf_conv_26_1/conv2d_26_1/Reshape", "shape": [1, 1, 1, 192], "dtype": "float32"}, {"name": "PartitionedCall/PartitionedCall/functional_15_1/tfc3_2_1/sequential_6_1/tf_bottleneck_7_1/tf_conv_27_1/conv2d_27_1/convolution/ReadVariableOp", "shape": [1, 1, 192, 192], "dtype": "float32"}, {"name": "PartitionedCall/PartitionedCall/functional_15_1/tfc3_2_1/sequential_6_1/tf_bottleneck_7_1/tf_conv_27_1/conv2d_27_1/Reshape", "shape": [1, 1, 1, 192], "dtype": "float32"}, {"name": "PartitionedCall/PartitionedCall/functional_15_1/tfc3_2_1/sequential_6_1/tf_bottleneck_7_1/tf_conv_28_1/conv2d_28_1/convolution/ReadVariableOp", "shape": [3, 3, 192, 192], "dtype": "float32"}, {"name": "PartitionedCall/PartitionedCall/functional_15_1/tfc3_2_1/sequential_6_1/tf_bottleneck_7_1/tf_conv_28_1/conv2d_28_1/Reshape", "shape": [1, 1, 1, 192], "dtype": "float32"}, {"name": "PartitionedCall/PartitionedCall/functional_15_1/tfc3_2_1/sequential_6_1/tf_bottleneck_8_1/tf_conv_29_1/conv2d_29_1/convolution/ReadVariableOp", "shape": [1, 1, 192, 192], "dtype": "float32"}, {"name": "PartitionedCall/PartitionedCall/functional_15_1/tfc3_2_1/sequential_6_1/tf_bottleneck_8_1/tf_conv_29_1/conv2d_29_1/Reshape", "shape": [1, 1, 1, 192], "dtype": "float32"}, {"name": "PartitionedCall/PartitionedCall/functional_15_1/tfc3_2_1/sequential_6_1/tf_bottleneck_8_1/tf_conv_30_1/conv2d_30_1/convolution/ReadVariableOp", "shape": [3, 3, 192, 192], "dtype": "float32"}, {"name": "PartitionedCall/PartitionedCall/functional_15_1/tfc3_2_1/sequential_6_1/tf_bottleneck_8_1/tf_conv_30_1/conv2d_30_1/Reshape", "shape": [1, 1, 1, 192], "dtype": "float32"}, {"name": "PartitionedCall/PartitionedCall/functional_15_1/tfc3_2_1/sequential_6_1/tf_bottleneck_9_1/tf_conv_31_1/conv2d_31_1/convolution/ReadVariableOp", "shape": [1, 1, 192, 192], "dtype": "float32"}, {"name": "PartitionedCall/PartitionedCall/functional_15_1/tfc3_2_1/sequential_6_1/tf_bottleneck_9_1/tf_conv_31_1/conv2d_31_1/Reshape", "shape": [1, 1, 1, 192], "dtype": "float32"}, {"name": "PartitionedCall/PartitionedCall/functional_15_1/tfc3_2_1/sequential_6_1/tf_bottleneck_9_1/tf_conv_32_1/conv2d_32_1/convolution/ReadVariableOp", "shape": [3, 3, 192, 192], "dtype": "float32"}, {"name": "PartitionedCall/PartitionedCall/functional_15_1/tfc3_2_1/sequential_6_1/tf_bottleneck_9_1/tf_conv_32_1/conv2d_32_1/Reshape", "shape": [1, 1, 1, 192], "dtype": "float32"}, {"name": "PartitionedCall/PartitionedCall/functional_15_1/tfc3_2_1/sequential_6_1/tf_bottleneck_10_1/tf_conv_33_1/conv2d_33_1/convolution/ReadVariableOp", "shape": [1, 1, 192, 192], "dtype": "float32"}, {"name": "PartitionedCall/PartitionedCall/functional_15_1/tfc3_2_1/sequential_6_1/tf_bottleneck_10_1/tf_conv_33_1/conv2d_33_1/Reshape", "shape": [1, 1, 1, 192], "dtype": "float32"}, {"name": "PartitionedCall/PartitionedCall/functional_15_1/tfc3_2_1/sequential_6_1/tf_bottleneck_10_1/tf_conv_34_1/conv2d_34_1/convolution/ReadVariableOp", "shape": [3, 3, 192, 192], "dtype": "float32"}, {"name": "PartitionedCall/PartitionedCall/functional_15_1/tfc3_2_1/sequential_6_1/tf_bottleneck_10_1/tf_conv_34_1/conv2d_34_1/Reshape", "shape": [1, 1, 1, 192], "dtype": "float32"}, {"name": "PartitionedCall/PartitionedCall/functional_15_1/tfc3_2_1/sequential_6_1/tf_bottleneck_11_1/tf_conv_35_1/conv2d_35_1/convolution/ReadVariableOp", "shape": [1, 1, 192, 192], "dtype": "float32"}, {"name": "PartitionedCall/PartitionedCall/functional_15_1/tfc3_2_1/sequential_6_1/tf_bottleneck_11_1/tf_conv_35_1/conv2d_35_1/Reshape", "shape": [1, 1, 1, 192], "dtype": "float32"}, {"name": "PartitionedCall/PartitionedCall/functional_15_1/tfc3_2_1/sequential_6_1/tf_bottleneck_11_1/tf_conv_36_1/conv2d_36_1/convolution/ReadVariableOp", "shape": [3, 3, 192, 192], "dtype": "float32"}, {"name": "PartitionedCall/PartitionedCall/functional_15_1/tfc3_2_1/sequential_6_1/tf_bottleneck_11_1/tf_conv_36_1/conv2d_36_1/Reshape", "shape": [1, 1, 1, 192], "dtype": "float32"}, {"name": "PartitionedCall/PartitionedCall/functional_15_1/tfc3_1_2/tf_conv_10_1/conv2d_10_1/convolution/ReadVariableOp", "shape": [1, 1, 192, 96], "dtype": "float32"}, {"name": "PartitionedCall/PartitionedCall/functional_15_1/tfc3_1_2/tf_conv_10_1/conv2d_10_1/Reshape", "shape": [1, 1, 1, 96], "dtype": "float32"}, {"name": "PartitionedCall/PartitionedCall/functional_15_1/tfc3_1_2/sequential_4_1/tf_bottleneck_2_1/tf_conv_13_1/conv2d_13_1/convolution/ReadVariableOp", "shape": [1, 1, 96, 96], "dtype": "float32"}, {"name": "PartitionedCall/PartitionedCall/functional_15_1/tfc3_1_2/sequential_4_1/tf_bottleneck_2_1/tf_conv_13_1/conv2d_13_1/Reshape", "shape": [1, 1, 1, 96], "dtype": "float32"}, {"name": "PartitionedCall/PartitionedCall/functional_15_1/tfc3_1_2/sequential_4_1/tf_bottleneck_2_1/tf_conv_14_1/conv2d_14_1/convolution/ReadVariableOp", "shape": [3, 3, 96, 96], "dtype": "float32"}, {"name": "PartitionedCall/PartitionedCall/functional_15_1/tfc3_1_2/sequential_4_1/tf_bottleneck_2_1/tf_conv_14_1/conv2d_14_1/Reshape", "shape": [1, 1, 1, 96], "dtype": "float32"}, {"name": "PartitionedCall/PartitionedCall/functional_15_1/tfc3_1_2/sequential_4_1/tf_bottleneck_3_1/tf_conv_15_1/conv2d_15_1/convolution/ReadVariableOp", "shape": [1, 1, 96, 96], "dtype": "float32"}, {"name": "PartitionedCall/PartitionedCall/functional_15_1/tfc3_1_2/sequential_4_1/tf_bottleneck_3_1/tf_conv_15_1/conv2d_15_1/Reshape", "shape": [1, 1, 1, 96], "dtype": "float32"}, {"name": "PartitionedCall/PartitionedCall/functional_15_1/tfc3_1_2/sequential_4_1/tf_bottleneck_3_1/tf_conv_16_1/conv2d_16_1/convolution/ReadVariableOp", "shape": [3, 3, 96, 96], "dtype": "float32"}, {"name": "PartitionedCall/PartitionedCall/functional_15_1/tfc3_1_2/sequential_4_1/tf_bottleneck_3_1/tf_conv_16_1/conv2d_16_1/Reshape", "shape": [1, 1, 1, 96], "dtype": "float32"}, {"name": "PartitionedCall/PartitionedCall/functional_15_1/tfc3_1_2/sequential_4_1/tf_bottleneck_4_1/tf_conv_17_1/conv2d_17_1/convolution/ReadVariableOp", "shape": [1, 1, 96, 96], "dtype": "float32"}, {"name": "PartitionedCall/PartitionedCall/functional_15_1/tfc3_1_2/sequential_4_1/tf_bottleneck_4_1/tf_conv_17_1/conv2d_17_1/Reshape", "shape": [1, 1, 1, 96], "dtype": "float32"}, {"name": "PartitionedCall/PartitionedCall/functional_15_1/tfc3_1_2/sequential_4_1/tf_bottleneck_4_1/tf_conv_18_1/conv2d_18_1/convolution/ReadVariableOp", "shape": [3, 3, 96, 96], "dtype": "float32"}, {"name": "PartitionedCall/PartitionedCall/functional_15_1/tfc3_1_2/sequential_4_1/tf_bottleneck_4_1/tf_conv_18_1/conv2d_18_1/Reshape", "shape": [1, 1, 1, 96], "dtype": "float32"}, {"name": "PartitionedCall/PartitionedCall/functional_15_1/tfc3_1_2/sequential_4_1/tf_bottleneck_5_1/tf_conv_19_1/conv2d_19_1/convolution/ReadVariableOp", "shape": [1, 1, 96, 96], "dtype": "float32"}, {"name": "PartitionedCall/PartitionedCall/functional_15_1/tfc3_1_2/sequential_4_1/tf_bottleneck_5_1/tf_conv_19_1/conv2d_19_1/Reshape", "shape": [1, 1, 1, 96], "dtype": "float32"}, {"name": "PartitionedCall/PartitionedCall/functional_15_1/tfc3_1_2/sequential_4_1/tf_bottleneck_5_1/tf_conv_20_1/conv2d_20_1/convolution/ReadVariableOp", "shape": [3, 3, 96, 96], "dtype": "float32"}, {"name": "PartitionedCall/PartitionedCall/functional_15_1/tfc3_1_2/sequential_4_1/tf_bottleneck_5_1/tf_conv_20_1/conv2d_20_1/Reshape", "shape": [1, 1, 1, 96], "dtype": "float32"}, {"name": "PartitionedCall/PartitionedCall/functional_15_1/tfc3_1/tf_conv_2_1/conv2d_2_1/convolution/ReadVariableOp", "shape": [1, 1, 96, 48], "dtype": "float32"}, {"name": "PartitionedCall/PartitionedCall/functional_15_1/tfc3_1/tf_conv_2_1/conv2d_2_1/Reshape", "shape": [1, 1, 1, 48], "dtype": "float32"}, {"name": "PartitionedCall/PartitionedCall/functional_15_1/tfc3_1/sequential_2_1/tf_bottleneck_1/tf_conv_5_1/conv2d_5_1/convolution/ReadVariableOp", "shape": [1, 1, 48, 48], "dtype": "float32"}, {"name": "PartitionedCall/PartitionedCall/functional_15_1/tfc3_1/sequential_2_1/tf_bottleneck_1/tf_conv_5_1/conv2d_5_1/Reshape", "shape": [1, 1, 1, 48], "dtype": "float32"}, {"name": "PartitionedCall/PartitionedCall/functional_15_1/tfc3_1/sequential_2_1/tf_bottleneck_1/tf_conv_6_1/conv2d_6_1/convolution/ReadVariableOp", "shape": [3, 3, 48, 48], "dtype": "float32"}, {"name": "PartitionedCall/PartitionedCall/functional_15_1/tfc3_1/sequential_2_1/tf_bottleneck_1/tf_conv_6_1/conv2d_6_1/Reshape", "shape": [1, 1, 1, 48], "dtype": "float32"}, {"name": "PartitionedCall/PartitionedCall/functional_15_1/tfc3_1/sequential_2_1/tf_bottleneck_1_2/tf_conv_7_1/conv2d_7_1/convolution/ReadVariableOp", "shape": [1, 1, 48, 48], "dtype": "float32"}, {"name": "PartitionedCall/PartitionedCall/functional_15_1/tfc3_1/sequential_2_1/tf_bottleneck_1_2/tf_conv_7_1/conv2d_7_1/Reshape", "shape": [1, 1, 1, 48], "dtype": "float32"}, {"name": "PartitionedCall/PartitionedCall/functional_15_1/tfc3_1/sequential_2_1/tf_bottleneck_1_2/tf_conv_8_1/conv2d_8_1/convolution/ReadVariableOp", "shape": [3, 3, 48, 48], "dtype": "float32"}, {"name": "PartitionedCall/PartitionedCall/functional_15_1/tfc3_1/sequential_2_1/tf_bottleneck_1_2/tf_conv_8_1/conv2d_8_1/Reshape", "shape": [1, 1, 1, 48], "dtype": "float32"}, {"name": "PartitionedCall/PartitionedCall/functional_15_1/tf_conv_1/sequential_1/tf_pad_1/Pad/paddings", "shape": [4, 2], "dtype": "int32"}, {"name": "PartitionedCall/PartitionedCall/functional_15_1/tf_conv_1/sequential_1/conv2d_1/convolution/ReadVariableOp", "shape": [6, 6, 3, 48], "dtype": "float32"}, {"name": "PartitionedCall/PartitionedCall/functional_15_1/tf_conv_1/sequential_1/conv2d_1/Reshape", "shape": [1, 1, 1, 48], "dtype": "float32"}, {"name": "PartitionedCall/PartitionedCall/functional_15_1/tf_conv_1_2/sequential_1_1/tf_pad_1_1/Pad/paddings", "shape": [4, 2], "dtype": "int32"}, {"name": "PartitionedCall/PartitionedCall/functional_15_1/tf_conv_1_2/sequential_1_1/conv2d_1_1/convolution/ReadVariableOp", "shape": [3, 3, 48, 96], "dtype": "float32"}, {"name": "PartitionedCall/PartitionedCall/functional_15_1/tf_conv_1_2/sequential_1_1/conv2d_1_1/Reshape", "shape": [1, 1, 1, 96], "dtype": "float32"}, {"name": "PartitionedCall/PartitionedCall/functional_15_1/tfc3_1/tf_conv_3_1/conv2d_3_1/convolution/ReadVariableOp", "shape": [1, 1, 96, 48], "dtype": "float32"}, {"name": "PartitionedCall/PartitionedCall/functional_15_1/tfc3_1/tf_conv_3_1/conv2d_3_1/Reshape", "shape": [1, 1, 1, 48], "dtype": "float32"}, {"name": "PartitionedCall/PartitionedCall/functional_15_1/tfc3_1/concat/axis", "shape": [], "dtype": "int32"}, {"name": "PartitionedCall/PartitionedCall/functional_15_1/tfc3_1/tf_conv_4_1/conv2d_4_1/convolution/ReadVariableOp", "shape": [1, 1, 96, 96], "dtype": "float32"}, {"name": "PartitionedCall/PartitionedCall/functional_15_1/tfc3_1/tf_conv_4_1/conv2d_4_1/Reshape", "shape": [1, 1, 1, 96], "dtype": "float32"}, {"name": "PartitionedCall/PartitionedCall/functional_15_1/tf_conv_9_1/sequential_3_1/tf_pad_2_1/Pad/paddings", "shape": [4, 2], "dtype": "int32"}, {"name": "PartitionedCall/PartitionedCall/functional_15_1/tf_conv_9_1/sequential_3_1/conv2d_9_1/convolution/ReadVariableOp", "shape": [3, 3, 96, 192], "dtype": "float32"}, {"name": "PartitionedCall/PartitionedCall/functional_15_1/tf_conv_9_1/sequential_3_1/conv2d_9_1/Reshape", "shape": [1, 1, 1, 192], "dtype": "float32"}, {"name": "PartitionedCall/PartitionedCall/functional_15_1/tfc3_1_2/tf_conv_11_1/conv2d_11_1/convolution/ReadVariableOp", "shape": [1, 1, 192, 96], "dtype": "float32"}, {"name": "PartitionedCall/PartitionedCall/functional_15_1/tfc3_1_2/tf_conv_11_1/conv2d_11_1/Reshape", "shape": [1, 1, 1, 96], "dtype": "float32"}, {"name": "PartitionedCall/PartitionedCall/functional_15_1/tfc3_1_2/concat/axis", "shape": [], "dtype": "int32"}, {"name": "PartitionedCall/PartitionedCall/functional_15_1/tfc3_1_2/tf_conv_12_1/conv2d_12_1/convolution/ReadVariableOp", "shape": [1, 1, 192, 192], "dtype": "float32"}, {"name": "PartitionedCall/PartitionedCall/functional_15_1/tfc3_1_2/tf_conv_12_1/conv2d_12_1/Reshape", "shape": [1, 1, 1, 192], "dtype": "float32"}, {"name": "PartitionedCall/PartitionedCall/functional_15_1/tf_conv_21_1/sequential_5_1/tf_pad_3_1/Pad/paddings", "shape": [4, 2], "dtype": "int32"}, {"name": "PartitionedCall/PartitionedCall/functional_15_1/tf_conv_21_1/sequential_5_1/conv2d_21_1/convolution/ReadVariableOp", "shape": [3, 3, 192, 384], "dtype": "float32"}, {"name": "PartitionedCall/PartitionedCall/functional_15_1/tf_conv_21_1/sequential_5_1/conv2d_21_1/Reshape", "shape": [1, 1, 1, 384], "dtype": "float32"}, {"name": "PartitionedCall/PartitionedCall/functional_15_1/tfc3_2_1/tf_conv_23_1/conv2d_23_1/convolution/ReadVariableOp", "shape": [1, 1, 384, 192], "dtype": "float32"}, {"name": "PartitionedCall/PartitionedCall/functional_15_1/tfc3_2_1/tf_conv_23_1/conv2d_23_1/Reshape", "shape": [1, 1, 1, 192], "dtype": "float32"}, {"name": "PartitionedCall/PartitionedCall/functional_15_1/tfc3_2_1/concat/axis", "shape": [], "dtype": "int32"}, {"name": "PartitionedCall/PartitionedCall/functional_15_1/tfc3_2_1/tf_conv_24_1/conv2d_24_1/convolution/ReadVariableOp", "shape": [1, 1, 384, 384], "dtype": "float32"}, {"name": "PartitionedCall/PartitionedCall/functional_15_1/tfc3_2_1/tf_conv_24_1/conv2d_24_1/Reshape", "shape": [1, 1, 1, 384], "dtype": "float32"}, {"name": "PartitionedCall/PartitionedCall/functional_15_1/tf_conv_37_1/sequential_7_1/tf_pad_4_1/Pad/paddings", "shape": [4, 2], "dtype": "int32"}, {"name": "PartitionedCall/PartitionedCall/functional_15_1/tf_conv_37_1/sequential_7_1/conv2d_37_1/convolution/ReadVariableOp", "shape": [3, 3, 384, 768], "dtype": "float32"}, {"name": "PartitionedCall/PartitionedCall/functional_15_1/tf_conv_37_1/sequential_7_1/conv2d_37_1/Reshape", "shape": [1, 1, 1, 768], "dtype": "float32"}, {"name": "PartitionedCall/PartitionedCall/functional_15_1/tfc3_3_1/tf_conv_39_1/conv2d_39_1/convolution/ReadVariableOp", "shape": [1, 1, 768, 384], "dtype": "float32"}, {"name": "PartitionedCall/PartitionedCall/functional_15_1/tfc3_3_1/tf_conv_39_1/conv2d_39_1/Reshape", "shape": [1, 1, 1, 384], "dtype": "float32"}, {"name": "PartitionedCall/PartitionedCall/functional_15_1/tfc3_3_1/concat/axis", "shape": [], "dtype": "int32"}, {"name": "PartitionedCall/PartitionedCall/functional_15_1/tfc3_3_1/tf_conv_40_1/conv2d_40_1/convolution/ReadVariableOp", "shape": [1, 1, 768, 768], "dtype": "float32"}, {"name": "PartitionedCall/PartitionedCall/functional_15_1/tfc3_3_1/tf_conv_40_1/conv2d_40_1/Reshape", "shape": [1, 1, 1, 768], "dtype": "float32"}, {"name": "PartitionedCall/PartitionedCall/functional_15_1/tfsppf_1/tf_conv_45_1/conv2d_45_1/convolution/ReadVariableOp", "shape": [1, 1, 768, 384], "dtype": "float32"}, {"name": "PartitionedCall/PartitionedCall/functional_15_1/tfsppf_1/tf_conv_45_1/conv2d_45_1/Reshape", "shape": [1, 1, 1, 384], "dtype": "float32"}, {"name": "PartitionedCall/PartitionedCall/functional_15_1/tfsppf_1/concat/axis", "shape": [], "dtype": "int32"}, {"name": "PartitionedCall/PartitionedCall/functional_15_1/tfsppf_1/tf_conv_46_1/conv2d_46_1/convolution/ReadVariableOp", "shape": [1, 1, 1536, 768], "dtype": "float32"}, {"name": "PartitionedCall/PartitionedCall/functional_15_1/tfsppf_1/tf_conv_46_1/conv2d_46_1/Reshape", "shape": [1, 1, 1, 768], "dtype": "float32"}, {"name": "PartitionedCall/PartitionedCall/functional_15_1/tf_conv_47_1/conv2d_47_1/convolution/ReadVariableOp", "shape": [1, 1, 768, 384], "dtype": "float32"}, {"name": "PartitionedCall/PartitionedCall/functional_15_1/tf_conv_47_1/conv2d_47_1/Reshape", "shape": [1, 1, 1, 384], "dtype": "float32"}, {"name": "PartitionedCall/PartitionedCall/functional_15_1/tf_concat_3_1/concat/axis", "shape": [], "dtype": "int32"}, {"name": "PartitionedCall/PartitionedCall/functional_15_1/tfc3_7_1/tf_conv_73_1/conv2d_73_1/convolution/ReadVariableOp", "shape": [1, 1, 768, 384], "dtype": "float32"}, {"name": "PartitionedCall/PartitionedCall/functional_15_1/tfc3_7_1/tf_conv_73_1/conv2d_73_1/Reshape", "shape": [1, 1, 1, 384], "dtype": "float32"}, {"name": "PartitionedCall/PartitionedCall/functional_15_1/tfc3_7_1/concat/axis", "shape": [], "dtype": "int32"}, {"name": "PartitionedCall/PartitionedCall/functional_15_1/tfc3_7_1/tf_conv_74_1/conv2d_74_1/convolution/ReadVariableOp", "shape": [1, 1, 768, 768], "dtype": "float32"}, {"name": "PartitionedCall/PartitionedCall/functional_15_1/tfc3_7_1/tf_conv_74_1/conv2d_74_1/Reshape", "shape": [1, 1, 1, 768], "dtype": "float32"}, {"name": "PartitionedCall/PartitionedCall/functional_15_1/tf_detect_1/tf_conv2d_2_1/conv2d_81_1/convolution/ReadVariableOp", "shape": [1, 1, 768, 27], "dtype": "float32"}, {"name": "PartitionedCall/PartitionedCall/functional_15_1/tf_detect_1/tf_conv2d_2_1/conv2d_81_1/Reshape", "shape": [1, 1, 1, 27], "dtype": "float32"}, {"name": "PartitionedCall/PartitionedCall/functional_15_1/tf_detect_1/Reshape_4/shape_1", "shape": [4], "dtype": "int32"}, {"name": "PartitionedCall/PartitionedCall/functional_15_1/tf_detect_1/strided_slice_23/stack", "shape": [2], "dtype": "int32"}, {"name": "PartitionedCall/PartitionedCall/functional_15_1/tf_detect_1/strided_slice_23/stack_1", "shape": [2], "dtype": "int32"}, {"name": "PartitionedCall/PartitionedCall/functional_15_1/tf_detect_1/strided_slice_23/stack_2", "shape": [2], "dtype": "int32"}, {"name": "PartitionedCall/PartitionedCall/functional_15_1/tf_detect_1/concat_2/axis", "shape": [], "dtype": "int32"}, {"name": "PartitionedCall/PartitionedCall/functional_15_1/tf_detect_1/Reshape_5/shape_1", "shape": [3], "dtype": "int32"}, {"name": "PartitionedCall/PartitionedCall/functional_15_1/tf_detect_1/concat_3/axis", "shape": [], "dtype": "int32"}]}]}